hetgnn_model.pt (torch, 255393 bytes, 104 tensors)

weight f4 [16, 1]
000000 cb 28 8e 3a 96 04 76 b2 bf 5d 8c 38 a3 68 1d 34
       0.0010845897 -1.4320127e-08 6.693182e-05 1.4659831e-07
000010 58 ca ff b1 5e 47 ab b4 42 d6 31 31 b1 14 1f ba
       -7.4444806e-09 -3.1903159e-07 2.5878681e-09 -0.0006068452
000020 4b ed a4 b3 a8 0f bf b9 76 5b cd af 8e f7 03 00
       -7.6800085e-08 -0.00036442024 -3.735427e-10 3.64312e-40
000030 dc a3 5f 89 1e 35 f8 b3 7c f3 99 a7 eb e9 e9 ae
       -2.6919695e-33 -1.1558062e-07 -4.2730017e-15 -1.06371655e-10

bias f4 [16]
000000 1a 70 10 34 7d 4d 09 b2 fc 78 af 32 bc eb 81 35
       1.3451827e-07 -7.992068e-09 2.0427699e-08 9.679857e-07
000010 27 53 01 b2 ab d2 aa 31 a8 f6 d8 38 5e ba 08 04
       -7.527695e-09 4.9716014e-09 0.00010345626 1.6072299e-36
000020 25 6e 71 3a 3a d7 87 b0 1c 21 ec b0 ee f5 fd b6
       0.0009209833 -9.883714e-10 -1.718067e-09 -7.5686175e-06
000030 d9 f3 a1 b5 8f f7 4b b3 40 94 70 1a 07 c2 12 b0
       -1.2066404e-06 -4.7489774e-08 4.9750592e-23 -5.339022e-10

weight f4 [16]
000000 52 97 10 3b 84 85 0f 3b a1 8e 10 3b d9 5a 10 3b
       0.002206285 0.002189965 0.002205767 0.0022026806
000010 b4 70 10 3b f9 9a 10 3b 63 72 10 3b d9 5a 10 3b
       0.0022039833 0.0022065027 0.0022040836 0.0022026806
000020 1b 16 10 3b d9 5a 10 3b 09 ea 0f 3b d9 5a 10 3b
       0.0021985832 0.0022026806 0.0021959564 0.0022026806
000030 d9 5a 10 3b ec 4b 10 3b 26 4e 10 3b 7f 1d 11 3b
       0.0022026806 0.002201791 0.0022019236 0.0022142825

bias f4 [16]
000000 9f 4a 1f bb 39 df 53 3c 2b a6 4f 3c 7e 44 f4 3b
       -0.0024305952 0.012931638 0.012673895 0.007454454
000010 aa 60 81 3a 1b e0 d5 3a c2 65 6d ba cb da de 3b
       0.0009870727 0.0016317399 -0.00090559956 0.0068009845
000020 86 d7 67 3c 16 a3 fd 3b eb c7 b2 3b 12 f2 0b bc
       0.014150506 0.0077403886 0.005455961 -0.008541601
000030 74 f6 8d 3b a0 f1 6b 3c 7e c1 83 bb de b2 fd bb
       0.004332358 0.01440087 -0.004020869 -0.00774227

running_mean f4 [16]
000000 cc 25 95 3a 7d 77 a2 2f 81 63 96 38 a4 f4 59 35
       0.0011379062 2.955253e-10 7.1710914e-05 8.11948e-07
000010 7c cb fe 2b 02 d8 ee 33 fc a0 e7 38 00 00 00 00
       1.8104264e-12 1.112203e-07 0.00011044924 0.0
000020 9c 9b 7d 3a 00 00 00 00 91 13 35 20 00 00 00 00
       0.00096743717 0.0 1.533777e-19 0.0
000030 00 00 00 00 6b 7e 99 32 fb 07 13 00 88 dd 4a 1d
       0.0 1.7869032e-08 1.747737e-39 2.6849006e-21

running_var f4 [16]
000000 9e 2e 6c 21 be 80 4f 10 40 fb 7f 1d 95 8f eb 17
       8.002161e-19 4.092273e-29 3.3878862e-21 1.5222764e-24
000010 9d 95 85 07 e3 20 ca 14 cd b9 e1 1d 04 00 00 00
       2.009955e-34 2.0409759e-26 5.9749118e-21 6e-45
000020 4f 52 0d 21 04 00 00 00 9f 8b 69 00 04 00 00 00
       4.7881593e-19 6e-45 9.692814e-39 6e-45
000030 04 00 00 00 4f 6b 0e 13 04 00 00 00 a1 0b 00 00
       6e-45 1.7975827e-27 6e-45 4.172e-42

weight f4 [16, 1]
000000 fe 0a 87 1a 7c 57 03 80 7f 8b 19 34 6f ce 4f 80
       5.585245e-23 -3.0689e-40 1.4299984e-07 -7.329059e-39
000010 17 94 38 b2 ff e7 81 3a 70 45 09 b7 52 dc 6e 35
       -1.0743881e-08 0.0009911059 -8.1820035e-06 8.898252e-07
000020 7a ff d2 32 8b f4 84 3a 95 10 90 b2 c8 57 15 37
       2.4563395e-08 0.001014368 -1.6771347e-08 8.90153e-06
000030 2c 6d fe 2e 1a 34 d6 31 e3 64 07 3b d6 f9 3d 30
       1.15699755e-10 6.234143e-09 0.0020659498 6.911284e-10

bias f4 [16]
000000 1e ac 80 ad 84 07 a6 b8 da 98 56 38 3d bb 9e ac
       -1.462835e-11 -7.916897e-05 5.116393e-05 -4.5114177e-12
000010 c0 03 49 8e 6c d9 bc b2 2d ab 3d 3a f5 37 72 36
       -2.4776968e-30 -2.1984953e-08 0.0007235285 3.6093381e-06
000020 16 5e 39 37 9b ea dd 39 ce f2 7a 30 c0 81 67 b5
       1.1048765e-05 0.000423272 9.1294516e-10 -8.6243017e-07
000030 d7 11 13 b5 34 c7 3e b2 b8 b6 9e b4 9a 82 30 b1
       -5.478773e-07 -1.1104749e-08 -2.956274e-07 -2.568561e-09

weight f4 [16]
000000 d9 5a 10 3b d9 5a 10 3b 45 03 10 3b d9 5a 10 3b
       0.0022026806 0.0022026806 0.0021974605 0.0022026806
000010 d9 5a 10 3b bc 67 10 3b 5c 67 10 3b b8 33 10 3b
       0.0022026806 0.0022034487 0.0022034263 0.0022003483
000020 ba 77 10 3b 16 85 10 3b 9a 5c 10 3b b6 5e 10 3b
       0.002204402 0.0022051982 0.002202785 0.0022029108
000030 d9 5a 10 3b be 47 10 3b d0 31 10 3b 0f 43 10 3b
       0.0022026806 0.0022015418 0.0022002347 0.0022012626

bias f4 [16]
000000 68 17 c0 bc b4 2f 12 bc 54 36 36 39 c5 23 c3 bc
       -0.023448661 -0.008922506 0.00017377111 -0.023820767
000010 ba 8f 99 3c e6 01 e0 39 39 33 82 3b f4 f6 f2 b7
       0.018745292 0.00042726024 0.0039733914 -2.8963645e-05
000020 be d7 83 3b 3b 8e 4a 3c 20 7c 9d 3c 31 5c db 3c
       0.004023521 0.012363012 0.019224226 0.026777359
000030 d4 7b 52 bb 92 e3 a5 bb bf 50 7b 3a 92 8e bb 3b
       -0.0032117264 -0.005062529 0.0009586922 0.005723783

running_mean f4 [16]
000000 00 00 00 00 00 00 00 00 7e 20 67 38 00 00 00 00
       0.0 0.0 5.5104952e-05 0.0
000010 00 00 00 00 dc 5f 88 3a 98 3c 45 3a e4 1d a6 36
       0.0 0.0010404545 0.0007523983 4.9506652e-06
000020 68 89 49 37 64 29 c6 3a ce 7e 5a 2b 1b 6d 12 37
       1.2012526e-05 0.0015118537 7.7625135e-13 8.727681e-06
000030 00 00 00 00 55 89 cd 2c 70 5d 0d 3b de 67 91 22
       0.0 5.8416974e-12 0.0021570586 3.9412302e-18

running_var f4 [16]
000000 04 00 00 00 04 00 00 00 03 c2 f6 1b 04 00 00 00
       6e-45 6e-45 4.0822663e-22 6e-45
000010 04 00 00 00 33 98 4b 20 c1 85 86 1f 0c 18 90 18
       6e-45 1.7245127e-19 5.6972485e-20 3.724741e-24
000020 1e 38 9e 19 a8 a4 da 20 2d ad 62 05 7f dc 30 19
       1.6359483e-23 3.7039597e-19 1.0658276e-35 9.1435156e-24
000030 04 00 00 00 a1 bf c2 0b e6 f7 64 21 04 00 00 00
       6e-45 7.5014413e-32 7.7577496e-19 6e-45

weight f4 [16, 2]
000000 cc 91 95 3e 9b c9 91 be 3d 62 07 3f f5 b7 16 3f
       0.29212797 -0.28474125 0.52884275 0.58874446
000010 45 12 28 3f 7b c2 a4 bd 89 d0 06 00 e7 31 5a 89
       0.6565288 -0.08044907 6.25821e-40 -2.626426e-33
000020 2c 32 ee 3e 98 d5 93 3e 0c f1 93 3d 79 c5 8c be
       0.46522653 0.28873897 0.072237104 -0.2749441
000030 4d 39 28 3e 6d 21 03 bf 15 1a c6 3e 96 02 71 3e
       0.16428109 -0.5122288 0.38691774 0.23536143
000040 a1 e8 04 00 4e 5c 00 80 d5 19 25 bc d7 8e 18 94
       4.50794e-40 -3.3113e-41 -0.01007696 -7.702209e-27
000050 f1 14 bb be 0d 6a 8d 3e ef 1b 0f bf 4c 79 8a be
       -0.36539415 0.27619973 -0.55902 -0.27045667
000060 09 a6 e6 be b0 02 d8 bd fe 0c 01 3d 8c 35 6a 3e
       -0.4504855 -0.105473876 0.03150653 0.22871989
000070 b2 13 27 bf 71 4f a3 3e 25 c5 0a 3f 63 05 d2 3e
       -0.6526443 0.31896546 0.5420707 0.41019735

bias f4 [16]
000000 28 e0 7f 3e f4 12 d1 be 37 d0 50 be 36 8c eb ae
       0.24987853 -0.40834773 -0.20391928 -1.0711469e-10
000010 4e f0 d7 b4 dd 7d 8b 3e df 30 9b 3e 1b f1 26 be
       -4.0221715e-07 0.27244464 0.30310723 -0.16302912
000020 98 90 75 b5 a3 30 a4 bc 7b 13 a7 3e 72 2f ef 3e
       -9.1480024e-07 -0.020042723 0.3263205 0.46715885
000030 9c 3c 27 3e f4 a4 82 3b f4 c2 3f be 35 e3 56 bd
       0.16331714 0.003986949 -0.18726712 -0.052462775

weight f4 [16]
000000 03 5c 7d 3f 40 fc 54 3f 19 94 61 3f d9 5a 10 3b
       0.98968524 0.831974 0.88116604 0.0022026806
000010 7e 5b 6d 3f ce 5e 6c 3f 13 6a 60 3f 18 4d 69 3f
       0.9271773 0.9233216 0.87661856 0.9113326
000020 d9 5a 10 3b d9 5a 10 3b 94 2d 76 3f 38 dd 64 3f
       0.0022026806 0.0022026806 0.96163297 0.89400053
000030 98 34 3c 3f 36 b4 6d 3f 4b b9 5c 3f 49 c8 60 3f
       0.7351775 0.92853105 0.86220235 0.8780561

bias f4 [16]
000000 f8 bc 77 3c ee 89 08 3c de 60 c0 3c 85 7d 54 bc
       0.015120737 0.008333666 0.02348369 -0.012969379
000010 5d 53 26 3c 9d 62 33 bd b6 cf 00 bd 02 b7 f8 bc
       0.010151711 -0.043795217 -0.03144809 -0.030360702
000020 be 58 f4 bb f4 4d a7 3c cc 2b 13 3c 25 3b db bc
       -0.007456868 0.020422913 0.00898261 -0.0267616
000030 0a b8 44 bb 4c 3b 76 3d 5b 63 cc 3b e7 62 94 3d
       -0.0030016922 0.060115144 0.00623743 0.072454266

running_mean f4 [16]
000000 32 23 82 3e 38 4a 3c 3e fc 10 02 3e 00 00 00 00
       0.25417477 0.18387687 0.12701792 0.0
000010 9f 50 c0 3e 99 48 2f 3e 59 32 18 3e 1c d7 1e 3e
       0.3756151 0.17117538 0.14862956 0.15511745
000020 00 00 00 00 04 00 00 00 81 37 90 3e f7 c1 d3 3d
       0.0 6e-45 0.28167346 0.1033973
000030 e2 99 73 3c 67 6b 08 3e 3d 83 21 3b 44 3e d8 3e
       0.0148682315 0.1332222 0.0024644875 0.42235005

running_var f4 [16]
000000 9e 8b 59 3c 3e 63 03 3d ae 37 9a 3c 04 00 00 00
       0.013277916 0.032077067 0.018825378 6e-45
000010 67 15 ca 3c f5 d0 d5 3b 37 fd 85 3c 92 4d 62 3c
       0.024668409 0.0065251538 0.016356094 0.0138124395
000020 04 00 00 00 04 00 00 00 bb 58 89 3c ad 88 6d 3c
       6e-45 6e-45 0.016765943 0.014497918
000030 15 31 9c 3a a0 5a 8d 3b df ff 57 39 1d 23 1b 3d
       0.0011916483 0.004313782 0.00020599317 0.037875284

weight f4 [64, 32]
000000 f3 e4 d1 bd 5c df 96 bd 71 04 0f 3d 28 25 b6 3a
       -0.10248747 -0.07366821 0.034916345 0.0013896571
000010 33 8e 5d bd 80 ca ce 3b 8c 6b ca bd d1 d3 a1 3c
       -0.05409069 0.006310761 -0.09883794 0.019754322
000020 63 17 c2 39 4b d7 6d ba 5d 08 b0 bc f3 67 a3 3d
       0.00037019988 -0.00090729137 -0.021488363 0.07978811
000030 69 20 8f 3d 92 dd fd 3c e4 ee dd bc 6d 93 4b 3c
       0.069886036 0.030989442 -0.027091451 0.012425286
000040 36 21 a7 3a 3e ac 83 39 66 b7 ab b7 f3 26 77 3a
       0.0012750986 0.00025114598 -2.047019e-05 0.0009428106
000050 c0 0e 55 b9 ee 7e 42 38 08 ee da b9 0f 1b 20 38
       -0.00020318758 4.6371417e-05 -0.00041757547 3.8172173e-05
000060 34 80 fc b8 4c e8 26 ba d8 d9 9e ba 34 42 c3 b8
       -0.00012040176 -0.00063670124 -0.0012119366 -9.310656e-05
000070 92 88 2f 39 b6 65 d2 39 b9 e0 c8 b6 16 21 17 b9
       0.00016740177 0.00040130102 -5.9866256e-06 -0.00014412808
000080 75 1e c3 bd c2 f9 74 3d e8 18 a4 3d 5a ef b6 ba
       -0.095272936 0.0598085 0.08012563 -0.001395683
000090 e4 9a e0 3d 7b 26 c6 bd 9d b5 cd 3d 9d 3b 29 bd
       0.10967043 -0.09675308 0.100444056 -0.041316617
0000a0 1d 32 05 ba 2b 3f 1e 3a d3 f8 de bc 36 76 81 bd
       -0.0005081015 0.00060366344 -0.027218258 -0.06321375
0000b0 d1 dc 86 3d f0 f6 bd 3d f3 2b 9b 3c 28 20 36 bd
       0.06585086 0.09275615 0.018941855 -0.04446426
0000c0 a6 94 d7 b9 76 3f 78 b9 b0 5a 61 39 3f 29 0c ba
       -0.00041118747 -0.00023674764 0.00021491456 -0.00053467223
0000d0 82 de 19 b9 d0 2f 28 b9 d4 ad ef 39 31 49 d4 38
       -0.00014674108 -0.0001603954 0.00045715144 0.00010122581
0000e0 80 36 2a b4 8e 52 80 3a 72 c4 6b 3a e7 08 ed b9
       -1.5852311e-07 0.0009790228 0.0008993811 -0.00045210795
0000f0 14 c9 aa b9 4b f5 e3 b9 cf 68 1d 37 78 64 4e 36
       -0.00032574742 -0.00043479571 9.382332e-06 3.0754873e-06
000100 f5 07 d1 bd ea 6e 39 3d 03 0e d7 3c 0d e5 5c 3a
       -0.10206596 0.04527179 0.026251798 0.0008426465
000110 9c 78 ad bd 6c ea 83 bc d5 6a c7 3d e4 de 48 bd
       -0.0847027 -0.016102992 0.097371735 -0.04904069
000120 ff 62 e2 39 48 f4 d8 ba 58 7f 9f bc ce d3 83 bd
       0.00043179837 -0.0016552294 -0.019469902 -0.06436883
000130 31 25 75 bc fe 55 c3 bd f1 85 2b 3d e0 b1 7f 3d
       -0.01496248 -0.09537886 0.041875783 0.062425494
000140 73 4c ce 3a 02 bc ef 39 ff f9 8f b8 3a ad ed 3a
       0.0015739336 0.0004572571 -6.865337e-05 0.001813329
000150 52 c1 57 ba b6 1a 9e 38 af 2c c0 b9 98 f4 46 36
       -0.0008230406 7.5390024e-05 -0.00036654386 2.9646671e-06
000160 da a7 14 b9 2d 55 2f ba 05 60 df ba 75 05 59 ba
       -0.0001417691 -0.00066884124 -0.0017042166 -0.0008278706
000170 bd df 94 39 3e 45 ce 39 a3 21 3b b8 90 c1 7a b9
       0.00028395458 0.0003934297 -4.46156e-05 -0.00023913966
000180 ad 7b 70 bd 81 a1 6e 3d 9e b1 f3 bc 58 16 2f bb
       -0.058711696 0.05825949 -0.02974778 -0.0026716199
000190 1c 30 5a bc 0f 0d 48 bd 35 39 17 3b a8 f4 34 3d
       -0.013317134 -0.04884058 0.002307487 0.044178635
0001a0 f5 40 bf ba 64 48 87 3b 5c 33 93 3d 6a 32 a8 bd
       -0.0014591502 0.0041285027 0.071875304 -0.08212741
0001b0 6e 1f 94 3d 6b fc a8 3d 38 6c 9e bd a5 1e 00 be
       0.07232557 0.0825127 -0.07735485 -0.1251169
0001c0 81 a2 9f bb d6 5b f6 ba bc db 81 38 23 32 a1 bb
       -0.004871667 -0.001879568 6.192128e-05 -0.004919307
0001d0 21 26 65 3b 24 62 29 b9 ba 82 53 3a b3 c4 16 b9
       0.0034965354 -0.00016153656 0.0008068491 -0.00014378391
0001e0 51 d0 5b 3a 7a 5a 11 3b 94 ea 89 3b db fc 88 3b
       0.00083852286 0.0022179172 0.004208872 0.0041805333
0001f0 ca db 2c ba d9 e1 8d ba 04 2f 8b 39 9e b9 8a 3a
       -0.00065940304 -0.0010824754 0.00026547175 0.0010583883
000200 65 be dd 3c fa 1d 22 bd 98 6e 65 3d 89 79 c7 ba
       0.027068326 -0.03957937 0.056013674 -0.0015218715
000210 20 a7 b1 3d eb f7 0d 3d d1 64 58 bd 42 8f cc bd
       0.08674455 0.03466026 -0.05283052 -0.09988262
000220 17 cd 47 ba c1 99 88 3a a8 fa dc 3d 6e 87 aa 3d
       -0.00076218083 0.0010421799 0.107899964 0.083266124
000230 0c 28 2f bd 51 13 ae 3d ea 64 67 ba 76 09 d0 3d
       -0.0427628 0.08499778 -0.0008826988 0.101580545
000240 81 cd 93 ba c4 70 0f ba d6 c4 8d 38 49 0f ad ba
       -0.0011276455 -0.00054718205 6.7600675e-05 -0.0013203408
000250 41 37 17 39 3f ed c1 b8 14 7d 83 39 ac 62 23 36
       0.00014421066 -9.247148e-05 0.00025079458 2.4346327e-06
000260 8c 8a 70 39 6b 64 99 3a 1a 16 fe 3a fe 36 76 38
       0.00022939796 0.00117029 0.0019385249 5.8702186e-05
000270 d4 4b b4 b9 50 b8 11 ba a2 fd 1a 38 ca 73 5b 39
       -0.00034388772 -0.0005558776 3.6952675e-05 0.00020928602
000280 d6 41 e0 bd f2 bb c4 3d c8 7e 45 3d a5 7e ce ba
       -0.10950057 0.0960616 0.04821661 -0.0015754296
000290 89 27 e3 3b 84 d4 e0 3d 3f 97 84 3c 5a aa 02 bd
       0.006932203 0.10978034 0.016185401 -0.03190074
0002a0 0c 27 95 b9 77 e8 c0 39 89 d7 bf bd 34 e8 3d bd
       -0.00028448587 0.00036794294 -0.09367282 -0.046364024
0002b0 b2 e5 a5 3d 39 db c2 bd ed 97 c1 3d 31 b6 31 bd
       0.081004515 -0.0951447 0.09452806 -0.043386642
0002c0 54 1e d9 b9 ff e3 ab b8 73 56 85 38 12 ee 38 b9
       -0.00041412062 -8.196383e-05 6.3580366e-05 -0.00017636296
0002d0 cd de 41 b8 b6 74 37 b8 fa 42 47 3a 19 a9 47 b8
       -4.6222285e-05 -4.3739296e-05 0.0007601228 -4.760278e-05
0002e0 23 f3 e7 b7 17 ed 55 3a 9b d2 0e 3a 4d 81 76 b9
       -2.7650565e-05 0.00081606343 0.0005448253 -0.00023508556
0002f0 88 cc 49 b9 62 4c 77 b9 28 35 ab b7 1b 04 9f 37
       -0.00019245048 -0.0002358421 -2.0409541e-05 1.8956189e-05
000300 f3 5b af bc 0e 0e 85 3c 42 74 f9 3d 3e 4d a1 3a
       -0.02140615 0.016242053 0.121803775 0.0012306345
000310 9d cc 10 bd ff dd 05 bd d8 5e a4 bd 7c e9 88 3d
       -0.035351384 -0.032682415 -0.080259025 0.066851586
000320 d1 8c 01 3a 40 6f 87 ba 83 e3 aa 3c f7 15 1b 3d
       0.0004941943 -0.0010332838 0.02086044 0.037862744
000330 c4 c1 a8 bc 25 d9 55 3c c4 07 11 bd 5a e0 a5 3d
       -0.020600207 0.01305226 -0.035407797 0.08099432
000340 a3 07 91 3a 82 ef ed 39 07 06 ce b8 cb cd 92 3a
       0.0011064898 0.0004538261 -9.823968e-05 0.0011200247
000350 8b f1 3b ba 47 e5 f6 38 94 65 77 ba 23 fc 51 38
       -0.00071694766 0.000117729 -0.00094374386 5.0064304e-05
000360 c6 60 18 b9 07 9d c4 ba bb 0f 9f ba 1e 70 69 ba
       -0.000145319 -0.0015000411 -0.0012135425 -0.00089049514
000370 b4 4f 12 3a a8 fb 33 3a 0a a9 f8 b7 01 e8 80 b9
       0.00055813347 0.0006865808 -2.9642619e-05 -0.0002458692
000380 83 15 2f bc 30 9b 84 bc d3 71 ab 3c 74 22 75 3a
       -0.010686281 -0.01618728 0.020928299 0.0009351142
000390 75 1b 81 3d 66 61 7a bc a2 71 5d bd 8a 2c 16 3d
       0.06304065 -0.015282011 -0.054063447 0.03666357
0003a0 07 13 bc 37 be 62 36 b9 64 99 82 3d fc d6 4a bd
       2.2420207e-05 -0.00017393657 0.06376913 -0.04952143
0003b0 72 2b a3 bc 3d 81 57 3d b8 bd 5f bd b8 5a f0 3d
       -0.019918177 0.052613486 -0.05462429 0.11736053
0003c0 7a 3e e3 38 dd 1e 88 37 ba 61 08 b9 d2 54 7d b9
       0.00010835841 1.6226835e-05 -0.00013006377 -0.00024159558
0003d0 08 c2 ce 39 54 10 9e 38 de 69 b0 b9 dc 8b 1c b7
       0.00039435946 7.5370684e-05 -0.00033648213 -9.330888e-06
0003e0 83 79 d9 38 47 5d 30 ba ac 9e b2 37 83 a1 26 3a
       0.0001037 -0.00067277666 2.129314e-05 0.00063564646
0003f0 97 77 88 39 8d dc da 38 2d 4b 84 37 d7 d4 04 39
       0.00026029043 0.00010436131 1.5770633e-05 0.0001266779

bias f4 [64]
000000 bd 50 9d 3d 8f 4c 95 bd ca ed 65 bc 88 ae c3 3d
       0.07681415 -0.07289993 -0.014033744 0.095547736
000010 32 6c 16 bc 74 e4 de bd 00 8d 58 3c 5d 85 54 3d
       -0.009181069 -0.10883418 0.013217211 0.051884998
000020 6d ed fc bc 2b b7 db 3d e6 94 03 3d c5 04 47 bd
       -0.030874932 0.10728296 0.032124422 -0.048588533
000030 b8 31 b7 3d 2d 11 1a bd ea ba 9f bc c4 09 a9 bb
       0.0894503 -0.037614036 -0.019498307 -0.005158635
000040 4b c7 99 3d 55 f9 4a bd 3e 3f 81 bd 6c 7e 64 bd
       0.07508715 -0.049554188 -0.063108906 -0.055784628
000050 be 46 e7 bc 85 92 68 bd b4 d0 7f 3c f2 3d 8d bd
       -0.028231975 -0.056780357 0.015613724 -0.06896581
000060 63 f0 8d 3d 13 36 c4 bd 53 7e 6d bd e4 ec 98 3d
       0.06930616 -0.09580626 -0.0579818 0.07467058
000070 12 d9 be bc 44 22 c2 3c 95 95 03 3c d3 3f 9b 3d
       -0.023296867 0.02369798 0.008031269 0.07580533
000080 e1 38 ab bd a5 00 2e bd b3 a7 9d 3d 8c a1 61 3c
       -0.08360458 -0.042481083 0.07698002 0.013771426
000090 a7 24 eb 3d 99 85 c8 bc b9 d0 be bd fa 79 e7 3d
       0.114816 -0.024477767 -0.093171544 0.11302562
0000a0 92 5d 29 bc 3c cc 9d bd 0d 83 81 3d eb f0 53 3d
       -0.01033725 -0.0770497 0.06323824 0.05174343
0000b0 9d 8f e0 3d c4 bc 02 bd ec 8f 8c 3d 80 38 da 3d
       0.10964892 -0.031918302 0.068633884 0.10655308
0000c0 a2 52 c0 3d d2 b8 b4 3c 92 ae 9b bd 79 c9 f4 3d
       0.09390761 0.022060785 -0.07601656 0.1195249
0000d0 4e 7a 9b bb 97 cb f2 3c 0d 0a 6a bd f7 56 9b bd
       -0.0047448045 0.029638095 -0.05713849 -0.075849466
0000e0 2d 1b 92 3d 1f 21 9b bd a3 ab 94 bd e0 dd 74 bd
       0.071340896 -0.07574677 -0.072592996 -0.05978191
0000f0 0d 41 ba 3d 5f 73 02 bd 31 2a 8d bd 02 d8 d6 bc
       0.09094439 -0.031848308 -0.06892813 -0.026226047

weight f4 [64, 64]
000000 20 2c 4a 3c 95 9b 0f 3d ca 49 39 3c 9a d5 57 bd
       0.012339622 0.035060484 0.011309097 -0.05269394
000010 d8 5d 91 bc 05 c0 76 bb 6e 7a 59 3d 18 3c 2d 3d
       -0.017744943 -0.0037651074 0.053095274 0.042293638
000020 20 4f f7 3c 70 ef 79 3b 52 99 34 bc ab 14 10 3a
       0.030189097 0.00381371 -0.011022883 0.0005496244
000030 a2 92 ab 3c b9 68 d7 3c 09 34 5b 3d 0a 4e 47 3d
       0.020943943 0.026295053 0.05351642 0.04865841
000040 dd d8 2d 3d 5f b3 c7 bc d6 10 da bc 98 39 34 bc
       0.042443145 -0.024377523 -0.026619356 -0.01100006
000050 fd f8 73 bc 9c 45 88 3d cc 96 18 bd 67 cb c5 bb
       -0.014890906 0.06653902 -0.037253186 -0.0060362103
000060 5c 89 82 bd 9d e6 6c 3d df b6 34 bd 97 ec 5b bc
       -0.063738555 0.057837117 -0.044119712 -0.013423107
000070 6f 54 e3 3c 84 33 7c 3c e8 ba dc 3b 81 7d 15 3d
       0.027750222 0.015393142 0.006736148 0.036496643
000080 bd 73 da bc 07 e4 47 3a 67 42 6f bc a8 89 0d 3d
       -0.026666516 0.0007625226 -0.014603234 0.034555107
000090 77 f7 17 3d eb c9 b6 3b 8e e2 6b bd 27 b3 81 bd
       0.037101235 0.0055782697 -0.057589106 -0.06332999
0000a0 ca 67 fc ba db 13 09 bd 05 f3 6e bd 10 a4 8d 3d
       -0.0019257006 -0.0334662 -0.05833723 0.06916058
0000b0 ad f5 4d 3d f2 f6 dc bb 05 cd 45 bd 86 05 67 bc
       0.050283123 -0.0067433054 -0.048291225 -0.014100438
0000c0 e0 ee 98 3b 2c da 26 bd 94 71 95 3d 29 34 9c 3d
       0.004667148 -0.04073541 0.07297054 0.07627136
0000d0 49 f2 70 3d 47 cd 91 3b fd 53 9d 3d de 9a 5a bb
       0.05882481 0.00444952 0.07682035 -0.0033356468
0000e0 53 ad 85 bd 8d 41 61 bd 7c 46 dd 3c 35 cc 60 3d
       -0.065271996 -0.054994155 0.027011149 0.054882247
0000f0 97 24 b2 3d ba 7c ab bb 19 ba 0f bd 74 3b e0 3b
       0.08698385 -0.0052333744 -0.035089586 0.006843025
000100 50 37 a6 b9 c8 15 96 38 82 a3 7f bb f6 18 ec 3c
       -0.00031703198 7.1566144e-05 -0.003900737 0.028820496
000110 51 7e 74 a3 fa e9 71 3d 43 ed 2f ba 80 78 0e bb
       -1.3254015e-17 0.059061028 -0.0006711075 -0.0021739304
000120 4b 84 1b bc 4c 9c 2e bc 01 3d e0 bc 45 18 54 94
       -0.00949199 -0.010657381 -0.027372839 -1.0708051e-26
000130 51 37 d5 bc 7a cc 7d b8 30 bc 4a bd 34 1f 1a 3d
       -0.026027353 -6.0510334e-05 -0.049495876 0.037627414
000140 96 59 11 bc 69 a9 b0 3d 47 66 17 bb b8 d0 72 bc
       -0.008871457 0.086260624 -0.0023101734 -0.01482027
000150 92 5c 2a ac c0 b8 fc 39 33 70 1e ad 00 ca 30 3c
       -2.420984e-12 0.00048202835 -9.006173e-12 0.010790348
000160 2f d0 c8 ba ba cb 06 bc a9 69 52 3c 3e 78 49 ba
       -0.0015320833 -0.008227283 0.012842574 -0.0007685459
000170 6e ad d8 b8 3a a9 88 3d 85 55 8b 3c e0 a2 88 3c
       -0.000103319864 0.066729024 0.017008552 0.016679227
000180 ae 56 8f 88 b9 e5 9b bb 72 13 44 3d cf fa 8a bd
       -8.626878e-34 -0.0047576097 0.047870107 -0.06786119
000190 09 b4 c9 bc 1d 09 bf 82 91 8e 3e 3d a2 08 10 3d
       -0.02462198 -2.8070158e-37 0.04652268 0.035164483
0001a0 52 0a 7a b8 2a 3a ce 3b f4 85 eb bc 38 50 50 3c
       -5.9614256e-05 0.006293555 -0.028750397 0.012714438
0001b0 e7 44 fb 3c 4a f9 0a bd 27 d5 9e 3c b1 49 7f 3d
       0.030672504 -0.033929147 0.019388748 0.062326137
0001c0 2f e2 ab 36 16 c6 28 ba e8 ab d1 3d 8b 36 33 bd
       5.1225284e-06 -0.00064382085 0.10237867 -0.043753188
0001d0 61 9d 39 b6 6e 31 39 bc 0f df 80 bd 50 8c d6 bc
       -2.7658755e-06 -0.011303289 -0.06292545 -0.026189953
0001e0 67 ca 91 b6 06 54 9c bc 11 1a 08 3d 87 0b 6e bc
       -4.3448995e-06 -0.019083034 0.033227984 -0.0145291155
0001f0 65 25 01 bd 9d 81 0a 3b 11 77 5f 3b 4d f1 b0 b6
       -0.031529803 0.0021134384 0.0034098069 -5.2733e-06
000200 ac 35 8f 3d b9 73 8f 3d ed dc 77 3d 0c 59 48 bc
       0.06992659 0.07004494 0.060513426 -0.012228262
000210 4d cf 07 bd 19 90 92 3b 0d 32 6c bd 89 af 26 3d
       -0.03315668 0.004472744 -0.05766492 0.040694747
000220 9e 49 34 3c e4 bc 46 3d c0 fa d7 3c c1 81 a8 3a
       0.01100388 0.048519984 0.026364684 0.0012856052
000230 c3 1a 95 bc d2 2a b9 3c 91 0f a0 3c 32 49 12 3d
       -0.018201238 0.022603426 0.019538673 0.035714336
000240 34 f9 97 bb 20 b5 98 bd 58 78 86 bc 76 ba 56 bc
       -0.0046378616 -0.07456422 -0.016414806 -0.013105979
000250 16 e1 96 3c 2c e9 0f 3d 5c 84 a7 bc 10 b8 89 bb
       0.018417876 0.03513448 -0.020448856 -0.00420285
000260 bc 7b 6e 3d 39 94 62 bb d8 6d 6c bd 8a 8b 39 bd
       0.05822347 -0.003457321 -0.057721943 -0.04529909
000270 ac 98 06 bd c4 8a c3 3d 7a 2b bb bc 71 d9 46 bc
       -0.032860443 0.09547952 -0.02284788 -0.012136803
000280 72 7d 4a 3b e0 ec 80 3c e0 be bb bb be 16 5c bc
       0.0030897525 0.01573795 -0.005729541 -0.013433157
000290 2f eb 29 bc e9 a2 ef bb 90 8e 13 3c 3e 63 3f 3d
       -0.010371014 -0.0073131216 0.0090061575 0.046725504
0002a0 af a7 8a bc 2d 88 1f 3d f7 4c 7a bd ce 63 0d 3c
       -0.01692566 0.038948227 -0.061108556 0.008629752
0002b0 2a 0b 80 3d d9 af 41 3d 13 95 17 bd c0 45 0a bc
       0.062521294 0.047286842 -0.037007403 -0.008439481
0002c0 d8 5b 79 3d cc ce 8b bd 8a 96 94 3c 77 c4 c1 3d
       0.060878605 -0.06826553 0.018138189 0.09461301
0002d0 da 62 fd bc 00 08 0d 3c 5f 7e 06 bc e4 21 20 bd
       -0.030930925 0.008607864 -0.00820884 -0.03909482
0002e0 06 2b 08 3d a5 cf 5d 3c af cc bc bd 07 a9 55 3d
       0.033244155 0.013538276 -0.09218728 0.05216315
0002f0 46 36 92 bd 2b 85 98 bc 73 8b a1 3c d5 60 39 3a
       -0.07139258 -0.018618187 0.019719815 0.0007071619
000300 40 de 27 bd e3 45 b0 bb 2b 8e e9 bc d1 97 ec 3b
       -0.04098344 -0.005379425 -0.028510174 0.0072202464
000310 fd ef d4 bc 6b f6 31 3d 88 4b 13 bd f9 97 89 3d
       -0.025993342 0.043447893 -0.035960704 0.067184396
000320 60 17 53 3c 34 08 35 3d c9 1a 82 3b 6a ea 33 b9
       0.012883991 0.044197276 0.003970478 -0.00017158096
000330 13 27 be 3c 9d 81 82 bc 05 23 9b bd eb f3 60 3c
       0.023211991 -0.015930945 -0.07575039 0.01373003
000340 1b d2 cb bc 17 00 81 3d 00 6d e5 39 80 0d b3 3a
       -0.02488046 0.06298845 0.00043759495 0.001366064
000350 82 ec 94 bb dd 5c 45 3c eb 08 47 bc 19 2e a9 bc
       -0.0045447955 0.012046066 -0.012148122 -0.020651864
000360 8f 3e 01 bc a2 0b 8f bc 1d f6 bd bc 4c d8 a7 3c
       -0.00788845 -0.017461602 -0.023188645 0.02048888
000370 ff bd 6b 3c 09 be 32 3d 9d 56 bd bb a6 fe 85 3c
       0.01438856 0.043638263 -0.0057781474 0.016356777
000380 f4 c5 f6 bc 3f 30 0b 3d 0d e0 41 bd 2e 31 92 3d
       -0.030123688 0.033981558 -0.047332812 0.071382865
000390 3d 60 3f bd 40 77 1e 3c 37 56 87 bc 91 ee 5c 3d
       -0.04672264 0.009671986 -0.016520603 0.053938452
0003a0 99 23 11 3d 9d b3 a7 39 c8 16 3e 3d 96 05 d5 bc
       0.03543434 0.00031986544 0.046408445 -0.02600364
0003b0 5b e6 54 bd 37 8c d9 bc d7 9e e1 3c 69 c9 8e 3c
       -0.051977497 -0.026556117 0.027541561 0.017430024
0003c0 c1 06 2e 3d 64 4a b4 3c e5 97 95 3d 8e 61 b2 bc
       0.04248691 0.022008128 0.07304362 -0.021775033
0003d0 9f 52 02 bd db a0 71 bc ac b5 f8 bc 49 ff 2f 3d
       -0.031817075 -0.014747824 -0.030360065 0.04296807
0003e0 fa 31 79 bd f9 15 8b bd fd 41 0a 3c 3c 39 96 bc
       -0.060838677 -0.067913 0.008438584 -0.018337838
0003f0 4e e4 24 bd 2d ab e1 bc cf 4d 4d 3c 07 5d 72 3c
       -0.04025679 -0.027547443 0.012530758 0.014792687

bias f4 [64]
000000 ba fa b8 3d 1a 64 8f bd 79 e4 ba 3d 1c 43 83 3d
       0.09032197 -0.07001515 0.09125609 0.064092845
000010 2b cc 84 bd 56 f7 a1 3d ae ed ca 3d 55 f3 cc 3d
       -0.064842544 0.07908504 0.09908615 0.100073494
000020 bc aa 30 bc 0d 03 8f 3d 26 ea 14 bd 1c 8d c8 3d
       -0.010782894 0.06983004 -0.036356114 0.097925395
000030 84 a3 83 bc 2c ed 1c bd 4e ad 3f bc 8d 1c ad 3d
       -0.016069181 -0.038312122 -0.011699034 0.08452711
000040 8f a0 ad 3c 93 ea 84 3c da 7a 33 bd e8 e2 93 3c
       0.021194724 0.016225135 -0.043818332 0.018052533
000050 02 43 3f bd 65 15 ca 3c 85 f5 87 bd 80 df 63 bd
       -0.046694763 0.024668405 -0.06638626 -0.055633068
000060 dd 10 c7 bd 8f 8a 15 3d 78 88 a6 3c f2 b8 a4 3d
       -0.09720013 0.036509093 0.020328745 0.08043088
000070 9f 22 81 3b cc ae 9b a0 07 d2 40 3c 8d 50 fd 3c
       0.0039408947 -2.6373692e-19 0.011768824 0.030922199
000080 e3 cf 5b bd 16 06 e0 bd 5f 13 d5 3c d2 93 6a bd
       -0.053665053 -0.10938661 0.026010213 -0.05726988
000090 57 3f 6c bc c4 94 64 3d 28 b1 98 3d fe 54 c4 3c
       -0.014419398 0.055805936 0.07455665 0.023966309
0000a0 9b d6 0f 3d ce 3a 8c 3d 63 9b 45 3d 61 85 8b 3d
       0.035116773 0.068471536 0.04824389 0.068125494
0000b0 2c 58 a7 b9 ba c1 6b 3d 80 dd 84 bc a5 85 ad 3c
       -0.00031918415 0.0575578 -0.0162189 0.02118189
0000c0 f3 c9 5b 3d 47 7b 6c bc 83 da 43 a8 b5 24 a6 bd
       0.05365939 -0.0144336885 -1.0872057e-14 -0.0811247
0000d0 6d 23 4b 3d 32 cc cc 3d 67 fd 8f 3d a9 42 30 bd
       0.04959433 0.09999885 0.070307545 -0.043032322
0000e0 2d b6 00 3d de ee 40 3d a5 82 be a6 ed e4 1e 3d
       0.031423736 0.0471028 -1.321931e-15 0.03879254
0000f0 3c 64 92 bd 66 0e 90 3d 9e 35 db 3d c7 c9 6c bd
       -0.071480244 0.07033996 0.10703586 -0.057809617

weight f4 [16, 64]
000000 e4 c4 be bd 7a bb 16 3d 58 ca 77 bd d5 f5 ae bc
       -0.09314898 0.036799885 -0.060495704 -0.021357456
000010 32 48 2f 3d 25 08 48 bc d9 74 d1 bd c6 e8 ce bd
       0.04279346 -0.012208973 -0.10227365 -0.10102992
000020 5b 6b 85 bb e6 04 24 bc 6d 19 a4 b4 18 2f ac bd
       -0.0040716357 -0.0100109335 -3.056588e-07 -0.0840742
000030 4b fb 81 3d aa 1b 37 3a f9 e0 eb 3b a6 48 b3 3d
       0.063467585 0.0006985018 0.0071984497 0.08754091
000040 7b fa 93 bd 1a 9a 1e bd fa b9 82 bc 13 52 b3 bc
       -0.0722551 -0.03872118 -0.015957821 -0.021889722
000050 f8 3e d2 bc 7e 7f e4 ba 23 d2 93 bc 25 b6 16 3c
       -0.025664791 -0.0017433015 -0.018044537 0.0091987
000060 ec 56 93 bd 69 0b ac bc a2 62 67 bd e0 6e d3 bd
       -0.071943134 -0.021001535 -0.056490548 -0.10323882
000070 6e 44 ac 3d b1 93 02 80 17 29 0d bd 54 ac a8 bc
       0.084114894 -2.36653e-40 -0.034463014 -0.020589985
000080 92 29 17 2a cc b8 2f 04 eb fa 33 bd 80 4f 9c 33
       1.3425917e-13 2.0656006e-36 -0.043940466 7.278777e-08
000090 03 72 48 a6 21 e1 3a 3d b8 2f be 3c df 6f 17 3c
       -6.9543454e-16 0.045624856 0.023216113 0.009242981
0000a0 68 4d 25 3d fc da cb 3d c7 e6 a4 3d 99 ec c0 bb
       0.040357023 0.09953877 0.0805183 -0.0058875796
0000b0 0f 1d c5 b8 9e 82 84 3c 85 8d a4 bd 66 2b 5d bc
       -9.3991046e-05 0.016175564 -0.08034805 -0.0134991165
0000c0 61 82 0c bd 0e 74 b0 3d 81 df 13 b4 25 cc 09 bb
       -0.034304027 0.08615886 -1.3771752e-07 -0.002102622
0000d0 87 78 46 bc 5e 6a c2 bd c5 02 8e bd e9 8a 3f bd
       -0.012113697 -0.09492944 -0.06934122 -0.046763334
0000e0 39 db 93 bd 24 b5 42 3d 67 4a 05 80 e6 94 89 bd
       -0.07219548 0.04753603 -4.85868e-40 -0.06717853
0000f0 b8 87 16 bc 1e 3c c6 3d f7 47 b0 bd 50 2e 82 3d
       -0.009187631 0.09679435 -0.08607476 0.0635649
000100 74 68 5b bd 8a 95 b3 bc 4c e6 86 bd e7 f9 96 bc
       -0.05356641 -0.021921892 -0.065868944 -0.01842971
000110 2a 3f c4 bc 94 b2 b9 bc 37 86 c1 bc a8 f0 97 3d
       -0.0239559 -0.02266816 -0.023623569 0.074189484
000120 ca 3a d5 36 fc 68 01 bd c7 bd 89 b4 f7 ea bb 3c
       6.3547386e-06 -0.03159426 -2.565632e-07 0.022939188
000130 b5 2a 73 3d 2c 11 f0 bb bc b6 2f 3c 6e 56 73 3c
       0.0593669 -0.007326266 0.01072472 0.014852149
000140 a8 1c 41 bd 99 ab 18 bd 5c fc a9 3c 19 da 25 bc
       -0.04714647 -0.037273023 0.020750217 -0.010122799
000150 e5 6e 69 3d 1a a3 5b 3d fe 31 18 3d 84 f8 2e 3c
       0.056990523 0.053622343 0.03715705 0.010679368
000160 cd 86 80 bd cb 29 9b bd b9 d7 b7 bb 56 88 23 3d
       -0.06275711 -0.07576331 -0.005610433 0.039924942
000170 e8 0c 01 3d df 68 03 00 f6 29 a6 3c f3 bf 32 3c
       0.03150645 3.13127e-40 0.02028368 0.010910022
000180 eb 24 c0 b1 75 c7 d0 39 80 f4 8d bd 38 b2 c6 3b
       -5.5921325e-09 0.0003982146 -0.069314 0.006063726
000190 3f ef 5f bb 4c 1c 16 3d d4 60 ba bd 5c 9c 36 3d
       -0.0034169701 0.03664808 -0.091005 0.04458271
0001a0 7f b3 87 3a 58 65 11 3d 41 42 41 bd 4e bb 47 3d
       0.0010353177 0.03549704 -0.047182325 0.048762612
0001b0 2c f5 be b9 70 a9 1c 3b f0 42 2e 3d 86 7a 8a 3c
       -0.0003642229 0.0023904704 0.042544305 0.016904127
0001c0 92 4f 8f bd 4c 7f 92 3d 1c aa 8a 1f 2f b5 9a 3c
       -0.06997599 0.07153186 5.8726696e-20 0.018885223
0001d0 c6 82 97 3c 80 60 ad bb 00 8e 35 3d 98 f1 0f bc
       0.018494975 -0.0052910447 0.044324875 -0.008785628
0001e0 47 51 f4 3a d6 b3 85 bd 34 42 05 80 a9 e8 3d 3d
       0.0018639945 -0.065284416 -4.82927e-40 0.04636446
0001f0 4f de ee 3b 33 1e ab 3d b8 7c 69 3d 4f b2 2a bd
       0.007289685 0.083553694 0.057003707 -0.041673955
000200 6f 86 12 3d e1 36 86 3a f0 05 bf bb 6d f0 22 bd
       0.035772737 0.0010239744 -0.005829565 -0.03978007
000210 25 14 7a 3a d8 77 24 3c 18 3d 32 3d fc c3 c9 bb
       0.0009539745 0.010038339 0.043515295 -0.0061573964
000220 84 41 00 00 48 77 94 3a 4a d8 00 80 be cd d5 bd
       2.3503e-41 0.0011327052 -7.759e-41 -0.10439633
000230 61 3d 9a bd ee 97 db 3c a1 3c 75 b9 fa 39 d7 3d
       -0.07531238 0.026805844 -0.00023387607 0.10509105
000240 9a 90 96 3c af 44 05 80 22 6c c4 3a e4 39 88 3c
       0.018379498 -4.83817e-40 0.0014985839 0.016629167
000250 88 42 b1 bc 0c c2 ec bb 51 a8 ec bc c8 7a 02 00
       -0.02163817 -0.0072252806 -0.028888853 2.27717e-40
000260 61 f4 2d bd d5 f3 88 3d a0 04 23 ba d6 3a 45 3d
       -0.042469386 0.06687132 -0.0006218646 0.048151813
000270 01 1c 76 3c ad 25 02 00 ef 40 5e 3c b5 58 e2 2d
       0.015021325 1.97187e-40 0.013565286 2.573262e-11
000280 08 37 7b bc 1b c3 00 3d ca 2e 3d 3c bc 9c e0 bc
       -0.015332945 0.031436067 0.0115468 -0.027418487
000290 ed 8d 22 3d f6 23 61 bd ff 54 74 bd ad 08 16 bc
       0.039686132 -0.054965936 -0.05965137 -0.009157342
0002a0 06 a4 cb 37 c2 1d 6c bd f7 72 f2 3c c8 ae 2c 3d
       2.4275865e-05 -0.057645567 0.029595835 0.042158872
0002b0 8b 8d 04 00 cd 34 03 80 39 1f a2 3d 68 a3 8a bd
       4.18118e-40 -2.94448e-40 0.079161115 -0.067694485
0002c0 60 92 ab 3d 67 c1 aa bd 14 f3 01 80 56 5a ff bc
       0.08377528 -0.0833767 -1.79035e-40 -0.031171005
0002d0 44 61 1e 3c ce 10 d7 bd 76 05 72 3c 36 59 b3 bd
       0.009666745 -0.10501252 0.01477181 -0.0875725
0002e0 e7 d2 20 bc 25 1d 69 bd 1a dc 02 00 b8 f0 3c bc
       -0.009815908 -0.05691256 2.62629e-40 -0.011532001
0002f0 e3 6f 9e 3c 68 63 39 bd 1c d0 02 bd 40 7e c5 bc
       0.019340461 -0.045260817 -0.03193675 -0.024108052
000300 8e 73 b6 3d dc 41 92 3c 7a 89 bf 3d 3a a2 9d 3d
       0.08908759 0.01785367 0.093523934 0.07696958
000310 6a 51 27 bc ee e0 48 bd a6 5b c4 bd 4e a8 b3 3d
       -0.010212282 -0.049042635 -0.09587793 0.08772336
000320 49 e9 d9 3b b9 59 88 3d 41 d7 3e 3c 1d 21 33 3d
       0.006650124 0.06657738 0.011648 0.04373275
000330 2d f0 9f 3c 83 0b c3 bc 04 a5 60 3d 9d df 21 3d
       0.019523704 -0.0238092 0.05484487 0.039519895
000340 16 b4 9d bd 7f 97 de 3c 0f f3 23 bd 7d 99 9b bb
       -0.07700364 0.027171848 -0.04002672 -0.004748522
000350 2d 36 6a 3d 01 96 f8 bc ab dc 7f bd 02 d5 72 bc
       0.057180572 -0.030344965 -0.062466305 -0.014821293
000360 ee 93 71 3c 47 80 b0 3d 61 50 de bc fb b6 84 3d
       0.014744742 0.08618217 -0.027137937 0.06480213
000370 80 d4 07 b7 86 0d 07 80 45 ed 9d 3c 5c d3 3e 3d
       -8.096104e-06 -6.477e-40 0.019278178 0.046588287
000380 31 14 08 3c 43 1e ac bc e3 67 f7 3a 5a 18 ca 3c
       0.008305595 -0.021010524 0.0018875565 0.024669815
000390 e7 e9 25 bd fe 0e 93 bb 03 6e d2 3d 53 73 fe 3a
       -0.04050627 -0.004487871 0.10274889 0.0019413031
0003a0 e4 54 2c bc 97 02 25 3c 6b ae 3d bd 39 bb 62 3d
       -0.010518286 0.010071418 -0.046308916 0.05535433
0003b0 fc b9 76 39 7d 9e 98 bc b4 c7 ac bc c0 7f 8e 3d
       0.00023529673 -0.01863026 -0.02109132 0.0695796
0003c0 7b d2 22 bd e9 41 c6 bd 01 4e 1c b4 ff 0c 78 3d
       -0.03975151 -0.0968054 -1.455701e-07 0.06055927
0003d0 37 ea f6 3c 77 77 17 3d 7f 9e 46 bd 41 be a1 3d
       0.03014098 0.036979165 -0.048490997 0.07897616
0003e0 11 6d 34 bd bf 71 32 3d fb 2a 00 00 fc 66 0b 3d
       -0.044049326 0.043565508 1.5418e-41 0.03403376
0003f0 81 9d a5 3d 75 61 3e bd 07 f6 44 3a 1a 9e 50 bd
       0.08086682 -0.04647966 0.00075134676 -0.050932027

bias f4 [16]
000000 a7 3d ed 3d 67 74 40 3d 11 71 e4 bd 98 7b 13 3d
       0.11584025 0.04698601 -0.11154378 0.03600654
000010 32 5c 0c bd 5e 8f c1 bc 70 8d bd bd 17 6a 4f 3d
       -0.03426761 -0.023627933 -0.09255493 0.050638285
000020 1e 1d 56 3d 94 8e a4 bd 07 09 8e bd d8 58 39 bc
       0.052273862 -0.08035007 -0.069353156 -0.011312686
000030 89 c0 f4 bb af 83 f4 33 2e 81 fd 38 29 e7 28 bd
       -0.007469241 1.13860885e-07 0.00012088042 -0.041236077

weight f4 [16]
000000 3d 77 17 3f 8b 3b 11 3f 4f a0 08 3f cb d9 26 3f
       0.5916632 0.5673148 0.5336961 0.65176076
000010 f2 d8 0b 3f ff ae 11 3f 9b 61 d3 3d f3 04 09 3f
       0.5462791 0.5690765 0.10321351 0.53523177
000020 b0 fe 17 3f b1 1c 1d 3f 78 e4 ff 3e 1e 7f 05 3e
       0.59373 0.61371905 0.49978995 0.13036773
000030 5c 78 97 3b 19 6b 9b 3b c4 e4 1b 3f d4 19 05 3f
       0.0046225023 0.0047429916 0.60895944 0.51992536

bias f4 [16]
000000 3f c9 01 3b c0 3e 8f 3c 0c 8c 4a 3c 4d 7e 51 bc
       0.001980379 0.017485976 0.012362491 -0.01278646
000010 f0 2b 4a 3c fe 03 32 bc a9 90 de ba 35 01 cb 3a
       0.012339577 -0.01086521 -0.0016980368 0.0015488031
000020 83 44 7f 3c 1f 81 14 3b 7b 22 54 3c de 76 38 ba
       0.015580299 0.002265997 0.012947674 -0.00070367556
000030 b3 0a 5c bb 9f c8 a4 3a 33 c9 96 bb b8 c9 c7 3a
       -0.0033575713 0.0012571997 -0.0046016215 0.0015242612

running_mean f4 [16]
000000 4e 8c 4f 3d f3 17 4e 3d c8 b4 48 17 19 c7 bc 3d
       0.050670914 0.05031581 6.4851663e-25 0.09217662
000010 ba fd 8d 3b 47 c7 fc 3c 2d 8f 06 1f 60 5e 86 3d
       0.004333225 0.030856742 2.8494036e-20 0.06560969
000020 bf 77 5f 3d d9 2d a2 3b a2 2b 07 3c ee 8a ef 3a
       0.05455756 0.004949313 0.008250149 0.0018275657
000030 f2 c0 23 1c bb 7f 42 3a ca a5 8c 3d 23 64 06 3b
       5.418155e-22 0.0007419546 0.06867559 0.0020506463

running_var f4 [16]
000000 40 01 cd 3a a4 fe 10 3a c1 09 55 1a bc 58 44 3a
       0.0015640631 0.00055311085 4.4055247e-23 0.0007490029
000010 69 af 58 39 2b dd 84 3a 25 d6 4f 1d e4 e0 a3 3a
       0.0002066471 0.0010136714 2.7506932e-21 0.0012502936
000020 f0 d4 4a 3a 92 72 55 39 ea 7b 94 39 f7 9f 64 37
       0.00077374186 0.00020355944 0.00028321083 1.3627104e-05
000030 a0 1e 81 1a 18 24 3d 33 ca 3e cd 39 f5 6c 7e 38
       5.340263e-23 4.403782e-08 0.00039147428 6.0659793e-05

weight f4 [16]
000000 00 00 80 3f 00 00 80 3f 00 00 80 3f 00 00 80 3f
       1.0 1.0 1.0 1.0
000010 00 00 80 3f 00 00 80 3f 00 00 80 3f 00 00 80 3f
       1.0 1.0 1.0 1.0
000020 00 00 80 3f 00 00 80 3f 00 00 80 3f 00 00 80 3f
       1.0 1.0 1.0 1.0
000030 00 00 80 3f 00 00 80 3f 00 00 80 3f 00 00 80 3f
       1.0 1.0 1.0 1.0

bias f4 [16]
000000 00 00 00 00 00 00 00 00 00 00 00 00 00 00 00 00
       0.0 0.0 0.0 0.0
000010 00 00 00 00 00 00 00 00 00 00 00 00 00 00 00 00
       0.0 0.0 0.0 0.0
000020 00 00 00 00 00 00 00 00 00 00 00 00 00 00 00 00
       0.0 0.0 0.0 0.0
000030 00 00 00 00 00 00 00 00 00 00 00 00 00 00 00 00
       0.0 0.0 0.0 0.0

weight f4 [64, 32]
000000 3f 61 65 3a 20 cd 5a bb 8a d8 7c bb e3 82 0d bb
       0.00087501475 -0.0033386424 -0.0038581216 -0.0021592907
000010 f1 f8 d3 b9 f0 95 e0 b9 2b c5 bf 39 cd b1 0a bb
       -0.00040430532 -0.00042836322 0.0003657726 -0.0021163106
000020 f8 4e 7c bb 06 68 46 bb 0a b6 17 bb 16 26 36 3b
       -0.0038499217 -0.0030274405 -0.0023149275 0.0027793697
000030 d6 73 9e ba c0 d2 56 bb 00 c4 d1 3a 64 98 38 3b
       -0.0012088965 -0.0032779425 0.0016003847 0.0028167004
000040 4f 72 c2 bd b8 e9 dd 3c 86 dd 16 bd bb 23 d4 bd
       -0.09494459 0.027088985 -0.036832355 -0.103583775
000050 6d 31 bb 3c 30 8e bb bd 53 12 00 bb 60 97 65 bd
       0.022850716 -0.091579795 -0.0019542172 -0.056052566
000060 d5 3b a7 3d fc 3f d9 ba 69 70 73 bd c5 0b c4 3c
       0.08165709 -0.0016574855 -0.059433375 0.023931393
000070 58 e9 24 38 2a c8 53 ba a0 ed 5a bd 6c 8f 8f bd
       3.9317965e-05 -0.0008078838 -0.053449273 -0.070097774
000080 67 7d a2 38 39 76 01 3b cb 74 4d 3a 8c 79 8a 3a
       7.74812e-05 0.0019754304 0.0007837533 0.0010564788
000090 a7 8d 48 39 d9 70 93 39 82 2e 59 b9 f1 07 91 39
       0.00019126256 0.00028122103 -0.00020712058 0.00027662472
0000a0 1f c0 e3 3a 7a 16 41 3a ed f5 ae 39 f8 4a 12 ba
       0.0017375982 0.0007365715 0.00033371095 -0.0005580629
0000b0 14 f2 00 3a 05 7b 1e 3b 38 f0 b1 b8 08 d9 8c ba
       0.0004918885 0.0024182212 -8.484762e-05 -0.0010745833
0000c0 7e e7 92 3d b2 3d 05 3e ba 4f 84 3d 26 74 94 bd
       0.0717306 0.13011816 0.06460519 -0.07248716
0000d0 c3 82 ff bc ca c2 8c 3d 3e b4 c7 b7 52 68 99 bd
       -0.031190282 0.068730906 -2.380658e-05 -0.07490601
0000e0 fd 78 aa bd 10 29 85 3d 0c c6 46 3d f1 85 1e bb
       -0.08323858 0.06501973 0.048528716 -0.0024188722
0000f0 1b fc 9e ba 1e 14 2e 39 91 f3 6a 3c ea ee 92 3d
       -0.0012129577 0.00016601427 0.014340297 0.071744755
000100 03 44 c5 39 5e d8 54 ba ca 9d 43 ba f6 be f4 b8
       0.0003762544 -0.00081193994 -0.0007462172 -0.00011670396
000110 fe db 4b b9 ba 69 fd b8 6a 64 8b 37 dd 96 44 ba
       -0.00019441542 -0.00012083673 1.661685e-05 -0.0007499287
000120 2e 79 a4 ba e0 fa 3b ba 24 da 42 ba 1d 9c 1f 3a
       -0.0012548321 -0.0007170867 -0.0007433018 0.00060886313
000130 dc 48 09 b9 e6 50 b2 b8 2f d2 d9 39 0a 31 6c 3a
       -0.0001309248 -8.50277e-05 0.00041546064 0.0009009993
000140 e4 3c c5 bd 1b ea 66 bd 64 77 41 3d 25 61 1d bd
       -0.096307546 -0.056375604 0.047233 -0.038422722
000150 f7 35 5b 3d 0f 72 27 3d 2c 84 cf 3c e8 3d 18 bd
       0.05351826 0.04088026 0.02533158 -0.037168413
000160 93 c3 8f 3d d0 13 c7 3d 7d 2f 97 3d 13 68 0b 3c
       0.07019725 0.09720576 0.073821045 0.0085087
000170 e9 5f 2a 38 df 93 5d ba ba 0d aa bd 87 93 a7 bd
       4.062048e-05 -0.00084525155 -0.083033994 -0.081824355
000180 a8 bc fb 38 88 16 64 39 c6 04 95 39 20 2d af 39
       0.000120037526 0.00021752168 0.0002842305 0.00033412222
000190 54 f2 9d b9 f3 f0 d3 38 e8 db 6d 37 b3 1b 8c 39
       -0.00030125922 0.00010106144 1.4177502e-05 0.00026723518
0001a0 46 f5 97 b9 eb 49 a8 39 90 7d 6f b9 81 1b 84 38
       -0.00028983707 0.0003209853 -0.00022839592 6.2993735e-05
0001b0 da ec 96 37 fd 25 4e 3a e8 a5 4f 38 d0 4b a4 39
       1.7991686e-05 0.0007863937 4.9507158e-05 0.00031337002
0001c0 9e 05 f8 bb 5e 3d 65 3c a5 54 d3 3d a2 01 08 bc
       -0.007569029 0.013991682 0.10318879 -0.008301171
0001d0 03 9e ed 3d 67 1c 4b 3d 7a 45 0f bc 80 0c 87 3d
       0.11602404 0.049587633 -0.008744592 0.06594181
0001e0 b3 a0 8f 3d ce 2f 69 3b 83 dc 0c 3d f4 f2 8f ba
       0.07013073 0.0035581472 0.034389984 -0.001098244
0001f0 57 ff 7e b9 a4 cd 9c 39 eb 4c 2d 3d cc cb ee bc
       -0.00024318449 0.00029907853 0.042309683 -0.029149912
000200 8e 12 ad b9 10 59 71 b9 99 7e f6 39 26 24 14 b9
       -0.00033010956 -0.0002301673 0.000470151 -0.00014127846
000210 cb 82 cb 38 5e 14 a6 36 f3 60 ba 37 7d 83 85 39
       9.7041564e-05 4.9495566e-06 2.2218073e-05 0.00025465703
000220 92 22 bb 38 e4 0d 11 39 96 96 d9 39 74 9e 95 38
       8.923294e-05 0.00013833452 0.0004150166 7.134388e-05
000230 89 a8 50 39 4d b9 0f ba e7 32 89 b9 30 08 db b9
       0.0001989921 -0.0005482629 -0.00026168601 -0.00041777035
000240 f4 e1 f4 3d 4c 74 be 3c 30 65 dd 3d 61 a6 b0 3d
       0.1195716 0.023248814 0.108103156 0.08625484
000250 10 9e 8e bb b4 8c 94 3d b0 ac 8a 3b c7 45 9c bc
       -0.0043523386 0.072533995 0.0042320117 -0.019076241
000260 2b 12 7a 3d 8c 0b fa 3c 3d d9 cf 3d 79 1c 72 3c
       0.061052483 0.030523084 0.10148857 0.014777296
000270 94 b9 8a bb d7 c7 50 3b c7 14 68 3d 04 76 e4 3d
       -0.0042335484 0.0031857395 0.05666044 0.11155322
000280 5d 97 c8 39 11 ff 08 bb e1 ee 3d bb 24 73 8c ba
       0.00038259747 -0.0020903985 -0.0028981494 -0.0010715467
000290 ed 55 0b ba e9 92 63 b9 c3 e1 ce 39 57 b8 5f ba
       -0.0005315233 -0.00021703135 0.00039459587 -0.00085342437
0002a0 fd 76 6f bb 92 43 23 bb 15 49 a6 ba 20 b9 86 3a
       -0.0036539428 -0.0024912101 -0.0012686575 0.001027856
0002b0 f5 59 84 ba 9c c5 f7 ba 52 3b 6b 3a aa 7c 97 3a
       -0.001009761 -0.0018903497 0.0008973378 0.0011557539
0002c0 65 0d 3f bd 96 18 2a bd b3 84 cd 3d 7c 7e a4 3d
       -0.046643633 -0.041527353 0.10035076 0.080319375
0002d0 94 69 dd 3d 0e bc 01 3d 60 5e 84 bc 53 f5 7b 3d
       0.10811153 0.031673484 -0.016158283 0.061513256
0002e0 fe 54 7c bd 54 db 19 bd 13 e7 66 3c bf 6c 5e 3b
       -0.061604492 -0.037562683 0.014093178 0.003393933
0002f0 43 a6 ee 38 b5 fc 76 3a 41 38 0b 3c 47 46 8d bc
       0.00011379693 0.00094218116 0.008497299 -0.017245425
000300 a4 83 81 b9 81 dd 39 bb e9 66 08 bb 4f 4c c3 ba
       -0.00024702877 -0.0028360786 -0.0020813292 -0.0014900061
000310 f0 17 ef b8 47 5b 6e b9 8e 1d 07 39 05 77 b8 ba
       -0.00011400867 -0.00022731452 0.00012885613 -0.0014073557
000320 b3 ac 37 bb 3d 00 da ba 24 2f 90 ba 66 bf 00 3b
       -0.002802652 -0.0016632151 -0.0011000377 0.0019645332
000330 32 8b 63 ba 4d ab 49 bb f0 1e dc 39 18 4e 2c 3a
       -0.00086801045 -0.003077227 0.0004198472 0.0006572916
000340 f7 6f a8 3d 25 9e 8a 3d 30 ba 6d bc aa 35 7e bd
       0.082244806 0.06768445 -0.014509723 -0.062062897
000350 9b 7c 00 bd 25 5a 98 3d d7 45 89 3a 97 e2 88 bd
       -0.031368833 0.07439069 0.0010473084 -0.066838436
000360 01 30 96 bc d4 ca f0 3d 5c 4b 67 3c b7 48 98 3a
       -0.018333437 0.117574364 0.014117088 0.001161835
000370 de a6 ec ba 13 c8 f7 39 6f a2 5c 3d 3a ed 2d 3d
       -0.0018055101 0.00047260578 0.053865846 0.042462565
000380 f0 fc 10 b9 b4 48 86 39 96 21 9c 39 20 c4 2c b7
       -0.00013827137 0.0002561264 0.00029779662 -1.0297663e-05
000390 b4 7e ad b8 7c fd 07 b9 b2 64 03 39 67 0c 16 39
       -8.272883e-05 -0.00012969034 0.00012530645 0.00014309735
0003a0 02 f2 a7 39 48 9b 7d b8 d8 ce 3b 37 fe da 9d b9
       0.00032033032 -6.0464517e-05 1.1194228e-05 -0.00030108535
0003b0 85 a8 08 38 01 fb 7e 39 f9 bf a5 b8 28 e6 22 b8
       3.2581873e-05 0.00024316834 -7.903571e-05 -3.883816e-05
0003c0 1f 27 4a bc d9 a0 00 bb 5b 7f fc bc 8a 8e 15 3d
       -0.012338429 -0.0019627123 -0.030822447 0.03651289
0003d0 dd 18 07 bc 4f 1e 35 3c c7 f9 cc 3c 4e 6f 6b 3b
       -0.008245674 0.011054589 0.025021447 0.0035924497
0003e0 dc 71 e0 bd 77 d0 9d bd 39 b2 c4 3d 2c 56 b6 3b
       -0.10959217 -0.07705777 0.09604306 0.0055644717
0003f0 8a d6 c4 b8 ff ad d0 b7 13 89 d2 3c 3d bd 78 3d
       -9.385969e-05 -2.4876555e-05 0.025700128 0.060727347

bias f4 [64]
000000 d5 12 48 bd 8d 0b d5 bc fa f5 b6 3c 7e 3b 59 bd
       -0.048846085 -0.026006484 0.022334088 -0.05303525
000010 d7 3f c6 3d 6b a1 b5 3c 1d 78 96 bd 8d d5 34 bd
       0.09680145 0.022171697 -0.073471285 -0.04414897
000020 c7 66 14 3c f2 39 d5 3c 69 ff a2 bc 84 dc ba 3c
       0.009057707 0.026028607 -0.01989718 0.022810228
000030 ca 8e ad 3c 38 0b e0 bb af 8e 47 3d 4c 1c 93 3d
       0.021186251 -0.006837275 0.048720058 0.071831316
000040 19 73 e8 bb 87 d5 36 3c 5a 3e 9a bd 86 87 54 3c
       -0.007093799 0.011159307 -0.07531424 0.012971764
000050 ab 03 42 bd b6 43 a1 bc b8 53 db 3c 07 94 5d bd
       -0.04736678 -0.019685607 0.026773319 -0.054096248
000060 eb f1 a9 bc 9f 61 13 bc 8f 6c aa 3d b0 e8 1a bb
       -0.020745238 -0.008995443 0.08321487 -0.0023637228
000070 08 02 20 3d ce fc 81 3b 30 bf 8b 3d 93 d7 45 bc
       0.039064437 0.0039669042 0.068235755 -0.012075323
000080 d7 3c 8e 3b 58 23 15 bd dd c4 62 3d f9 d9 9b 3d
       0.004340749 -0.03641066 0.055363525 0.07609934
000090 6a 83 14 3c ff d5 30 3d 83 03 1e bd b3 8b bb 3d
       0.009064535 0.043172833 -0.038577568 0.09157505
0000a0 85 b8 1b bd 88 51 9f 3d 8c 74 36 bd 89 68 1c bd
       -0.03801777 0.07779223 -0.04454474 -0.03818563
0000b0 4f 1b 22 bd 4f 18 ce bc ca b0 22 bd 2e 4a af bb
       -0.039576825 -0.025158076 -0.03971938 -0.005349419
0000c0 98 0c c0 3d 60 2b 8c 3d 5e fc 4a 3d 83 c5 e8 bc
       0.09377402 0.068442106 0.049557082 -0.028414493
0000d0 72 1f b0 3c 3d f1 80 bc ef 59 eb 3c 0b 09 51 bd
       0.02149937 -0.015740031 0.028729407 -0.051034015
0000e0 7f 3e 17 bc 77 9d ef 3c fe bb 57 bd 4d 7f 2a bc
       -0.009231209 0.02924989 -0.052669518 -0.010406327
0000f0 70 40 e6 bb 26 69 69 bc dd ca 02 3d 00 17 81 bc
       -0.0070267245 -0.014246261 0.031931747 -0.015758038
