hetgnn_model.pt (torch, 526881 bytes, 104 tensors)

weight f4 [64, 1]
000000 f5 6b fc be f2 01 fd 3b d5 89 fa 3d e8 7d 2c 3f
       -0.49301115 0.007721179 0.122333206 0.6737962
000010 67 be 17 3f a9 ca 2f 3f 60 17 83 be 3c eb 10 bb
       0.59274906 0.6866861 -0.2560377 -0.0022112867
000020 ff d0 0d bf f0 81 c2 be 6c c5 10 bf 62 36 1b bf
       -0.5539703 -0.3798976 -0.5655124 -0.60629857
000030 5d ac 84 3d 76 c0 81 be f7 3a 94 3e fc d1 e5 be
       0.06478188 -0.2534215 0.28951237 -0.44886768
000040 21 ea 9b 3d 5e e5 13 bf 2a 8f 86 3c 9f b6 51 3f
       0.07613016 -0.5777186 0.016425688 0.8191928
000050 a4 ce 89 be c2 3e 3f bf 26 e1 81 3e a2 94 5e 3f
       -0.26915467 -0.74705136 0.25367087 0.86945546
000060 9c 19 11 3f 40 0a 1e 3f 79 f1 5c bf 2a 9c 69 3f
       0.566797 0.6173439 -0.8630596 0.9125391
000070 49 d8 0e bf 94 0f 8d 3e 1f 84 41 3d 8c 3a c8 3e
       -0.55798775 0.27550948 0.04724514 0.39107168
000080 30 91 97 3e 81 3d 50 3f c4 a4 69 bf ed 3d b0 3c
       0.29602957 0.8134385 -0.9126704 0.021513904
000090 38 2c 4a 3f 61 3a 73 bf 4a 9f e3 be 5d a8 a5 ba
       0.7897372 -0.95010954 -0.44457465 -0.0012638677
0000a0 54 8e 42 3f 77 f5 45 3f dc 90 e7 be 16 41 1d 3f
       0.75998425 0.77327675 -0.45227706 0.6142744
0000b0 54 f7 cf be 97 20 8d 3e af a4 51 bf a7 ea 5d 3f
       -0.40618384 0.27563927 -0.8189191 0.86686176
0000c0 5b 18 0c 3f 19 9e 27 3f bb 85 3f bf 79 23 9a 3b
       0.54724663 0.6547561 -0.7481343 0.0047039357
0000d0 ad dc ea 3e 9e 74 80 3e 1b 59 67 bf 04 88 30 3f
       0.45871487 0.25088972 -0.9037034 0.68957543
0000e0 a9 46 44 3f c3 9e 54 3f e4 b7 04 3f c1 7f 06 bf
       0.7667032 0.8305475 0.51843095 -0.52538687
0000f0 95 00 29 be 7a 9a 17 bf b5 c4 38 3f 21 ab 25 3f
       -0.16504128 -0.5922009 0.7217515 0.64714247

bias f4 [64]
000000 52 af ad be 4c 05 a9 3d 6b 2b 80 3d d1 ba b0 3e
       -0.3392282 0.082529634 0.06258281 0.3451753
000010 c8 d3 6f be c4 9f e7 3d 09 de 5c bf 80 16 29 bf
       -0.23420632 0.1130977 -0.862763 -0.6604996
000020 12 8e 7d 3e e8 1d b2 3e 74 97 73 3f 4b 9e 1d bf
       0.24761227 0.34788442 0.95152974 -0.6156966
000030 13 0b 13 bf de 2b f2 be 14 76 59 be 82 15 53 3f
       -0.5743877 -0.47299093 -0.2123645 0.82454693
000040 4e 32 f4 be 85 4a 78 be 6d 6d d3 3e ec 57 b0 3d
       -0.4769463 -0.24247177 0.41294423 0.0861052
000050 df e2 5c bf 6b 63 5c bf fc 84 1c 3e 4b 93 ce bc
       -0.8628368 -0.860892 0.15285105 -0.02521672
000060 f5 ab 17 be 79 2d 91 3e 2a 81 0d 3f da de c4 3d
       -0.1481169 0.28355005 0.55275214 0.09612818
000070 e3 ce c0 bd 64 97 f3 bd 3e aa 22 3e f2 3d 63 3f
       -0.094144605 -0.1189411 0.15885255 0.88766396
000080 00 fd c1 3e a2 e6 03 3f 26 c5 cc 3d bf f5 5b 3e
       0.37888336 0.5152379 0.099985406 0.21480463
000090 08 bf 4f bf a3 f4 af bd b6 85 7c be a7 98 64 3f
       -0.81150866 -0.085915826 -0.24660382 0.8929543
0000a0 bc 88 d4 3d 02 71 55 bf 13 7a 1c be 39 11 5e 3f
       0.103776425 -0.8337556 -0.15280943 0.8674503
0000b0 b0 3c cb be 1b 90 1f 3f 06 cd 3e bf 1b 65 a5 3d
       -0.39694738 0.6232926 -0.7453159 0.08075925
0000c0 8e fe 4a bf b6 f9 69 3f 19 5d 36 bf 8b a3 ec ba
       -0.7929467 0.91396654 -0.71235806 -0.0018054111
0000d0 be a9 1c bf 71 3b 9c be 76 dc 82 bd 54 f0 31 bf
       -0.61196506 -0.305141 -0.06389706 -0.69507337
0000e0 0f 56 0d 3f b1 0b be be 53 42 99 be 90 bb 05 3f
       0.5520944 -0.37118295 -0.29933414 0.5223932
0000f0 8a 5c 86 3e ad 50 b9 be 77 50 07 bf 28 f8 40 3f
       0.26242477 -0.36194363 -0.52857155 0.75378656

weight f4 [64]
000000 94 cd 75 3f 7e cd 75 3f bb cd 75 3f 05 d2 75 3f
       0.9601681 0.9601668 0.96017045 0.9602359
000010 54 cd 75 3f cf ce 75 3f 94 cd 75 3f 94 cd 75 3f
       0.9601643 0.9601869 0.9601681 0.9601681
000020 94 cd 75 3f 94 cd 75 3f c2 cc 75 3f 94 cd 75 3f
       0.9601681 0.9601681 0.9601556 0.9601681
000030 94 cd 75 3f 94 cd 75 3f 65 cd 75 3f ad cc 75 3f
       0.9601681 0.9601681 0.9601653 0.96015435
000040 94 cd 75 3f 94 cd 75 3f 4d ce 75 3f b2 d0 75 3f
       0.9601681 0.9601681 0.96017915 0.9602157
000050 94 cd 75 3f 94 cd 75 3f d2 cd 75 3f 63 ce 75 3f
       0.9601681 0.9601681 0.9601718 0.96018046
000060 3f cc 75 3f 7a d0 75 3f 94 cd 75 3f 79 cd 75 3f
       0.9601478 0.96021235 0.9601681 0.9601665
000070 94 cd 75 3f 73 cd 75 3f b4 cc 75 3f a6 cc 75 3f
       0.9601681 0.96016616 0.9601548 0.96015394
000080 ff cb 75 3f 24 cd 75 3f 94 cd 75 3f e5 cd 75 3f
       0.960144 0.96016145 0.9601681 0.96017295
000090 94 cd 75 3f 94 cd 75 3f 94 cd 75 3f 9e ce 75 3f
       0.9601681 0.9601681 0.9601681 0.960184
0000a0 fa ce 75 3f 94 cd 75 3f 94 cd 75 3f f3 ce 75 3f
       0.96018946 0.9601681 0.9601681 0.96018904
0000b0 94 cd 75 3f b5 ca 75 3f 94 cd 75 3f 26 d0 75 3f
       0.9601681 0.9601243 0.9601681 0.96020734
0000c0 94 cd 75 3f 32 d0 75 3f 94 cd 75 3f 6d cd 75 3f
       0.9601681 0.96020806 0.9601681 0.9601658
0000d0 94 cd 75 3f 94 cd 75 3f 94 cd 75 3f 94 cd 75 3f
       0.9601681 0.9601681 0.9601681 0.9601681
0000e0 17 cf 75 3f 31 cd 75 3f 6e cd 75 3f 94 cd 75 3f
       0.9601912 0.9601622 0.96016586 0.9601681
0000f0 f2 cd 75 3f 94 cd 75 3f 22 ce 75 3f bb cb 75 3f
       0.9601737 0.9601681 0.9601766 0.96013993

bias f4 [64]
000000 7d 5c 18 bc 58 64 49 bc 1e a5 1a bc d3 05 88 3b
       -0.009299395 -0.01229199 -0.009438781 0.004151085
000010 b6 22 e2 bb ae a5 c8 bb e0 d1 fe bb 0c e0 e9 3a
       -0.0069011105 -0.006123266 -0.007776484 0.001784326
000020 71 e1 86 bb 39 b7 d6 bb ca 3e 8f bb db 8c 1a bc
       -0.00411623 -0.0065526036 -0.0043714987 -0.009432997
000030 ed 9d ab bb e2 10 5b 3c a2 c9 10 bb b4 e8 53 bb
       -0.005237332 0.013370724 -0.0022092839 -0.0032334747
000040 6a 4c ee 3b de 36 18 3b 7e 5f ff 3b 11 ca 59 3a
       0.007272293 0.0023226063 0.007793366 0.00083080033
000050 5d 9c ae bb fc 13 8f b9 90 25 34 3c 19 30 d3 3b
       -0.0053286985 -0.00027289975 0.010995284 0.0064449427
000060 cf 27 c5 bb b3 fa bf bb 72 35 80 3b 36 29 01 3b
       -0.0060167084 -0.005858743 0.003912621 0.0019708402
000070 a7 90 21 3a 54 24 8a 3b 67 0b 31 bc 24 94 20 3c
       0.00061632175 0.0042157564 -0.010805941 0.0098009445
000080 af c3 f2 3b 2c 49 3d bb 1a d0 93 bb fc 1e 28 bb
       0.007408581 -0.0028882725 -0.0045108916 -0.0025653234
000090 fb b7 b0 3b 5d 33 10 bc 97 a9 95 3c 7d a5 85 3b
       0.005393026 -0.008801308 0.018269343 0.0040785656
0000a0 d4 61 ce 3b e7 c4 6b 3a be 24 3a bc b2 8b e0 bb
       0.006298283 0.00089938793 -0.011361299 -0.0068525905
0000b0 d1 46 98 bb 15 59 10 3c 42 26 57 3a 97 8f b2 ba
       -0.004647114 0.008810301 0.00082073 -0.0013623115
0000c0 10 f9 66 b9 02 a5 87 bb 08 3e c7 38 bb e1 f0 bb
       -0.00022027292 -0.0041395435 9.500614e-05 -0.007351128
0000d0 78 17 b4 3b 26 2d 0a bc 1c ac c2 3a 50 52 2e 3b
       0.0054959618 -0.008433616 0.0014852318 0.0026599355
0000e0 84 f4 5d 3a 60 11 ac ba 99 bc b3 3b 81 aa 78 bb
       0.00084669166 -0.0013127737 0.005485129 -0.0037943425
0000f0 ec 98 3c bb 14 8d ee bb be 9b dd 3b f0 cd cd b9
       -0.0028777672 -0.0072800014 0.0067629507 -0.00039254082

running_mean f4 [64]
000000 00 00 00 00 06 41 d1 3d 80 81 4a 3e 6f ca 82 3f
       0.0 0.1021748 0.19775963 1.0218028
000010 d1 33 b5 3e d6 21 4e 3f 00 00 00 00 00 00 00 00
       0.35391095 0.8052038 0.0 0.0
000020 00 00 00 00 00 00 00 00 c7 0a c3 3e 00 00 00 00
       0.0 0.0 0.3809416 0.0
000030 00 00 00 00 00 00 00 00 29 33 9c 3d f5 d9 bd 3e
       0.0 0.0 0.076269455 0.3708035
000040 00 00 00 00 00 00 00 00 19 6a e0 3e 09 c7 68 3f
       0.0 0.0 0.43830946 0.90928704
000050 00 00 00 00 00 00 00 00 be 8c d5 3e b9 ad 55 3f
       0.0 0.0 0.4170894 0.83468205
000060 e9 b2 d3 3e cc bd 67 3f 00 00 00 00 d1 71 81 3f
       0.41347435 0.9052398 0.0 1.0112859
000070 00 00 00 00 b7 76 1e 3e d9 d1 5f 3e af 9a a3 3f
       0.0 0.15474974 0.21857394 1.2781581
000080 e7 a4 2e 3f 12 ea a9 3f 00 00 00 00 5d 9b 7d 3e
       0.6822037 1.3274558 0.0 0.24766298
000090 00 00 00 00 00 00 00 00 00 00 00 00 47 ba 63 3f
       0.0 0.0 0.0 0.8895611
0000a0 d8 44 5e 3f 00 00 00 00 00 00 00 00 db 3e bd 3f
       0.868238 0.0 0.0 1.4784807
0000b0 00 00 00 00 a8 41 67 3f 00 00 00 00 92 79 73 3f
       0.0 0.9033456 0.0 0.95107377
0000c0 00 00 00 00 78 3d c8 3f 00 00 00 00 14 05 09 3c
       0.0 1.5643759 0.0 0.008363027
0000d0 00 00 00 00 00 00 00 00 00 00 00 00 00 00 00 00
       0.0 0.0 0.0 0.0
0000e0 2c ab a8 3f 2d 1f e8 3e 99 7b 5d 3e 00 00 00 00
       1.3177238 0.45336285 0.2162918 0.0
0000f0 f2 34 c5 3d 00 00 00 00 d8 37 43 3e 30 0b b3 3f
       0.09629239 0.0 0.19064271 1.3987789

running_var f4 [64]
000000 e7 f3 59 3c e7 f3 59 3c e7 f3 59 3c e7 f3 59 3c
       0.01330278 0.01330278 0.01330278 0.01330278
000010 e7 f3 59 3c e7 f3 59 3c e7 f3 59 3c e7 f3 59 3c
       0.01330278 0.01330278 0.01330278 0.01330278
000020 e7 f3 59 3c e7 f3 59 3c e7 f3 59 3c e7 f3 59 3c
       0.01330278 0.01330278 0.01330278 0.01330278
000030 e7 f3 59 3c e7 f3 59 3c e7 f3 59 3c e7 f3 59 3c
       0.01330278 0.01330278 0.01330278 0.01330278
000040 e7 f3 59 3c e7 f3 59 3c e7 f3 59 3c e7 f3 59 3c
       0.01330278 0.01330278 0.01330278 0.01330278
000050 e7 f3 59 3c e7 f3 59 3c e7 f3 59 3c e7 f3 59 3c
       0.01330278 0.01330278 0.01330278 0.01330278
000060 e7 f3 59 3c e7 f3 59 3c e7 f3 59 3c e7 f3 59 3c
       0.01330278 0.01330278 0.01330278 0.01330278
000070 e7 f3 59 3c e7 f3 59 3c e7 f3 59 3c e7 f3 59 3c
       0.01330278 0.01330278 0.01330278 0.01330278
000080 e7 f3 59 3c e7 f3 59 3c e7 f3 59 3c e7 f3 59 3c
       0.01330278 0.01330278 0.01330278 0.01330278
000090 e7 f3 59 3c e7 f3 59 3c e7 f3 59 3c e7 f3 59 3c
       0.01330278 0.01330278 0.01330278 0.01330278
0000a0 e7 f3 59 3c e7 f3 59 3c e7 f3 59 3c e7 f3 59 3c
       0.01330278 0.01330278 0.01330278 0.01330278
0000b0 e7 f3 59 3c e7 f3 59 3c e7 f3 59 3c e7 f3 59 3c
       0.01330278 0.01330278 0.01330278 0.01330278
0000c0 e7 f3 59 3c e7 f3 59 3c e7 f3 59 3c e7 f3 59 3c
       0.01330278 0.01330278 0.01330278 0.01330278
0000d0 e7 f3 59 3c e7 f3 59 3c e7 f3 59 3c e7 f3 59 3c
       0.01330278 0.01330278 0.01330278 0.01330278
0000e0 e7 f3 59 3c e7 f3 59 3c e7 f3 59 3c e7 f3 59 3c
       0.01330278 0.01330278 0.01330278 0.01330278
0000f0 e7 f3 59 3c e7 f3 59 3c e7 f3 59 3c e7 f3 59 3c
       0.01330278 0.01330278 0.01330278 0.01330278

weight f4 [64, 1]
000000 77 57 86 3e c0 b1 4b 3e 3b 1e 8c 3e ac 5c e3 be
       0.26238605 0.19892025 0.27366814 -0.4440664
000010 03 ed 65 3f 0f 4b f4 be 4c 23 0e bf 10 79 17 bf
       0.89814776 -0.47713515 -0.5552261 -0.591691
000020 87 fa 1b bf c6 65 3a bd 41 29 3a 3f 3a 5d 2d 3f
       -0.6092915 -0.045507215 0.727192 0.6772038
000030 b2 69 4e 3e e7 f2 69 3f 71 5d b2 be a2 dd 34 bf
       0.20157507 0.91386265 -0.34836915 -0.70650685
000040 1b 22 74 bf f5 71 70 3f 0f d5 72 bf 49 d5 11 be
       -0.9536454 0.93923885 -0.9485635 -0.14241518
000050 a2 d1 60 3d 1a 3d 72 bf a4 9f f3 3e b0 25 09 bf
       0.05488742 -0.94624484 0.47582734 -0.5357313
000060 5b 86 67 3f 8a 3d 6b 3f e1 a9 4a bf 2d d7 1d b9
       0.90439385 0.91890776 -0.79165465 -0.00015052846
000070 dc 54 6c 3f 53 16 8f 3e ae 88 a3 3c 34 c0 11 3f
       0.92316985 0.2794672 0.019962635 0.56933904
000080 a9 84 2c bf 1a 0b 33 3f cb d8 07 bf 20 2a 05 bf
       -0.67389923 0.69938815 -0.53065175 -0.520174
000090 06 99 69 3f 51 9f b6 3b 4d f7 b8 3d 5e e4 49 3f
       0.9124912 0.005573191 0.09031544 0.78864086
0000a0 a1 93 12 3f 38 21 d4 3d d1 c6 6c 3d 7f 8f cb 3e
       0.57256514 0.103578985 0.057806794 0.39757916
0000b0 0d 8f 49 be fc ce 88 3d 82 a8 38 bf e1 54 e8 3e
       -0.19683476 0.06680104 -0.7213212 0.45377257
0000c0 08 7c 5e 3e 48 ab 32 bf 89 eb 42 bf 4e 5d 3b 3f
       0.21727002 -0.69792604 -0.7614065 0.73189247
0000d0 30 b3 c9 bd 69 3b fb be 39 54 5f be 75 47 3b 3e
       -0.098486304 -0.49068764 -0.21809472 0.18288977
0000e0 91 a0 0e bf fb 32 1e 3e a7 b0 4d 3e 04 c2 2c 3f
       -0.55713755 0.15449135 0.20086919 0.67483544
0000f0 55 63 9b 3e fa 4e 72 be 36 5d 0b 3f a1 9f c7 3e
       0.30349222 -0.2366294 0.54439104 0.38988975

bias f4 [64]
000000 4e 32 b1 bd f7 4f 14 3f 13 dc 53 3e 50 d1 e0 3d
       -0.08652173 0.57934517 0.2068942 0.10977423
000010 38 ce 70 3f 06 fc e5 3e cc 1f c6 3e c5 05 aa 3e
       0.94064665 0.4491884 0.38696134 0.33207527
000020 f5 73 16 3e 3b ee a8 be 74 dc 4a 3f 94 04 06 3e
       0.14692672 -0.32994255 0.79242635 0.13087684
000030 47 e9 68 bf be 30 a2 bd b4 ee 1b 3f 01 45 96 bd
       -0.9098095 -0.07919453 0.6091111 -0.0733738
000040 a0 b9 da 3e 33 cd 63 3f 83 04 71 3c 22 ec 4f be
       0.42719746 0.88984984 0.014710548 -0.20304921
000050 39 04 24 3f b8 c8 5e 3f a9 0f d9 be 4a 62 97 be
       0.64068943 0.8702502 -0.4239476 -0.29567176
000060 8d d5 ea 3e 8f be 12 bb 64 92 02 3f e6 b3 0e 3f
       0.4586605 -0.0022391414 0.51004624 0.55743253
000070 c7 36 24 bf 73 4f 0c bf 29 4d 20 bb e8 1f 6e bf
       -0.64146084 -0.5480873 -0.0024460054 -0.93017435
000080 13 b9 9c bc 97 ee de be b2 dc a3 3e 01 d4 8c be
       -0.019131219 -0.43541405 0.32004315 -0.27505496
000090 be aa 64 3f 84 2d 01 bf 63 51 52 3e 9f 02 5e bf
       0.8932303 -0.50460076 0.20538859 -0.8672275
0000a0 6c a8 3f 3f 2b 35 0f 3f 12 b8 87 3e 9a 9b 49 3f
       0.74866366 0.559405 0.26507622 0.78753054
0000b0 82 34 28 bc c5 dd 0b 3f d4 a7 1b 3f 81 c7 d8 3e
       -0.010266425 0.5463527 0.6080296 0.4233971
0000c0 14 58 21 bf 1d 5f ec be 64 83 96 be f7 7b b2 3d
       -0.6302502 -0.46166316 -0.29397118 0.08715051
0000d0 a5 a9 51 be 6f 3a 11 3f ab 43 0e 3f d7 93 99 3c
       -0.2047487 0.5672979 0.55572003 0.018747253
0000e0 75 67 5b bf d9 f2 bc 3e a7 f5 c5 be 44 2b 0a bf
       -0.8570474 0.36904028 -0.3866398 -0.5397227
0000f0 b2 3b c0 be 12 89 45 bf c0 37 59 3f 46 d9 2d bf
       -0.37545544 -0.7716228 0.8485069 -0.6790966

weight f4 [64]
000000 91 cd 75 3f 53 cd 75 3f 36 ce 75 3f 94 cd 75 3f
       0.96016794 0.96016425 0.9601778 0.9601681
000010 c0 cd 75 3f 94 cd 75 3f 94 cd 75 3f 94 cd 75 3f
       0.96017075 0.9601681 0.9601681 0.9601681
000020 94 cd 75 3f 94 cd 75 3f cf cb 75 3f 3f ce 75 3f
       0.9601681 0.9601681 0.9601411 0.9601783
000030 94 cd 75 3f d1 cc 75 3f 52 cd 75 3f 94 cd 75 3f
       0.9601681 0.9601565 0.9601642 0.9601681
000040 94 cd 75 3f 69 cd 75 3f 94 cd 75 3f 94 cd 75 3f
       0.9601681 0.96016556 0.9601681 0.9601681
000050 8a cc 75 3f 94 cd 75 3f 90 cd 75 3f 94 cd 75 3f
       0.96015227 0.9601681 0.9601679 0.9601681
000060 2e d0 75 3f 0f d0 75 3f 94 cd 75 3f 8b cd 75 3f
       0.9602078 0.960206 0.9601681 0.9601676
000070 36 cd 75 3f 94 cd 75 3f a4 cd 75 3f 94 cd 75 3f
       0.9601625 0.9601681 0.9601691 0.9601681
000080 94 cd 75 3f 8d cd 75 3f 94 cd 75 3f 94 cd 75 3f
       0.9601681 0.9601677 0.9601681 0.9601681
000090 52 cc 75 3f 94 cd 75 3f 84 cd 75 3f 94 cd 75 3f
       0.96014893 0.9601681 0.96016717 0.9601681
0000a0 70 cc 75 3f 05 ce 75 3f fa cc 75 3f 28 ce 75 3f
       0.9601507 0.96017486 0.96015894 0.96017694
0000b0 94 cd 75 3f 2b cd 75 3f 94 cd 75 3f 09 cd 75 3f
       0.9601681 0.96016186 0.9601681 0.96015984
0000c0 94 cd 75 3f 94 cd 75 3f 94 cd 75 3f 3a cd 75 3f
       0.9601681 0.9601681 0.9601681 0.96016276
0000d0 94 cd 75 3f aa cd 75 3f df cd 75 3f 96 cd 75 3f
       0.9601681 0.96016943 0.9601726 0.96016824
0000e0 94 cd 75 3f 6c cd 75 3f 94 cd 75 3f 77 cd 75 3f
       0.9601681 0.96016574 0.9601681 0.9601664
0000f0 94 cd 75 3f 94 cd 75 3f 85 cc 75 3f 94 cd 75 3f
       0.9601681 0.9601681 0.960152 0.9601681

bias f4 [64]
000000 5d 0e 9e 3b ba 11 87 3b 69 33 06 3c bf 76 4c 3b
       0.0048234896 0.004121986 0.008190968 0.0031198708
000010 1f ce 88 3b aa bd 6f 3b 6c 64 aa b9 13 f8 6a 3b
       0.004174962 0.0036581554 -0.00032499747 0.003585343
000020 fd f0 05 bc e6 7a a6 bb 70 43 c3 3b ca a5 46 bb
       -0.008175132 -0.0050805686 0.005958967 -0.003031122
000030 1a a3 09 bc 85 b9 1c ba 6b 53 04 3a 59 31 5d bb
       -0.008400703 -0.00059785723 0.00050478306 -0.0033751337
000040 6d 67 14 3c f3 1b 0a bb 7c ef 9f b9 41 9b 97 3b
       0.009057862 -0.0021073788 -0.00030505273 0.004626662
000050 a1 d5 e8 b9 e1 6c 86 bb f2 81 c0 3b a1 6d 8e 3b
       -0.00044409654 -0.004102335 0.0058748657 0.004346565
000060 c7 f5 07 bc eb 58 ef 3b eb 5c 05 bc 7c d9 91 3b
       -0.008298344 0.007304301 -0.008139829 0.004450975
000070 59 92 34 bc 7a 1f a6 39 ee 17 2b bb b7 f1 12 3c
       -0.01102122 0.0003168544 -0.0026106793 0.008968762
000080 1f e0 24 bb f2 41 04 bc 12 4a 43 3b e6 45 8e bb
       -0.0025158 -0.008072363 0.0029798788 -0.0043418286
000090 64 16 bf 3b c1 3a a6 ba e2 d0 71 3a 94 6f e9 ba
       0.0058315266 -0.0012682305 0.00092245464 -0.0017809742
0000a0 b9 bc 0d bc 62 1e ac bb 8f 40 bd 3a 08 0a 17 3b
       -0.008650952 -0.0052526454 0.0014438796 0.002304675
0000b0 ba 94 27 3a c4 91 e5 3b 4f 85 3d 3b 19 9d 93 bb
       0.00063927064 0.007005902 0.002891857 -0.0045048115
0000c0 8e 8b f6 ba 4b a3 8d 3b 73 a6 99 bb 4a 2c c0 3b
       -0.0018809901 0.0043224446 -0.0046890317 0.0058646547
0000d0 ab d1 03 3b 59 26 59 3c 42 a0 2b 3b 45 80 68 ba
       0.0020113986 0.013253772 0.002618805 -0.00088692113
0000e0 79 84 dc 3b c6 56 97 3b 5c b2 16 3c 09 dc 1b 3b
       0.006729659 0.0046184985 0.009197798 0.0023782274
0000f0 72 f5 c0 ba c0 6a 55 3c f5 a3 67 3b a1 33 e0 3b
       -0.0014721586 0.013025939 0.0035345529 0.006842092

running_mean f4 [64]
000000 ca 10 32 3e 74 bf 48 3f db 08 fb 3e 00 00 00 00
       0.17389217 0.78417134 0.49030194 0.0
000010 d3 59 ea 3f 00 00 00 00 00 00 00 00 00 00 00 00
       1.8308662 0.0 0.0 0.0
000020 00 00 00 00 00 00 00 00 74 09 c2 3f c5 3e 50 3f
       0.0 0.0 1.5159135 0.8134578
000030 00 00 00 00 04 fe 52 3f 7d c2 83 3e 00 00 00 00
       0.0 0.8241885 0.2573432 0.0
000040 00 00 00 00 fe 1f e9 3f 00 00 00 00 00 00 00 00
       0.0 1.8212888 0.0 0.0
000050 2c b9 33 3f 00 00 00 00 23 bb 51 3d 00 00 00 00
       0.70204425 0.0 0.051203858 0.0
000060 72 42 ae 3f 9a fb 69 3f 00 00 00 00 8b cd 0e 3f
       1.3614028 0.9139954 0.0 0.55782384
000070 4e 57 8e 3e 00 00 00 00 52 8f d2 3c 00 00 00 00
       0.27800983 0.0 0.025703106 0.0
000080 00 00 00 00 0a 61 85 3e 00 00 00 00 00 00 00 00
       0.0 0.26050597 0.0 0.0
000090 4c 2c e6 3f 00 00 00 00 f2 6f 9d 3e 00 00 00 00
       1.7982268 0.0 0.3074947 0.0
0000a0 55 f9 a8 3f 31 90 2b 3f 9d 18 ab 3e 8f c7 97 3f
       1.320109 0.67016894 0.33417216 1.1857775
0000b0 00 00 00 00 6d ef 1e 3f 00 00 00 00 1d c3 61 3f
       0.0 0.62084085 0.0 0.88188344
0000c0 00 00 00 00 00 00 00 00 00 00 00 00 74 fb 52 3f
       0.0 0.0 0.0 0.82414937
0000d0 00 00 00 00 2f d5 9a 3d ea a3 aa 3e 86 a6 5a 3e
       0.0 0.07560193 0.33328182 0.21352586
0000e0 00 00 00 00 e6 5d 08 3f 00 00 00 00 ab 8f 08 3e
       0.0 0.5326828 0.0 0.13336055
0000f0 00 00 00 00 00 00 00 00 9b 07 b2 3f 00 00 00 00
       0.0 0.0 1.3908571 0.0

running_var f4 [64]
000000 e7 f3 59 3c e7 f3 59 3c e7 f3 59 3c e7 f3 59 3c
       0.01330278 0.01330278 0.01330278 0.01330278
000010 e7 f3 59 3c e7 f3 59 3c e7 f3 59 3c e7 f3 59 3c
       0.01330278 0.01330278 0.01330278 0.01330278
000020 e7 f3 59 3c e7 f3 59 3c e7 f3 59 3c e7 f3 59 3c
       0.01330278 0.01330278 0.01330278 0.01330278
000030 e7 f3 59 3c e7 f3 59 3c e7 f3 59 3c e7 f3 59 3c
       0.01330278 0.01330278 0.01330278 0.01330278
000040 e7 f3 59 3c e7 f3 59 3c e7 f3 59 3c e7 f3 59 3c
       0.01330278 0.01330278 0.01330278 0.01330278
000050 e7 f3 59 3c e7 f3 59 3c e7 f3 59 3c e7 f3 59 3c
       0.01330278 0.01330278 0.01330278 0.01330278
000060 e7 f3 59 3c e7 f3 59 3c e7 f3 59 3c e7 f3 59 3c
       0.01330278 0.01330278 0.01330278 0.01330278
000070 e7 f3 59 3c e7 f3 59 3c e7 f3 59 3c e7 f3 59 3c
       0.01330278 0.01330278 0.01330278 0.01330278
000080 e7 f3 59 3c e7 f3 59 3c e7 f3 59 3c e7 f3 59 3c
       0.01330278 0.01330278 0.01330278 0.01330278
000090 e7 f3 59 3c e7 f3 59 3c e7 f3 59 3c e7 f3 59 3c
       0.01330278 0.01330278 0.01330278 0.01330278
0000a0 e7 f3 59 3c e7 f3 59 3c e7 f3 59 3c e7 f3 59 3c
       0.01330278 0.01330278 0.01330278 0.01330278
0000b0 e7 f3 59 3c e7 f3 59 3c e7 f3 59 3c e7 f3 59 3c
       0.01330278 0.01330278 0.01330278 0.01330278
0000c0 e7 f3 59 3c e7 f3 59 3c e7 f3 59 3c e7 f3 59 3c
       0.01330278 0.01330278 0.01330278 0.01330278
0000d0 e7 f3 59 3c e7 f3 59 3c e7 f3 59 3c e7 f3 59 3c
       0.01330278 0.01330278 0.01330278 0.01330278
0000e0 e7 f3 59 3c e7 f3 59 3c e7 f3 59 3c e7 f3 59 3c
       0.01330278 0.01330278 0.01330278 0.01330278
0000f0 e7 f3 59 3c e7 f3 59 3c e7 f3 59 3c e7 f3 59 3c
       0.01330278 0.01330278 0.01330278 0.01330278

weight f4 [64, 2]
000000 bf e0 18 bf 07 59 7d 3d 4a 3c 44 3e ce ff dc be
       -0.59717935 0.06185248 0.19163623 -0.43163913
000010 21 df 2f 3f 4e b7 6c be dd de a2 be f4 e3 1d bf
       0.6869984 -0.231168 -0.31810656 -0.61675954
000020 fd d4 0e bf e7 d1 3c be 84 03 27 3f 35 8e 2f 3d
       -0.55793744 -0.18439446 0.6523974 0.04286023
000030 57 78 2a 3f ff 51 c4 3c 35 fe e8 3e d9 a8 f0 3d
       0.66589874 0.02396488 0.45506445 0.11750955
000040 2e 21 fa be 33 68 c7 3e 69 32 a3 3e 7c 39 03 bf
       -0.4885344 0.38946685 0.31874397 -0.5125959
000050 1a 30 a0 3d d4 2f 09 3f ed 74 31 bd 0c 5e c7 3e
       0.07821675 0.53588605 -0.0433244 0.3893894
000060 d5 06 15 3f 20 11 b1 be 50 4b 01 3f 26 38 7f 3e
       0.5821355 -0.34583378 0.5050554 0.24923763
000070 5a 91 2a 3f a7 a5 ac be 48 d3 66 bc 3a 62 c5 bd
       0.6662804 -0.33720133 -0.014088459 -0.09637876
000080 2d 84 23 bf 77 f4 1a bb bb 69 de 3e 97 53 00 bf
       -0.6387356 -0.0023644248 0.4344004 -0.5012755
000090 4e 15 c1 3e 68 36 9e 3e 35 d9 f3 be e3 c5 c3 be
       0.37711567 0.30900884 -0.47626653 -0.38236913
0000a0 f8 8b 7a be 2f 6d 24 3e 7c d9 89 be 16 60 7c be
       -0.24467456 0.16057275 -0.2692374 -0.24646029
0000b0 63 e0 de be ca 90 16 3e 73 f5 e1 3e e0 aa 34 bf
       -0.43530568 0.1470367 0.44132575 -0.70573235
0000c0 29 1f a0 3e 3e 2d 5f be 1e 61 d9 3e 80 17 4c be
       0.31273773 -0.21794602 0.42456907 -0.1993084
0000d0 a7 78 0b bf 2d c5 02 bf ef cf fa be ce 94 03 bf
       -0.54480976 -0.51082116 -0.48986766 -0.5139893
0000e0 0f 8e cd be d1 60 8d be a5 67 ba be e6 55 93 3e
       -0.40147445 -0.27612928 -0.364072 0.28776473
0000f0 7c 5a 11 bf 1d f3 29 3f a1 fc 2b be ec ee b0 3e
       -0.56778693 0.66386586 -0.16795589 0.34557283
000100 29 4a 8f 3e fb 8d bf be 05 56 11 3f 8d 21 cc bc
       0.27986267 -0.3741301 0.5677188 -0.024918342
000110 9a 71 f5 3d 3b f4 00 3e be e1 1d bf dd 6a 31 bd
       0.119845584 0.12593167 -0.6167258 -0.043314803
000120 e0 b0 b0 be c1 ae 84 3d ca 3a fb be 49 a1 03 bf
       -0.34509945 0.06478644 -0.4906829 -0.51417977
000130 3e 7e 12 bf 9b 65 a4 be ec 5f 01 bf e3 3a ae 3e
       -0.5722388 -0.3210877 -0.5053699 0.34029302
000140 94 80 11 bd c9 b5 f9 be 1f 07 1e bf f4 92 fd 3d
       -0.035523012 -0.48771504 -0.61729616 0.12381545
000150 92 dc 20 bf 76 92 21 bf 68 c3 f2 bd 10 a5 b5 be
       -0.62836564 -0.63114107 -0.11853677 -0.35477495
000160 d4 ad 77 3e fa 15 f0 3e cc 73 23 3f 29 c0 26 3f
       0.24187404 0.46891767 0.63848567 0.65136963
000170 a7 ae 42 be ad 14 03 bf ee 7b aa be 3f f3 b7 bd
       -0.19011937 -0.51203424 -0.33297676 -0.089819424
000180 d0 61 08 3d c8 5d 9d be 44 65 5b bd 34 56 77 be
       0.033296406 -0.30735612 -0.05356337 -0.24153978
000190 14 21 2e 3f 9b 71 94 3e 90 16 5c be 28 14 07 3f
       0.68019223 0.28992924 -0.21492982 0.5276513
0001a0 57 a3 e9 3c 3a 40 2e bf 0b e8 92 3e f8 51 73 be
       0.02852027 -0.6806675 0.2869266 -0.23761737
0001b0 db 87 1e bd d2 62 09 bf 28 2c 1e bf 9b fe f3 3e
       -0.03870378 -0.5366641 -0.6178613 0.47655186
0001c0 ea 75 08 3f 7f cb 16 3f 45 b5 9f 3e ca db 03 3f
       0.5330492 0.5890426 0.31192985 0.51507246
0001d0 53 ff a2 3e 0f e3 85 be 97 9c 84 be 68 c0 07 bf
       0.31835422 -0.26149794 -0.2590072 -0.53027964
0001e0 b2 c8 14 be d5 c9 e4 3e 90 fa 25 3e 0e 1c 3f 3e
       -0.14529684 0.44685236 0.16208863 0.18663046
0001f0 e6 32 7b be ca 8e 90 be 0a 17 bf 3e 18 12 21 3a
       -0.24531135 -0.2823394 0.37322265 0.0006144359

bias f4 [64]
000000 7b 72 c0 3e a7 a5 db 3e a2 08 c5 3e 34 94 bb 3e
       0.37587342 0.4289982 0.3848315 0.36636508
000010 94 45 22 3b ea d4 12 3f ae 3c d6 be df e1 d7 3e
       0.002476071 0.5735613 -0.4184317 0.42164513
000020 ea d1 09 bf be fe 13 be b5 53 1a 3f 58 fd cc bd
       -0.5383593 -0.14452645 0.60283977 -0.10009259
000030 00 35 70 be b0 c7 d1 be 5a 0e c8 be d8 d6 be 3e
       -0.23457718 -0.40972662 -0.3907345 0.37273288
000040 64 4e b9 3e 05 03 ef 3e 36 08 ca be 1c 26 44 3e
       0.3619262 0.4668199 -0.3945939 0.19155163
000050 59 a9 06 bf d1 cf e3 3d 9f 21 bf 3e 56 22 de bd
       -0.52602154 0.11123622 0.37330338 -0.10846393
000060 f7 37 30 bd 33 2b 80 3e 21 96 26 bf 03 7e c2 be
       -0.043022122 0.25032958 -0.6507283 -0.37986764
000070 0b b4 88 3e 57 31 76 bd 30 49 b1 be 1b 53 08 3f
       0.26699862 -0.060105648 -0.3462615 0.5325181
000080 32 aa c3 be 4a 95 53 3d a8 91 28 3f 26 93 26 be
       -0.38215786 0.051656045 0.65847254 -0.1626707
000090 bc 07 02 bf bb f8 02 be 05 8d 14 3f 0b f9 19 3e
       -0.5079305 -0.12790196 0.5802768 0.15036409
0000a0 dc a8 e3 3c c2 23 0e 3f bc ce 9c be 7d 2b 28 3f
       0.02779048 0.5552331 -0.30626476 0.6569136
0000b0 ee 79 cd 3e 16 72 c2 be 5f ff b4 3e f8 9c 22 bf
       0.40132087 -0.37977666 0.35351083 -0.63520765
0000c0 c9 56 0d 3f e8 f2 40 3e f6 7d d4 3e 16 2d 5d 3e
       0.5521055 0.18842661 0.4150235 0.2159923
0000d0 5f b5 a4 3e d1 15 4a be 05 b6 46 be bd e2 88 be
       0.32169625 -0.19734885 -0.19405372 -0.26735488
0000e0 02 76 81 be a7 62 08 bf 45 aa 10 3e 22 8f e4 3d
       -0.25285345 -0.5327553 0.14127453 0.11160113
0000f0 70 97 0c bd 06 a1 12 3f c8 11 29 3f ac 3f 17 bf
       -0.03432411 0.5727695 0.6604276 -0.5908153

weight f4 [64]
000000 96 55 7f 3f 6c 32 7f 3f 3e 9a 80 3f 77 75 80 3f
       0.9973997 0.9968631 1.0047071 1.0035847
000010 ea cd 75 3f 84 61 7e 3f e2 09 81 3f 32 75 7e 3f
       0.96017325 0.9936755 1.0081141 0.99397576
000020 94 cd 75 3f 97 76 7f 3f 95 35 80 3f ba 0e 7e 3f
       0.9601681 0.9979033 1.0016352 0.9924122
000030 0b 23 80 3f 79 af 7e 3f 7f d5 7d 3f 4b 8a 7e 3f
       1.0010694 0.994865 0.99153894 0.9942977
000040 fc 86 80 3f 82 0c 7f 3f 74 03 80 3f de 83 7f 3f
       1.0041194 0.9962846 1.0001054 0.9981059
000050 94 cd 75 3f 8c f5 7f 3f d7 1e 80 3f c5 2d 80 3f
       0.9601681 0.9998405 1.0009412 1.0013968
000060 8a 1a 80 3f ff 2f 81 3f 94 cd 75 3f 94 cd 75 3f
       1.0008099 1.0092772 0.9601681 0.9601681
000070 3e 60 7f 3f f2 60 80 3f 12 51 7f 3f 53 d5 81 3f
       0.9975623 1.0029585 0.9973308 1.0143226
000080 94 cd 75 3f 25 c0 7f 3f 42 17 81 3f 94 cd 75 3f
       0.9601681 0.99902564 1.0085223 0.9601681
000090 94 cd 75 3f 94 cd 75 3f 0e 63 7f 3f 33 f4 7e 3f
       0.9601681 0.9601681 0.9976052 0.9959137
0000a0 9f 09 80 3f 09 fa 81 3f 94 cd 75 3f 94 2b 7f 3f
       1.0002936 1.015443 0.9601681 0.9967587
0000b0 cf a4 7f 3f 3f eb 7e 3f 4c 2a 80 3f 94 cd 75 3f
       0.9986085 0.9957771 1.0012908 0.9601681
0000c0 5f 97 7d 3f 30 05 80 3f 7d b2 80 3f 83 9d 7f 3f
       0.990591 1.0001583 1.005447 0.9984972
0000d0 30 8f 7f 3f e2 8b 7d 3f 94 cd 75 3f 35 09 7f 3f
       0.9982786 0.9904157 0.9601681 0.99623424
0000e0 62 c2 7f 3f 18 8c 7f 3f da 81 80 3f b4 83 80 3f
       0.9990598 0.9982314 1.0039628 1.0040193
0000f0 6f 65 80 3f 56 7b 80 3f f2 97 7f 3f 94 cd 75 3f
       1.0030955 1.0037639 0.99841225 0.9601681

bias f4 [64]
000000 3c df e2 bb cf 46 99 3b 97 5a c7 ba f1 16 56 3b
       -0.0069235843 0.0046776305 -0.0015209493 0.0032667483
000010 dc b0 35 39 25 d4 3e ba 3d 0a fa bb 82 16 74 bb
       0.0001732739 -0.0007279537 -0.007630615 -0.003724486
000020 d1 cd c4 3b 85 04 5d bc 6c 9f 14 3a 53 8d 7f b8
       0.0060059805 -0.013489847 0.00056695077 -6.0928356e-05
000030 2f 1f 4c bb 86 4f 5d 3c 80 92 42 3b a9 bd 6a bb
       -0.0031146517 0.013507729 0.0029689372 -0.0035818613
000040 3d d5 cb bb d5 fd 9f 3a a1 5a 6c b9 5e 1a aa ba
       -0.0062204883 0.0012206385 -0.00022540476 -0.0012977829
000050 0d eb 03 bc 5f e2 15 3c 66 db 36 bc ca 1b 4b bc
       -0.008051646 0.009148209 -0.011160707 -0.012396762
000060 47 73 07 3c d0 43 ff bb 7d 34 68 bb 2d bf 57 3a
       0.00826723 -0.0077900663 -0.0035431676 0.00082300865
000070 62 9d 0e 3a 9d 5b 07 3b 91 7b 05 bc 6c 22 1e bc
       0.0005440322 0.002065397 -0.008147136 -0.0096517615
000080 3e a5 05 bc 3d e6 65 3b fa a0 ba 39 ee bc 91 3b
       -0.008157073 0.003507986 0.00035596621 0.004447571
000090 ac 04 b4 3b 46 39 5b 3c 55 d3 57 3b 5a b1 55 bb
       0.005493721 0.013380354 0.003293236 -0.003260693
0000a0 33 f6 e5 3a 4f 34 a5 3b aa 1e 1b 3b e9 a8 4c bc
       0.0017544687 0.005041636 0.00236694 -0.012491443
0000b0 29 9a 34 3a c4 9c 28 3c 73 78 2e 3c 5b 6d bb 3b
       0.0006889427 0.010291282 0.0106488345 0.0057198233
0000c0 bf 25 28 3c 4c 51 0e 3c d3 54 a5 bc a2 a0 8f ba
       0.010262906 0.008686375 -0.020182049 -0.0010957906
0000d0 ec 19 28 3c a0 c6 ec ba 30 25 4b 3b 62 20 de ba
       0.0102600865 -0.0018064566 0.0030997507 -0.0016946907
0000e0 70 32 2a ba a9 55 48 3b a7 0f 21 bc 23 b1 3e bc
       -0.0006492501 0.0030568636 -0.009830392 -0.011638912
0000f0 b9 30 d6 bb ee 34 36 bc f4 72 28 bc a6 48 ad bb
       -0.00653657 -0.011121018 -0.010281313 -0.0052882014

running_mean f4 [64]
000000 9e bb 0b 3e d0 a5 a0 3e b8 6e 1e 3f c9 c3 28 3d
       0.13645789 0.31376505 0.61887693 0.04120234
000010 12 24 64 34 f2 3e 6d 3f a7 c5 47 3d 95 81 36 3f
       2.1247277e-07 0.9267417 0.04877248 0.71291476
000020 00 00 00 00 4a 08 af 3b 81 e8 69 3f e7 61 ba 3d
       0.0 0.0053415643 0.913704 0.09100705
000030 03 f5 09 3d 3f e6 58 3d 71 55 7c 3c 6a ab a4 3e
       0.033680927 0.052953955 0.01540123 0.3216203
000040 a8 3b c8 3d 08 d6 de 3e 5b 33 10 3d 4c 5c d5 3b
       0.097770035 0.43522668 0.035205226 0.006511247
000050 00 00 00 00 64 04 60 3b d4 6b 69 3e 08 9a 9e 3c
       0.0 0.0034182305 0.2279504 0.019360557
000060 27 ac 41 3d ed 61 bc 3e 00 00 00 00 00 00 00 00
       0.047283318 0.3679346 0.0 0.0
000070 c8 c6 e4 3c 84 00 95 3c 51 f1 67 3c 0e dd 1f 3f
       0.027926818 0.018188722 0.014156655 0.6244668
000080 00 00 00 00 17 ff a7 3e 26 1c 49 3f 00 00 00 00
       0.0 0.32811806 0.78558576 0.0
000090 00 00 00 00 00 00 00 00 49 c9 23 3e eb 3e de 3d
       0.0 0.0 0.15994753 0.108518444
0000a0 1c 9f 20 3a 8b df 9d 3e 00 00 00 00 5b 49 d9 3e
       0.0006127225 0.30834612 0.0 0.42438778
0000b0 58 cc 42 3f fb 02 93 3e 7e 84 88 3d 00 00 00 00
       0.76093054 0.2871321 0.06665896 0.0
0000c0 78 e8 d6 3e 11 ad 5d 3d 30 c9 67 3f 0e 80 bd 3e
       0.41974235 0.054120127 0.9054136 0.3701176
0000d0 f1 b5 a3 3d 08 78 e7 3a 00 00 00 00 90 a4 ba 3b
       0.07993687 0.0017659673 0.0 0.005695887
0000e0 04 54 a2 3e 30 29 d7 3c 54 c5 32 3e 3d 73 fd 3a
       0.31704724 0.026264757 0.17458087 0.0019336712
0000f0 ee 4e 05 3e f8 5b 40 3f 3e 01 cd 3e 00 00 00 00
       0.1301839 0.75140333 0.4004001 0.0

running_var f4 [64]
000000 3c d3 95 3c f8 6a 96 3c d8 3d 31 3d b2 1f cb 3b
       0.018289201 0.018361554 0.04327187 0.0061988467
000010 74 8f 39 39 7c 86 11 3d 17 f2 e6 3b ac b0 97 3c
       0.00017696415 0.035528645 0.0070479023 0.01851686
000020 67 8f 39 39 da cd 35 3a 03 f9 c7 3c 7f b4 03 3c
       0.00017696396 0.00069352763 0.02441073 0.008038639
000030 e5 28 a6 3b af db e5 3b 18 f4 12 3b 69 c4 7a 3a
       0.005070793 0.0070147137 0.0022423323 0.00095660106
000040 89 1a 6c 3c 7f e2 12 3d b8 d5 84 3b 4f 4d 53 3a
       0.014410623 0.035860535 0.0040537976 0.0008060531
000050 67 8f 39 39 7d e8 c2 39 cd 74 8b 3c 8c 20 54 3b
       0.00017696396 0.0003717578 0.017023468 0.0032368032
000060 5d 89 8c 3b c5 c4 94 3c 67 8f 39 39 67 8f 39 39
       0.004288836 0.018160233 0.00017696396 0.00017696396
000070 83 c7 53 3b 22 ac 03 3b bf 29 22 3b f1 10 48 3c
       0.0032314963 0.0020091613 0.002474412 0.01221107
000080 67 8f 39 39 41 e0 db 3c 77 d9 30 3b 67 8f 39 39
       0.00017696396 0.026840331 0.0026985088 0.00017696396
000090 67 8f 39 39 67 8f 39 39 4a a6 bc 3c 9c c6 7e 3c
       0.00017696396 0.00017696396 0.023028512 0.015550282
0000a0 78 f6 42 39 72 45 03 3d 67 8f 39 39 f7 fc 40 3c
       0.00018593099 0.03204865 0.00017696396 0.0117790615
0000b0 4f 1e bf 3c a1 76 5a 3d f5 23 0a 3c 67 8f 39 39
       0.023329882 0.05333579 0.008431424 0.00017696396
0000c0 46 47 03 3c f3 e3 4e 3b bd 33 3b 3d f3 92 da 3c
       0.008012598 0.0031568974 0.04570364 0.026681399
0000d0 92 6a 48 3c 56 96 8d 39 67 8f 39 39 aa f0 5a 3a
       0.01223244 0.00027005625 0.00017696396 0.0008351902
0000e0 f2 d8 3d 3d 28 13 5f 3b 40 9d 4c 3c 63 85 98 39
       0.046349473 0.0034038518 0.012488663 0.0002909108
0000f0 32 b2 57 3c 2b d7 ac 3b da 11 42 3c 67 8f 39 39
       0.013165044 0.0052746735 0.011845076 0.00017696396

weight f4 [64, 128]
000000 aa 1d 1c bc b0 fd 29 3c 40 38 5a bb 19 07 fd bc
       -0.009528557 0.010375425 -0.0033297688 -0.030887173
000010 00 60 97 bb de 3c a3 bc b1 bb 4c bd 02 bb a5 3d
       -0.0046195984 -0.019926485 -0.049983684 0.080923095
000020 86 21 0e 3c bc 3a 88 3d 28 48 af 3c aa 32 17 3d
       0.008674985 0.06651828 0.021396711 0.03691355
000030 0f 92 90 bd e4 8a 87 bb b1 b8 a5 3d 0f 90 5c bd
       -0.070591085 -0.00413643 0.08091868 -0.053848322
000040 97 88 be bd 7f 95 1c 3d 6e c0 88 3d 71 00 2b 3c
       -0.09303396 0.038228508 0.06677328 0.010437117
000050 39 7a 8d bc 3f de 25 3d de 4a 21 bd db ca 93 bb
       -0.017270194 0.040495154 -0.03937804 -0.0045102662
000060 44 6f b2 3d 04 2e d3 3b 91 1c 7b bc 57 53 34 bd
       0.087126285 0.0064446945 -0.015326635 -0.04402479
000070 dd 8b 3a 3d d3 94 32 3d d2 e3 8e 3d a8 56 94 3c
       0.04554354 0.04359896 0.06977047 0.018107727
000080 bf 68 7a bc 5e ec f4 3c ac 10 b5 3b 7b 6b 25 bc
       -0.0152837625 0.029897865 0.005525669 -0.010096426
000090 8b 32 17 bd 39 49 97 3c c1 21 5e bd 30 9c c0 bc
       -0.036913436 0.018467532 -0.05423141 -0.023511976
0000a0 9a 48 a5 bd bb c7 af 3c df bc 49 bd 70 59 aa bd
       -0.08070488 0.021457544 -0.049252387 -0.0831784
0000b0 b4 6b b3 bc 12 06 a2 3c 2d 0c a8 3b 1e 8b 17 3c
       -0.021901943 0.019778285 0.0051284046 0.009249477
0000c0 37 57 8b 39 2b f3 7d 3c 30 81 84 3d 99 61 86 bd
       0.00026577126 0.01549987 0.06469953 -0.06561584
0000d0 45 ff 3a bb e6 a5 24 bd 44 7d 2c 3d c5 85 26 bd
       -0.00285335 -0.040197276 0.04211165 -0.040654916
0000e0 54 e4 e5 bc 60 c4 94 3d 3c 07 96 3d 2a af e5 bc
       -0.028062977 0.07264018 0.073255986 -0.028037626
0000f0 71 52 83 3d 15 fc aa bc be 6a 59 3d a1 db 80 bc
       0.06412209 -0.020872155 0.053080313 -0.015729727
000100 e9 78 73 bd 33 52 f8 3c 95 c3 85 3c d3 4b 67 bc
       -0.05944148 0.030312633 0.016328612 -0.014117199
000110 a6 69 d8 3c 97 42 56 3d 0b be 1b bc f5 54 67 3c
       0.026417565 0.0523096 -0.009505759 0.014119376
000120 b9 0e 75 3d a3 96 37 bc 78 cf b6 bc 49 bf 83 3c
       0.059828494 -0.011205348 -0.022315726 0.016082423
000130 27 10 37 3c 37 e9 ba 3c 27 d9 31 3d 43 51 26 bd
       0.011173285 0.022816284 0.043419983 -0.04060484
000140 cf e1 6b bc a3 3c 9c 3c c3 2d 2f bd 5e 81 2e 3d
       -0.014397099 0.019071883 -0.04276825 0.042603843
000150 71 58 14 bd 12 b3 60 bd ce 4a 38 bd 4d f3 17 bd
       -0.036217157 -0.054858275 -0.044993214 -0.037097264
000160 7a ef e1 3c 23 60 e1 3c 00 10 a1 33 86 28 6a 3d
       0.027580012 0.027511662 7.500057e-08 0.057167552
000170 6f 9c 86 3d 5a 64 11 3c cf ea 00 3d 69 84 8d bd
       0.06572806 0.008874023 0.03147393 -0.06910021
000180 03 64 53 3d fd 18 78 3d d5 b1 0e bc 21 bc 4c 3d
       0.05160905 0.060570706 -0.008709391 0.0499841
000190 22 1a 6c bd c6 d2 5d 3d c9 a5 14 bd 22 a5 c4 3b
       -0.05764211 0.054156087 -0.036290918 0.0060011307
0001a0 eb f3 98 3c 86 22 af 3c 56 92 00 bd 6a 3c 4e bc
       0.018670997 0.021378767 -0.031389557 -0.012587646
0001b0 bb bb 7c bc 53 a4 cf bc 4e 32 d0 3c de 2f a2 bc
       -0.015425618 -0.02534691 0.025414612 -0.019798215
0001c0 c6 26 84 3b 37 37 b0 b9 17 3f 6e 3d c4 a4 71 bd
       0.0040329425 -0.00033610474 0.058165636 -0.058995023
0001d0 fa a7 b5 3c 1c fb 2c bd 27 36 b2 bc e6 15 63 3d
       0.022174824 -0.042231664 -0.021754337 0.055440806
0001e0 ea ec cd bc 68 9b 0b 3d 1e a9 8e ba f7 89 4a bc
       -0.025137383 0.034083754 -0.0010884141 -0.012361995
0001f0 74 69 3d bd 10 90 e0 bc ec a7 1f 3d de 41 81 3c
       -0.046243146 -0.027412444 0.038978502 0.015778478
000200 45 84 b0 3b 82 67 de 3b 07 e1 f5 3b 6c 48 ee 3c
       0.0053868615 0.0067872414 0.007503632 0.029087268
000210 dd 2c 00 3d 62 48 a6 3d 53 9f 43 3d 7c 97 7b 3d
       0.031292785 0.08119275 0.047759365 0.061423764
000220 02 46 3c bd 28 7e 55 3d da bc 29 3d 40 60 3f bd
       -0.045965202 0.052122265 0.04143987 -0.04672265
000230 e2 14 b0 3c 77 7c 8b bd 57 9f 8c 3c a1 40 8f bd
       0.021494333 -0.06810849 0.017165823 -0.06994749
000240 dc 13 a6 3c 3e 45 83 3d b7 c0 f4 3c 0d 22 8e bd
       0.020273142 0.06409691 0.02987705 -0.069400884
000250 be c7 b0 3c 1f 18 9e 3d 31 f5 46 3d a8 8c d1 bc
       0.02157962 0.077194445 0.048573676 -0.025579765
000260 4a b0 a1 3c 44 3c c5 bc 63 2d 5a bc 68 4e b3 bb
       0.019737381 -0.024076588 -0.013316485 -0.0054719932
000270 c4 7b b0 3d 17 26 bf bb 94 e2 6e bd 29 3b ab bd
       0.086173564 -0.005833398 -0.05832155 -0.08360893
000280 a1 a1 89 bc ca 6f 50 bd f9 51 8f 3d b9 8b 10 3d
       -0.016800703 -0.05088786 0.06998057 0.0352895
000290 d2 e6 84 3c fb e4 80 bd 98 c8 21 3b bd d7 a9 bd
       0.016223345 -0.062936746 0.0024686214 -0.08293102
0002a0 cc 88 44 3d ac 5a 8f bd b2 b3 4a 3d 16 4f 52 bd
       0.047982022 -0.06999716 0.049487777 -0.051344953
0002b0 8c 3f 79 3d 24 2b a9 3d a8 e6 8a bd da 6f 84 ba
       0.06085162 0.082601815 -0.067822754 -0.0010104135
0002c0 06 48 0c 3d a6 01 b8 3c bb df 0d bd 60 ef a5 3d
       0.034248374 0.022461724 -0.034637194 0.08102298
0002d0 ca 9d 07 3b 04 6f 90 bd 09 21 4d bd 2d 36 34 bc
       0.0020693415 -0.070524246 -0.050080333 -0.010999245
0002e0 41 f2 f9 bc 13 c1 11 3d 4d 38 dd bc 06 de 9b 3d
       -0.030511023 0.03558452 -0.027004385 0.07610707
0002f0 57 23 5a 3d be 24 71 3d 1d 75 64 bd ee 2f 42 3a
       0.05325636 0.05887293 -0.05577575 0.0007407655
000300 cd f7 1d 3d fe 5a 26 bc 60 79 dc bc c3 bf d0 bc
       0.0385664 -0.01015353 -0.026913345 -0.025482064
000310 23 99 07 3d a5 2d 8f bc 30 74 99 bb 88 6f 4a 3d
       0.033105027 -0.01747782 -0.00468304 0.04942277
000320 5c 33 5a bc 08 f4 22 ba a5 fb eb bc 4d 53 44 3d
       -0.013317909 -0.0006216173 -0.028806517 0.047931004
000330 de 2c 5b bd ab d7 31 bd c4 c3 07 3d 29 e1 6c 3d
       -0.053509586 -0.043418568 0.03314568 0.057831917
000340 bb 26 4b bd 2a 49 44 3d 8d 0c 15 bd 10 fc 85 ba
       -0.049597483 0.047921337 -0.036388922 -0.0010222215
000350 4c a3 70 bc 91 fe 46 bd 92 c5 6f 3d 49 97 5c bc
       -0.0146873705 -0.048582617 0.058538027 -0.013463804
000360 35 d2 80 bd 48 b9 81 3c 99 17 74 3b 0a a3 38 bd
       -0.06290094 0.01583542 0.003724551 -0.04507736
000370 83 86 d3 3c 40 8b ca bc e6 a9 48 bd fd 26 84 3a
       0.025820976 -0.024724603 -0.048990153 0.001008242
000380 ae ae 3e 3d d6 61 61 3d 69 b5 41 3d 0d 96 cc 3c
       0.046553306 0.055024944 0.047292147 0.024973894
000390 be e8 28 bb 56 06 3c bd 05 15 20 bc dc 47 30 3d
       -0.002577349 -0.04590448 -0.009770636 0.04303728
0003a0 d8 92 03 3d 64 8f 64 3b 70 fe 51 bd f2 55 30 bb
       0.032122463 0.0034875507 -0.05126804 -0.0026906696
0003b0 10 e1 bc bc 3f cc 1a bd 50 df 01 3d a9 77 d5 3b
       -0.023056537 -0.03779244 0.031707108 0.0065145087
0003c0 0f 9a 16 3c f4 b9 a5 bc 12 6c 55 3d 77 05 68 bd
       0.009192004 -0.02023027 0.052105017 -0.056645837
0003d0 8e 8d b2 bc 0a c1 d2 bc 71 6b 5f bd 4e 62 2c bd
       -0.021796014 -0.025726814 -0.054545823 -0.04208594
0003e0 85 68 ed 3c 19 e7 5f bb 6d 7f 6b ba db 13 6a 3d
       0.028980503 -0.0034164845 -0.00089835265 0.057147842
0003f0 27 cf 65 3d fd b0 b3 bc f5 c1 2f 3c 74 be 1c bd
       0.05610576 -0.02193498 0.010727395 -0.038267568

bias f4 [64]
000000 72 52 7c 3d 45 c8 28 bb 0b b7 8e bd 1c 75 42 bc
       0.061602063 -0.0025754136 -0.069685064 -0.011868741
000010 83 b5 12 3d c2 82 80 bb 5d b4 33 bb 87 89 a4 bd
       0.035817634 -0.0039218375 -0.0027420737 -0.08034044
000020 b7 e8 b3 3d 33 21 58 3d e7 34 13 3d d4 de b0 bd
       0.08784621 0.052766036 0.035939123 -0.08636251
000030 a5 17 3e bc 4b 28 23 3d 94 fa 06 3c 0c c1 07 bd
       -0.011602317 0.03983335 0.008238453 -0.03314309
000040 dd c9 f0 3c 22 62 38 bd 7c c5 02 3d bc 8d 7e 3d
       0.02939313 -0.04501546 0.031926617 0.062146887
000050 8b bd 84 3c 7f 65 77 bd c2 44 95 3d 55 ee ae bd
       0.016203662 -0.06039953 0.07288505 -0.08541552
000060 b3 c7 3c bd 24 ba 8e 3d dd 7c 9d bd 8a 16 80 3d
       -0.046088886 0.06969097 -0.076898314 0.06254299
000070 87 40 2f bd 50 51 b5 bc 4d 31 55 3d 6a bd 7f 3b
       -0.042786147 -0.0221335 0.05204897 0.0039022812
000080 cc b8 79 3d 22 b1 96 3d 8f 24 9e bc 7b 95 00 bd
       0.06096725 0.07358004 -0.019304542 -0.031392556
000090 e7 1a 5b bd 0a 9f d6 3c 64 27 78 3d a7 32 9e 3d
       -0.053492453 0.026198883 0.06058444 0.07724505
0000a0 18 bf 09 3b 25 6c 4f bd 3d 1a 97 bd 6f 5d 11 3d
       0.0021018442 -0.050640244 -0.073780514 0.035489496
0000b0 52 22 84 bc 78 3b 32 bd 4b 61 a2 bc 46 de e0 3b
       -0.016129646 -0.043513745 -0.019821784 0.0068624346
0000c0 b6 4a 37 3d 8f 95 49 3c ac 83 c9 3c 52 58 24 bd
       0.044748984 0.012303724 0.024598919 -0.04012329
0000d0 df a3 97 3d 69 49 c0 3c 18 45 bb 3d db 67 78 bd
       0.07404303 0.023472505 0.09144038 -0.06064592
0000e0 04 73 2d bc f6 b9 82 3d 68 d8 17 bd 5b f0 6c bd
       -0.010586504 0.063831255 -0.037071615 -0.05784641
0000f0 d1 97 8a bd d6 63 c0 3d 6c 6b 3e 3d 94 f8 16 3d
       -0.06767238 0.09394042 0.046489164 0.036858156

weight f4 [64, 64]
000000 3b d1 51 bd 31 f4 42 bd 5f 3d bc 3c 8d c9 01 3d
       -0.05122493 -0.04759616 0.022978483 0.031686354
000010 b5 c3 66 3c 53 af 9f 3d b4 4c d1 bd 60 4b 49 bd
       0.014084746 0.07797112 -0.10219708 -0.04914415
000020 9e f1 ee 3d 41 4c fc 3c 18 be ef 3d 2c a7 92 bd
       0.116671786 0.03079808 0.117061794 -0.07160792
000030 1a 27 28 3d c8 62 22 bc ce 11 b0 3d b1 01 38 3d
       0.041052915 -0.009911247 0.08597146 0.044923488
000040 6c e6 1e bd 92 b8 d1 3d 01 e9 c5 3d 6d 1b e9 bd
       -0.038793966 0.10240282 0.096635826 -0.11382184
000050 1d b0 fa bd d7 54 52 bd 2e 7d 2c 3d 3f d6 41 3d
       -0.12240622 -0.05135044 0.04211157 0.04732346
000060 eb 67 22 3d 61 01 96 3d e9 16 10 3d 53 43 e1 3d
       0.039649885 0.07324482 0.0351781 0.10999169
000070 1f 5f f8 bd f1 94 95 bd eb cd af 3d 0b 06 f1 3c
       -0.12127518 -0.07303799 0.085841976 0.029421827
000080 b2 26 a0 3d b0 37 41 3d ed 0d d0 bd 0f 2e f7 bd
       0.078198805 0.04717225 -0.10158906 -0.12069332
000090 d0 7b 36 bd 3b ed 6e bd 33 61 ab bd 90 cf 8d bc
       -0.04455167 -0.05833171 -0.08368149 -0.017310888
0000a0 9b 96 fd bc 89 44 82 bd 32 89 69 3d 01 ad 86 3d
       -0.030955603 -0.06360728 0.057015605 0.065759666
0000b0 98 05 e3 3d 40 1c 9e 3d 4d 9b ef bd a1 63 86 bd
       0.11085051 0.07720232 -0.11699543 -0.065619715
0000c0 1d 8f a1 bd 7e 65 3e bd 04 09 9b 3d 46 a6 d0 3d
       -0.07888625 -0.04648351 0.07570079 0.10187964
0000d0 00 c5 c1 3d c1 a0 5f bd a4 5f 49 bc 95 5b 61 ba
       0.09461403 -0.054596666 -0.012290869 -0.00085967156
0000e0 77 90 41 3d fe d7 e2 bd 06 a0 13 bc 8b 64 b0 bc
       0.047256913 -0.110763535 -0.0090103205 -0.021532318
0000f0 c8 9a e6 3d 0a ad 7e 3d 15 5b 8a 3c 6f 87 c2 bd
       0.11259991 0.06217674 0.016889134 -0.09498488
000100 80 bb 53 bc 12 22 aa 3d 52 e5 d8 3d 6d e6 50 bc
       -0.012923121 0.0830728 0.105906144 -0.01275025
000110 fc 62 60 3d 40 33 cc bd 16 e4 cb 3c 1b 28 17 3d
       0.0547819 -0.09970713 0.024889033 0.036903482
000120 a7 ee 67 3d da a9 b0 bd cb 62 9e 3c 70 e4 8c bd
       0.05662408 -0.086261466 0.019334218 -0.068795085
000130 c5 8d 85 bd 77 c1 b2 3c c8 f4 d7 bc 02 d6 89 3d
       -0.06521181 0.021820767 -0.026361838 0.06730272
000140 85 a1 9b bd 61 2a 34 bd 11 79 38 3d bf f7 0d 3d
       -0.07599167 -0.04398573 0.045037333 0.034660097
000150 84 0e e1 3d 07 17 e2 bd fa 4a 59 bd 15 9f d1 3d
       0.10989097 -0.11039548 -0.05305002 0.102354206
000160 de 37 bd 3c fb d9 b2 3d 41 80 5a bd a6 34 d4 bd
       0.023097929 0.08732983 -0.05334497 -0.103616044
000170 a6 70 a7 3d 95 ef f0 3d df 70 b5 3d 4b 90 d9 3d
       0.08175783 0.11764447 0.08859419 0.10623225
000180 f8 53 a1 bd 93 05 b0 bc c4 1b f3 3d 2c 4d 93 bd
       -0.07877344 -0.021487033 0.1187053 -0.07192454
000190 e7 1b 98 bd e5 39 e9 3d d0 55 ff bc 6e 60 d8 bd
       -0.07427197 0.11387996 -0.031168848 -0.105652675
0001a0 78 a7 49 3c 74 a1 c7 bc 1d bc 8d bc 3d 46 2e bd
       0.012307994 -0.024368979 -0.017301613 -0.042547453
0001b0 8a ac 89 3d b3 d4 f2 3d b7 88 18 3d 8c a9 9f 3c
       0.06722362 0.118569754 0.037239756 0.019490026
0001c0 27 e2 f5 3d ae a1 ae bd 70 e9 48 3d 67 61 bf bd
       0.12006026 -0.08526932 0.04905075 -0.0934475
0001d0 7d e3 19 bd 31 cf c0 3d 18 7c ac bc f9 47 c9 bb
       -0.037570465 0.094145186 -0.021055266 -0.006142613
0001e0 ec c1 5c 3d ae 7e 49 bc 3c 11 12 bc cd 6f a6 3d
       0.053895876 -0.012298269 -0.008915242 0.08126793
0001f0 c3 be ea bd 14 04 d1 3d 61 45 90 3d 55 26 7c 3d
       -0.11462166 0.10205856 0.07044483 0.061559994
000200 df 1a 93 bd c0 55 8c 38 cb ad cf bd 1c 2d 0b 3d
       -0.0718286 6.6916924e-05 -0.1014057 0.033978567
000210 0c 54 4c bd 47 8b e3 bc 6c c2 b3 bd 1e 10 7d bd
       -0.04988484 -0.027776374 -0.087773174 -0.06178295
000220 ec e4 95 3d 1f 42 5e 3d e4 66 1f ba 3f 40 23 bd
       0.07319054 0.054262277 -0.00060807006 -0.03985619
000230 a8 7f 80 bd 58 0d 5e 3a b0 db af bc c0 d8 70 bd
       -0.062743485 0.00084706163 -0.02146706 -0.05880046
000240 b1 d5 0a 3d 82 c1 36 bd 1a 90 e1 39 9d 07 36 bc
       0.0338952 -0.044618137 0.00043022708 -0.011110214
000250 6a 15 a4 3d 39 75 9d bd 26 9f b6 3d 4f 3a 95 bb
       0.08011897 -0.07688374 0.08917074 -0.00455407
000260 c5 63 31 bb c6 17 92 bc 6f 54 7c bb b4 6e 79 3d
       -0.0027067524 -0.017833602 -0.0038502475 0.06089659
000270 11 9b ef bc 95 15 ec 3a 57 57 c8 3d 94 58 10 bd
       -0.029248746 0.0018011803 0.09782284 -0.035240725
000280 a9 8c 1e 3b 35 ab 9e bd 39 a5 0f bc 83 f9 1a bc
       0.0024192727 -0.07747499 -0.0087674195 -0.009458902
000290 74 50 cd bd 55 ee da 3c 57 00 e7 bb 33 a4 9e bd
       -0.10025111 0.026724974 -0.007049601 -0.07746162
0002a0 52 87 7d bd 30 43 b2 3c 75 28 31 bd b2 b9 6c 3d
       -0.06189663 0.021760553 -0.043251473 0.05779428
0002b0 7f 93 9e bb 6c 13 36 bd 2e 1b 36 3c a1 be 17 bc
       -0.0048393602 -0.044452116 0.011114879 -0.009261758
0002c0 a8 55 42 3d 3c 26 09 bb 46 fc e7 bc 34 3e af 3d
       0.04744497 -0.002092733 -0.028318536 0.08556786
0002d0 af d0 a4 bd 3d b9 30 bd cd ef 83 bd 92 40 0b bc
       -0.08047616 -0.043145407 -0.06442223 -0.0084992815
0002e0 b6 de f7 3c e4 7f 09 3d 2c 34 91 ba 22 af da bd
       0.030257564 0.03356923 -0.001107817 -0.10677935
0002f0 f5 26 e4 3d 3e fa d9 3d 80 83 6b 38 c6 a4 8a bd
       0.11140243 0.10643433 5.6150835e-05 -0.06769709
000300 be cf 54 bd 31 40 06 3e c7 00 88 3c 75 cf ae bd
       -0.05195593 0.13110425 0.016601933 -0.08535663
000310 f1 7b d2 bc 13 3d 84 3d 3a df 33 3d 52 ef 48 3d
       -0.025693865 0.064569615 0.043914057 0.04905636
000320 0f 33 b8 bd b5 e5 b0 3d e2 8f 45 bd fd 00 b4 bc
       -0.08994114 0.08637563 -0.04823292 -0.021973127
000330 09 2e 49 3d f8 6c 3c 3d b9 bd 82 3d 4a 4f 91 bc
       0.04911617 0.04600236 0.06383843 -0.017738003
000340 0a 2a c5 bd 11 e7 da 3d 6f bd 6e bd 16 e1 39 3c
       -0.09627159 0.10688604 -0.058286127 0.011345169
000350 5b ab 8c ba 69 a2 1b 3d 2a 77 5e bd d3 03 56 3c
       -0.001073222 0.037996683 -0.054312862 0.013062435
000360 53 ab 01 bd bc fb 4f 3d fe 68 c0 bc f7 b2 0c 3d
       -0.031657528 0.050777182 -0.023487564 0.03435036
000370 d2 17 f0 3d a9 36 78 3c 4f 2c af 3d a5 37 91 3d
       0.11723293 0.015149751 0.08553373 0.070906915
000380 9a ba 9d 3d 93 f4 37 bc 14 46 76 bd 85 2e 94 3d
       0.07701607 -0.011227745 -0.060125425 0.072354354
000390 b5 53 0c bc 83 1b bb bd 13 e3 ba bd 1b 73 74 3d
       -0.008564879 -0.09136107 -0.09125342 0.059680086
0003a0 7e 23 40 bd e3 74 4f bd c6 20 a8 3d 0b f4 6f 3d
       -0.046908848 -0.05064858 0.08209376 0.058582347
0003b0 db aa 90 3d b5 77 38 bd 22 33 7f bd 85 20 c4 3a
       0.07063838 -0.045036037 -0.062304623 0.0014963305
0003c0 8b ad 8a 3c a5 be 6f bd 7e 6a ac bd c9 8c 60 3d
       0.016928455 -0.058531422 -0.08418749 0.054821763
0003d0 5c 35 9c bc 53 4f 30 3d 6e 4e f7 3b 13 d2 c1 bd
       -0.019068412 0.0430444 0.0075471913 -0.094638966
0003e0 55 c3 08 3d 61 43 67 3d ca 87 f0 bd c1 32 29 bd
       0.03338941 0.056460742 -0.1174465 -0.04130817
0003f0 08 66 08 bd 6a 28 be bd 6b 78 25 bd 34 d3 62 3d
       -0.03330043 -0.09285052 -0.040398043 0.0553772

bias f4 [64]
000000 14 65 b8 3d b7 41 a4 bc 21 b3 66 bd 56 12 9c 3c
       0.09003654 -0.020050867 -0.056323174 0.019051712
000010 af 75 d6 3d b7 0d 27 3d 3f 73 a0 bd 46 87 5f bd
       0.10471665 0.040784564 -0.078344814 -0.054572366
000020 d7 69 1c bd a5 1f a8 bc 0d 87 cf bd af ef 90 3d
       -0.038186874 -0.020522902 -0.10133181 0.07076966
000030 5e 7d cc bd 0e 23 46 bd 51 b8 93 bd fb 57 c9 3c
       -0.099848494 -0.048373275 -0.0721289 0.024578085
000040 e4 c6 cd bd 5e 92 39 3c 7c db 95 3d a3 67 00 be
       -0.10047701 0.011326401 0.07317254 -0.12539534
000050 ad 10 5a 3d 81 9b eb bc 59 96 c0 3d 2a dc eb 3c
       0.05323856 -0.028760673 0.094036765 0.028791506
000060 79 51 68 3d c1 1a a1 bc a4 49 70 3d b5 94 be 3d
       0.056718323 -0.019666078 0.05866398 0.09305707
000070 ae f5 a5 3d 20 1b a7 3c ca 4c e3 3d b3 80 dc bd
       0.081035 0.020398676 0.11098631 -0.10766735
000080 39 2e b7 bd 58 d9 2d 3d b6 2c b7 bd 1c a7 c3 3d
       -0.08944363 0.042443603 -0.08944075 0.09553358
000090 d6 dc fc 3d 6e b2 2e ba 31 11 f1 bc e1 18 b6 3c
       0.123468086 -0.00066641613 -0.029427143 0.02222866
0000a0 55 1f 5d 3d 6e f0 8b bd 27 7c 63 3d fc dd cb bd
       0.05398496 -0.06832968 0.055538323 -0.099544495
0000b0 6f c3 b0 3d 6b 22 2c 3d 04 7e a1 bc a1 09 9f 3d
       0.08631026 0.04202501 -0.01971341 0.077655084
0000c0 3a d3 f3 3c d4 9c 5c bd a7 0a 15 3d 08 56 29 3b
       0.029763807 -0.0538605 0.036387112 0.0025838632
0000d0 17 79 70 bd 3c a4 42 3d c6 f1 b1 bd 9c 3f d1 bd
       -0.05870923 0.047519907 -0.08688693 -0.10217211
0000e0 4b 6c f9 3d dc 26 89 bd 1f d6 34 bd 83 44 32 bd
       0.12178858 -0.06696865 -0.044149514 -0.04352237
0000f0 fc 9e ad 3d 77 18 02 3b d1 57 ce 3c 40 6a 46 3d
       0.084775895 0.0019851008 0.025188359 0.04844117
