hetgnn_model.pt (torch, 531568 bytes, 107 tensors)

weight f4 [64, 1]
0.5166812 -0.9554144 0.685019 -0.63908005 -0.91779244 0.74081236 0.4527998 -0.48038375
0.08037841 -0.7061808 -0.60761786 -0.6390641 -0.06034264 0.24695285 -0.46526897 0.27647737
0.4625451 -0.16792595 0.003230878 0.6315091 0.18630373 0.58784866 -0.84470725 0.30552268
-0.7686821 0.675486 -0.5084655 -0.5243529 -0.018593429 0.37892288 -0.33610356 1.0222008
0.2836378 0.80056834 -0.0024182796 0.14434028 0.873065 0.70154893 -0.4745208 -0.78930056
0.27357683 0.4177066 -0.7899605 -0.5143957 -0.7618408 0.65805495 0.16529894 -0.92296493
-0.48832 -0.5083593 0.82591593 0.88528335 0.67470175 -0.71369386 -0.28926885 0.22710094
0.8823754 0.62330407 -0.88943493 0.85620826 0.35363337 -0.5760912 0.7339738 0.70190215
00000000: 3845 043f 0a96 74bf 685d 2f3f c09a 23bf
00000010: 72f4 6abf e1a5 3d3f 60d5 e73e dcf4 f5be
00000020: 709d a43d 44c8 34bf d88c 1bbf b499 23bf
00000030: d829 77bd 35e1 7c3e bc37 eebe 718e 8d3e
00000040: b6d2 ec3e c8f4 2bbe 23bd 533b 95aa 213f
00000050: 68c6 3e3e 407d 163f bc3e 58bf 786d 9c3e
00000060: 5ac8 44bf a7ec 2c3f cc2a 02bf fe3b 06bf
00000070: 3f51 98bc 2e02 c23e c415 acbe 7ad7 823f
00000080: f938 913e 0cf2 4c3f 007c 1ebb f0cd 133e
00000090: 3081 5f3f b698 333f 64f4 f2be 9a0f 4abf
000000a0: 4312 8c3e a4dd d53e da3a 4abf 70af 03bf
000000b0: 0008 43bf 4a76 283f 2044 293e 6e47 6cbf
000000c0: 1405 fabe d623 02bf 3a6f 533f eea1 623f
000000d0: 41b9 2c3f a4b4 36bf 0c1b 94be 268d 683e
000000e0: 5be3 613f db90 1f3f 02b2 63bf 7730 5b3f
000000f0: 6f0f b53e b67a 13bf b5e5 3b3f dcaf 333f

bias f4 [64]
-0.99564624 -0.5591594 0.956363 0.17908955 0.48281264 0.6005238 -0.5651667 -0.92989683
-0.55671084 -0.39501286 0.55147064 -0.2198416 0.2145441 0.63662964 -0.93534315 0.24654374
0.4326822 -0.6704643 0.31364185 0.077730775 -0.67015135 -0.96236014 0.69727504 -0.83775747
-0.9740461 0.7596089 -0.15306973 -0.0867151 0.65769535 -0.34783995 -0.9031782 -0.68004936
0.6322382 0.74796784 -0.47419488 -0.8338969 0.6785967 -0.20239748 -0.53187346 0.4470806
0.81521326 0.69890624 0.6618 -0.108466744 0.5497023 0.38876724 -0.6663705 -0.6467216
0.18179488 0.1096282 -0.28677335 0.29000708 -0.1386787 -0.6220341 0.34456074 0.5375939
0.7567434 -0.39203805 -0.013113022 0.8819571 0.032274727 -0.9273708 0.75786173 0.47035363
00000000: ace2 7ebf 1225 0fbf 35d4 743f 4063 373e
00000010: 3833 f73e eebb 193f c4ae 10bf b80d 6ebf
00000020: 9a84 0ebf 203f cabe 2e2d 0d3f 281e 61be
00000030: 73b1 5b3e 29fa 223f a672 6fbf f675 7c3e
00000040: 8588 dd3e 8ca3 2bbf aa95 a03e 5031 9f3d
00000050: 0a8f 2bbf 3c5d 76bf 9e80 323f 4677 56bf
00000060: 165b 79bf bb75 423f 50be 1cbe b097 b1bd
00000070: b95e 283f 1418 b2be b036 67bf b717 2ebf
00000080: 5dda 213f d27a 3f3f acc9 f2be 447a 55bf
00000090: 83b8 2d3f 4941 4fbe dc28 08bf c0e7 e43e
000000a0: d1b1 503f 85eb 323f ba6b 293f d023 debd
000000b0: 4ab9 0c3f 800c c73e 4297 2abf 8c8f 25bf
000000c0: 7028 3a3e c084 e03d f5d3 92be cf7b 943e
000000d0: ca01 0ebe a03d 1fbf 446a b03e c19f 093f
000000e0: efb9 413f 36b9 c8be 00d8 56bc f1c7 613f
000000f0: 8132 043d 2c68 6dbf 3a03 423f 31d2 f03e

weight f4 [64]
1.0 1.0 1.0102715 1.0 1.0 1.0 1.0 1.0
1.0 1.0 1.0 1.0 1.0 0.98395556 1.0 0.9971585
1.0213454 1.0 1.0 1.0 1.0 1.0 1.0 1.0
1.0 1.0 1.0 1.0 1.0 1.0 1.0 1.0
0.9798815 1.0 1.0 1.0 1.0 0.9945143 1.0 1.0
1.0 1.0 1.0 1.0 1.0 1.0031761 1.0 1.0
1.0 1.0 1.0 1.0 1.0 1.0 1.0 1.0
0.96568084 0.98538035 1.0 1.0003606 1.0 1.0 1.0 1.0
00000000: 0000 803f 0000 803f 9450 813f 0000 803f
00000010: 0000 803f 0000 803f 0000 803f 0000 803f
00000020: 0000 803f 0000 803f 0000 803f 0000 803f
00000030: 0000 803f 83e4 7b3f 0000 803f c845 7f3f
00000040: 72bb 823f 0000 803f 0000 803f 0000 803f
00000050: 0000 803f 0000 803f 0000 803f 0000 803f
00000060: 0000 803f 0000 803f 0000 803f 0000 803f
00000070: 0000 803f 0000 803f 0000 803f 0000 803f
00000080: 84d9 7a3f 0000 803f 0000 803f 0000 803f
00000090: 0000 803f 7d98 7e3f 0000 803f 0000 803f
000000a0: 0000 803f 0000 803f 0000 803f 0000 803f
000000b0: 0000 803f 1368 803f 0000 803f 0000 803f
000000c0: 0000 803f 0000 803f 0000 803f 0000 803f
000000d0: 0000 803f 0000 803f 0000 803f 0000 803f
000000e0: dc36 773f e341 7c3f 0000 803f d10b 803f
000000f0: 0000 803f 0000 803f 0000 803f 0000 803f

bias f4 [64]
-0.0036714445 0.010569153 0.0017691802 0.012007562 0.0007506802 0.00033168102 0.0073340675 -0.004818164
0.0012073347 0.0056038215 0.006133009 0.0034635025 -0.012793652 -0.009689933 -0.006584857 0.0030974813
-0.014904295 0.0013828558 0.012901039 0.0036400221 0.004585323 -0.0120740365 -0.002629985 0.016294055
0.017106183 -0.009087544 -0.011906872 0.014822724 -0.025503388 -0.020675195 -0.003241792 0.0033410692
-0.0053537143 0.004546487 0.0049451045 -0.022424256 0.009409605 0.009509568 -0.02238308 -0.026611872
-0.011276226 0.0045538684 -0.007972598 -0.00085193146 -0.012490323 0.0042398535 -0.010977967 -0.012542551
0.0055475994 0.006995342 0.01877176 0.011756895 -0.019633958 0.005593597 -0.0176668 0.009784672
-0.015072505 -0.015914936 0.0013487423 0.0050679743 0.015211903 0.02286803 0.0032462634 -0.017684162
00000000: 9e9c 70bb 3e2a 2d3c d6e3 e73a 5ebb 443c
00000010: 4cc9 443a 79e5 ad39 9e52 f03b b0e1 9dbb
00000020: 6e3f 9e3a 43a0 b73b 69f7 c83b eefb 623b
00000030: 779c 51bc 86c2 1ebc c9c5 d7bb 1dff 4a3b
00000040: 2531 74bc f140 b53a e15e 533c 708d 6e3b
00000050: 7a40 963b 2ed2 45bc d45b 2cbb 1c7b 853c
00000060: 4422 8c3c ece3 14bc 0a15 43bc 03db 723c
00000070: 7bec d0bc 075f a9bc 3f74 54bb d7f5 5a3b
00000080: 366e afbb b2fa 943b 8b0a a23b 13b3 b7bc
00000090: be2a 1a3c 05ce 1b3c b95c b7bc 2401 dabc
000000a0: ebbf 38bc 9e38 953b 809f 02bc 2754 5fba
000000b0: 36a4 4cbc 78ee 8a3b eedc 33bc 467f 4dbc
000000c0: a3c8 b53b 2f39 e53b 3cc7 993c fe9f 403c
000000d0: 65d7 a0bc 7e4a b73b f7b9 90bc e44f 203c
000000e0: abf2 76bc 0a60 82bc 48c8 b03a 4011 a63b
000000f0: 583b 793c bc55 bb3c 43bf 543b 60de 90bc

running_mean f4 [64]
0.0 0.0 1.6409967 0.0 0.0 1.3409835 0.0 0.0
0.0 0.0 0.0 0.0 0.15419139 0.88328594 0.0 0.52339727
0.89374816 0.0 0.31602383 0.70995563 0.0 0.0 0.0 0.0
0.0 1.4348019 0.0 0.0 0.6374434 0.03116755 0.0 0.3413853
0.91580504 1.5478195 0.0 0.0 1.551707 0.49931934 0.0 0.0
1.0883585 1.1156584 0.0 0.0 0.0 1.0458043 0.0 0.0
0.0 0.0 0.53927994 1.1751574 0.53753275 0.0 0.055637505 0.7649061
1.6390971 0.2319818 0.0 1.7375991 0.384651 0.0 1.492502 1.1714886
00000000: 0000 0000 0000 0000 2e0c d23f 0000 0000
00000010: 0000 0000 59a5 ab3f 0000 0000 0000 0000
00000020: 0000 0000 0000 0000 0000 0000 0000 0000
00000030: 59e4 1d3e 071f 623f 0000 0000 5dfd 053f
00000040: aecc 643f 0000 0000 e0cd a13e a7bf 353f
00000050: 0000 0000 0000 0000 0000 0000 0000 0000
00000060: 0000 0000 97a7 b73f 0000 0000 0000 0000
00000070: 7e2f 233f 1753 ff3c 0000 0000 0eca ae3e
00000080: 3372 6a3f f31e c63f 0000 0000 0000 0000
00000090: 569e c63f c9a6 ff3e 0000 0000 0000 0000
000000a0: 554f 8b3f e5cd 8e3f 0000 0000 0000 0000
000000b0: 0000 0000 eadc 853f 0000 0000 0000 0000
000000c0: 0000 0000 0000 0000 400e 0a3f 8f6b 963f
000000d0: bf9b 093f 0000 0000 27e4 633d e3d0 433f
000000e0: efcd d13f a38c 6d3e 0000 0000 a669 de3f
000000f0: faf0 c43e 0000 0000 4e0a bf3f 57f3 953f

running_var f4 [64]
3.5115488e-28 3.5115488e-28 4.8393826e-15 3.5115488e-28 3.5115488e-28 3.5115488e-28 3.5115488e-28 3.5115488e-28
3.5115488e-28 3.5115488e-28 3.5115488e-28 3.5115488e-28 3.5115488e-28 9.363838e-16 3.5115488e-28 3.5115488e-28
1.4570667e-15 3.5115488e-28 3.5115488e-28 3.5115488e-28 3.5115488e-28 3.5115488e-28 3.5115488e-28 3.5115488e-28
3.5115488e-28 3.5115488e-28 3.5115488e-28 3.5115488e-28 3.5115488e-28 3.5115488e-28 3.5115488e-28 3.5115488e-28
1.2514135e-15 3.5115488e-28 3.5115488e-28 3.5115488e-28 3.5115488e-28 2.283771e-16 3.5115488e-28 3.5115488e-28
3.5115488e-28 3.5115488e-28 3.5115488e-28 3.5115488e-28 3.5115488e-28 4.3924535e-28 3.5115488e-28 3.5115488e-28
3.5115488e-28 3.5115488e-28 3.5115488e-28 3.5115488e-28 3.5115488e-28 3.5115488e-28 3.5115488e-28 3.5115488e-28
3.8026536e-15 2.4905502e-17 3.5115488e-28 4.4908272e-15 3.5115488e-28 3.5115488e-28 3.5115488e-28 3.5115488e-28
00000000: 2392 de11 2392 de11 6d5b ae27 2392 de11
00000010: 2392 de11 2392 de11 2392 de11 2392 de11
00000020: 2392 de11 2392 de11 2392 de11 2392 de11
00000030: 2392 de11 77f2 8626 2392 de11 2392 de11
00000040: 46fc d126 2392 de11 2392 de11 2392 de11
00000050: 2392 de11 2392 de11 2392 de11 2392 de11
00000060: 2392 de11 2392 de11 2392 de11 2392 de11
00000070: 2392 de11 2392 de11 2392 de11 2392 de11
00000080: 0259 b426 2392 de11 2392 de11 2392 de11
00000090: 2392 de11 83a6 8325 2392 de11 2392 de11
000000a0: 2392 de11 2392 de11 2392 de11 2392 de11
000000b0: 2392 de11 d133 0b12 2392 de11 2392 de11
000000c0: 2392 de11 2392 de11 2392 de11 2392 de11
000000d0: 2392 de11 2392 de11 2392 de11 2392 de11
000000e0: 4a01 8927 74b6 e523 2392 de11 92cc a127
000000f0: 2392 de11 2392 de11 2392 de11 2392 de11

weight f4 [64, 1]
0.3684895 -0.63759387 -0.22926855 -0.6717611 -0.8304527 -0.5817219 0.7596631 -0.40367997
-0.042275228 0.93292063 0.30419022 0.6112797 -0.09579444 -0.9996979 -0.86397314 0.17479883
-0.72521615 -0.51049757 0.24306238 -0.15177834 -0.37274706 -0.6152835 0.34961194 -0.5162881
0.6998551 -0.17118013 -0.20721161 -0.470034 -0.9432125 0.79144245 -0.25083828 -0.61319923
-0.6229549 -0.48197216 0.40756664 0.0045905113 -0.44662023 0.880588 0.28687227 0.81147105
0.81970406 -0.99261165 0.30706504 0.8328514 -0.7357036 0.9684771 -0.975456 -0.40396273
0.4603279 0.87005913 -0.5483961 0.45189705 -0.6611595 -0.7486769 0.29715884 0.7592748
0.8019463 -0.9554695 0.6934517 -0.51367426 0.76674104 -0.5722927 -0.31291226 0.85513073
00000000: a8aa bc3e 5a39 23bf 60c5 6abe 89f8 2bbf
00000010: 8c98 54bf baeb 14bf 4879 423f 24af cebe
00000020: ca28 2dbd e3d3 6e3f d2be 9b3e d47c 1c3f
00000030: e02f c4bd 34ec 7fbf 582d 5dbf 77fe 323e
00000040: c4a7 39bf f8af 02bf 58e5 783e c86b 1bbe
00000050: b4d8 bebe 3883 1dbf 5600 b33e 752b 04bf
00000060: b429 333f d849 2fbe 482f 54be 4ca8 f0be
00000070: 6076 71bf f99b 4a3f e06d 80be a0fa 1cbf
00000080: f979 1fbf 0ec5 f6be 93ac d03e 006c 963b
00000090: 68ab e4be 376e 613f ece0 923e 91bc 4f3f
000000a0: 20d8 513f cc1b 7ebf a137 9d3e c035 553f
000000b0: 1257 3cbf 1dee 773f 7cb7 79bf 34d4 cebe
000000c0: 19b0 eb3e 32bc 5e3f b063 0cbf 0d5f e73e
000000d0: c041 29bf 4aa9 3fbf 3425 983e d55f 423f
000000e0: 5a4c 4d3f a699 74bf 0d86 313f 2880 03bf
000000f0: 2449 443f c681 12bf 0936 a0be d9e9 5a3f

bias f4 [64]
0.041112453 -0.739148 0.1254623 1.008807 0.58686125 -0.5885583 -0.43750823 0.18581462
0.6885002 -0.4724017 0.85087365 -0.6522497 -0.4146421 0.7528875 -0.49061322 0.546151
0.5856794 -0.12216556 -0.9109465 -0.6443857 -0.962796 -0.035663366 0.048560083 0.83709127
0.57781965 0.2749803 -0.8915378 -0.8499795 -0.39216173 0.0024973268 0.077699184 0.85335004
0.98773766 0.79374796 0.7255439 -0.41637242 -0.027269483 -0.5445202 -0.5091616 0.14263706
-0.92271125 0.37140846 0.8443172 -0.31726176 -0.94462276 0.20747411 -0.175313 -0.69996417
0.54298264 -0.10215949 -0.7991489 0.6978192 -0.9770502 -0.023020744 -0.40618563 0.34091356
-0.22243002 0.18352413 -0.6979532 0.44722402 0.97132677 -0.73425746 0.7894798 0.88287884
00000000: 8865 283d ce38 3dbf 3079 003e 9620 813f
00000010: 8a3c 163f c2ab 16bf 1401 e0be 3046 3e3e
00000020: 8d41 303f a3de f1be dbd2 593f d6f9 26bf
00000030: f84b d4be 3cbd 403f a831 fbbe 8dd0 0b3f
00000040: 16ef 153f f031 fabd ca33 69bf 76f6 24bf
00000050: cc79 76bf c013 12bd f0e6 463d 9d4b 563f
00000060: fdeb 133f 38ca 8c3e d23b 64bf 4298 59bf
00000070: 6cc9 c8be 31aa 233b c020 9f3d 2675 5a3f
00000080: 60dc 7c3f 1133 4b3f 3fbd 393f c42e d5be
00000090: 4064 dfbc ad65 0bbf 6a58 02bf 730f 123e
000000a0: ce36 6cbf 4029 be3e 2c25 583f 2270 a2be
000000b0: ccd2 71bf 1874 543e 4085 33be da30 33bf
000000c0: e900 0b3f ff38 d1bd 0695 4cbf 47a4 323f
000000d0: f61f 7abf 0096 bcbc 90f7 cfbe 398c ae3e
000000e0: b2c4 63be c0ed 3b3e 10ad 32bf 8cfa e43e
000000f0: dfa8 783f 4cf8 3bbf 591b 4a3f 5904 623f

weight f4 [64]
0.96819544 1.0 1.0 1.0 1.0 1.0 1.0 1.0
1.0 0.99590147 1.0 1.0 1.0 1.0 1.0 1.0
1.0 1.0 1.0 1.0 1.0 1.0 1.0102849 1.0
1.0 1.0012127 1.0 1.0 1.0 1.0025648 1.0 0.9897516
1.0 1.0 1.0 1.0 1.0 1.0 1.0 1.0176432
1.0 1.0 1.0 1.0087979 1.0 1.0 1.0 1.0
1.033515 1.0 1.0 1.0 1.0 1.0 1.0 1.0
1.0 1.0 1.0 1.0 1.0057095 1.0 0.97497606 1.0138515
00000000: a8db 773f 0000 803f 0000 803f 0000 803f
00000010: 0000 803f 0000 803f 0000 803f 0000 803f
00000020: 0000 803f 66f3 7e3f 0000 803f 0000 803f
00000030: 0000 803f 0000 803f 0000 803f 0000 803f
00000040: 0000 803f 0000 803f 0000 803f 0000 803f
00000050: 0000 803f 0000 803f 0451 813f 0000 803f
00000060: 0000 803f bd27 803f 0000 803f 0000 803f
00000070: 0000 803f 0b54 803f 0000 803f 5c60 7d3f
00000080: 0000 803f 0000 803f 0000 803f 0000 803f
00000090: 0000 803f 0000 803f 0000 803f 2242 823f
000000a0: 0000 803f 0000 803f 0000 803f 4a20 813f
000000b0: 0000 803f 0000 803f 0000 803f 0000 803f
000000c0: 384a 843f 0000 803f 0000 803f 0000 803f
000000d0: 0000 803f 0000 803f 0000 803f 0000 803f
000000e0: 0000 803f 0000 803f 0000 803f 0000 803f
000000f0: 17bb 803f 0000 803f 0898 793f e3c5 813f

bias f4 [64]
0.0007229357 -0.0012740869 -0.004648239 0.0125183035 -0.018841637 -0.010742881 0.023829728 0.002609411
0.027200798 0.015937787 0.0065269712 0.0035457558 -0.02267287 0.0025829913 -0.019152947 -6.223772e-05
0.0001450266 0.007873847 -0.0010962514 -0.002251644 -0.02357057 -0.0034904352 -0.0018583912 0.008375866
-0.0025203174 0.012745003 -0.005358666 0.0020089739 0.011472164 0.017317105 -0.005845451 -0.0027036418
-0.0018941181 -0.004287614 0.016566813 0.003455266 0.006558111 0.012752752 -0.00040087046 -0.010418327
0.019333692 0.013078185 0.0020298127 0.010451881 0.007433502 -0.0005068028 -0.009862644 -0.008720076
-0.006637372 -0.014804934 -0.0063955914 0.012628795 -0.008746548 0.013119108 0.006422051 0.0082875565
0.009075335 0.0034863348 0.002051019 -0.0029000894 -0.0039612986 0.00087578525 -0.005263424 -0.008822961
00000000: 6583 3d3a 43ff a6ba 4150 98bb 9219 4d3c
00000010: c759 9abc e902 30bc 9036 c33c a702 2b3b
00000020: 35d4 de3c f68f 823c 34e0 d53b e95f 683b
00000030: 74bc b9bc 6747 293b a4e6 9cbc 9f85 82b8
00000040: 4812 1839 4f01 013c 18b0 8fba 5190 13bb
00000050: 1117 c1bc c9bf 64bb 4395 f3ba ee3a 093c
00000060: e92b 25bb 6bd0 503c c097 afbb fda8 033b
00000070: bef5 3b3c 9adc 8d3c 328b bfbb 952f 31bb
00000080: 0f44 f8ba 1d7f 8cbb 20b7 873c be71 623b
00000090: 6ce5 d63b ebf0 503c ec2b d2b9 a1b1 2abc
000000a0: b161 9e3c e245 563c 9b06 053b 5e3e 2b3c
000000b0: bc94 f33b f6da 04ba ed96 21bc a6de 0ebc
000000c0: 507e d9bb 6590 72bc 1c92 d1bb 01e9 4e3c
000000d0: ae4d 0fbc 87f1 563c 1270 d23b 88c8 073c
000000e0: b7b0 143c fe7a 643b 646a 063b 6d0f 3ebb
000000f0: c8cd 81bb f494 653a cd78 acbb 2e8e 10bc

running_mean f4 [64]
0.40983346 0.0 0.0 0.33626634 0.0 0.0 0.3218738 0.0
0.64641875 0.46018553 1.1555947 0.0 0.0 0.0 0.0 0.7205794
0.0 0.0 0.0 0.0 0.0 0.0 0.39774024 0.320413
1.2774007 0.10353124 0.0 0.0 0.0 0.79359007 0.0 0.2417725
0.36467576 0.31206572 1.1331422 0.0 0.0 0.33546272 0.0 0.95340586
0.0 0.0 1.1528759 0.5158709 0.0 1.1754494 0.0 0.0
1.0035055 0.76848024 0.0 1.1492602 0.0 0.0 0.0 1.0999976
0.5789497 0.0 9.3492945e-21 0.0 1.738715 0.0 0.47609687 1.7382979
00000000: b1d5 d13e 0000 0000 0000 0000 1a2b ac3e
00000010: 0000 0000 0000 0000 a5cc a43e 0000 0000
00000020: b37b 253f 709d eb3e 87ea 933f 0000 0000
00000030: 0000 0000 0000 0000 0000 0000 e477 383f
00000040: 0000 0000 0000 0000 0000 0000 0000 0000
00000050: 0000 0000 0000 0000 9ca4 cb3e 2c0d a43e
00000060: de81 a33f 3008 d43d 0000 0000 0000 0000
00000070: 0000 0000 b828 4b3f 0000 0000 3693 773e
00000080: c8b6 ba3e 14c7 9f3e ce0a 913f 0000 0000
00000090: 0000 0000 c5c1 ab3e 0000 0000 6812 743f
000000a0: 0000 0000 0000 0000 7091 933f 1e10 043f
000000b0: 0000 0000 2075 963f 0000 0000 0000 0000
000000c0: de72 803f 1fbb 443f 0000 0000 f51a 933f
000000d0: 0000 0000 0000 0000 0000 0000 b9cc 8c3f
000000e0: 0c36 143f 0000 0000 6a9a 301e 0000 0000
000000f0: 378e de3f 0000 0000 f8c2 f33e 8c80 de3f

running_var f4 [64]
2.7091147e-16 3.5115488e-28 3.5115488e-28 3.5115488e-28 3.5115488e-28 3.5115488e-28 3.5115488e-28 3.5115488e-28
3.5115488e-28 3.5200116e-16 3.5115488e-28 3.5115488e-28 3.5115488e-28 3.5115488e-28 3.5115488e-28 3.5115488e-28
3.5115488e-28 3.5115488e-28 3.5115488e-28 3.5115488e-28 3.5115488e-28 3.5115488e-28 4.9602043e-23 3.5115488e-28
3.5115488e-28 1.4893835e-17 3.5115488e-28 3.5115488e-28 3.5115488e-28 9.890407e-28 3.5115488e-28 1.3997979e-16
3.5115488e-28 3.5115488e-28 3.5115488e-28 3.5115488e-28 3.5115488e-28 3.5115488e-28 3.5115488e-28 1.603124e-15
3.5115488e-28 3.5115488e-28 3.5115488e-28 3.5115488e-28 3.5115488e-28 3.5115488e-28 3.5115488e-28 3.5115488e-28
2.830695e-21 3.5115488e-28 3.5115488e-28 3.5115488e-28 3.5115488e-28 3.5115488e-28 3.5115488e-28 3.5115488e-28
3.5115488e-28 3.5115488e-28 3.5115488e-28 3.5115488e-28 4.3389957e-15 3.5115488e-28 2.4222498e-16 5.699746e-15
00000000: 7a2b 9c25 2392 de11 2392 de11 2392 de11
00000010: 2392 de11 2392 de11 2392 de11 2392 de11
00000020: 2392 de11 34ea ca25 2392 de11 2392 de11
00000030: 2392 de11 2392 de11 2392 de11 2392 de11
00000040: 2392 de11 2392 de11 2392 de11 2392 de11
00000050: 2392 de11 2392 de11 5bdc 6f1a 2392 de11
00000060: 2392 de11 135f 8923 2392 de11 2392 de11
00000070: 2392 de11 42b8 9c12 2392 de11 be62 2125
00000080: 2392 de11 2392 de11 2392 de11 2392 de11
00000090: 2392 de11 2392 de11 2392 de11 d608 e726
000000a0: 2392 de11 2392 de11 2392 de11 2392 de11
000000b0: 2392 de11 2392 de11 2392 de11 2392 de11
000000c0: 9be1 551d 2392 de11 2392 de11 2392 de11
000000d0: 2392 de11 2392 de11 2392 de11 2392 de11
000000e0: 2392 de11 2392 de11 2392 de11 2392 de11
000000f0: 2c54 9c27 2392 de11 19a2 8b25 e15a cd27

weight f4 [64, 2]
-0.20577288 -0.032949805 -0.53833157 0.41580093 0.36830002 -0.46699837 0.30043033 -0.08764322
-0.078041874 0.07629166 -0.5193924 0.08712262 -0.4555634 0.49174222 0.121575594 -0.2634381
0.67140603 -0.28590184 -0.6452591 -0.39599848 0.42413655 -0.1587106 -0.5059428 -0.7076187
-0.6572215 0.0017850809 0.32320774 -0.16935222 0.6742039 0.45146182 -0.42607364 0.35782152
-0.101896346 0.15740693 0.53848493 0.6692489 -0.1562891 -0.65332466 0.28521666 -0.35927123
-0.70082307 0.037465453 0.28450432 -0.46349823 0.23497973 0.3024938 0.09674424 -0.4969068
-0.053622454 -0.1512294 -0.48285562 0.21640441 -0.14782491 0.2589768 -0.17531602 0.2786763
0.56642926 0.19796415 -0.6298061 -0.5238401 -0.15177906 0.29050863 -0.54307795 -0.16608693
0.63592005 0.19859622 0.62585557 -0.45886052 -0.15614784 -0.45958313 -0.22505775 -0.32519037
0.14611186 0.58043724 -0.22005667 -0.4421552 0.019241393 -0.083753824 -0.64990395 -0.11216837
-0.44680557 0.5282284 0.14504814 0.32736248 -0.47937807 -0.39281148 -0.70293534 -0.34395662
0.3542097 0.11246399 0.43394986 -0.29838032 0.5444453 0.18456072 -0.022778273 -0.04454702
-0.11855436 0.592168 -0.54208225 0.38091955 -0.16813567 -0.33802617 0.6589863 0.18827832
-0.37537238 0.15815008 0.18751198 -0.2796235 0.0376662 -0.22609988 0.42357486 -0.20107555
0.56387144 0.6419733 0.29750085 0.2975954 0.035932302 -0.14768583 -0.39554572 -0.47964698
0.04587235 -0.62297916 0.35243547 0.6431997 0.068027936 -0.3528812 0.0687659 0.6387872
00000000: 20b6 52be 60f6 06bd 19d0 09bf dce3 d43e
00000010: d291 bc3e 691a efbe 01d2 993e 4a7e b3bd
00000020: 6bd4 9fbd cd3e 9c3d e6f6 04bf 586d b23d
00000030: 9b3f e9be a3c5 fb3e a0fc f83d 5ce1 86be
00000040: 44e1 2b3f ba61 92be b32f 25bf 50c0 cabe
00000050: 6d28 d93e 0885 22be 7885 01bf 8026 35bf
00000060: ab3f 28bf 60f9 e93a 7c7b a53e ab6a 2dbe
00000070: a098 2c3f 0126 e73e 5326 dabe 6234 b73e
00000080: 08af d0bd 482f 213e 26da 093f e553 2b3f
00000090: 400a 20be 4940 27bf eb07 923e 66f2 b7be
000000a0: 2469 33bf 6075 193d 8daa 913e a44f edbe
000000b0: 879e 703e 78e0 9a3e d821 c63d 916a febe
000000c0: 38a3 5bbd e1db 1abe da38 f7be 1e99 5d3e
000000d0: 6a5f 17be 9b98 843e 0b86 33be a9ae 8e3e
000000e0: 8201 113f 1db7 4a3e f93a 21bf 631a 06bf
000000f0: f86b 1bbe 8cbd 943e 2807 0bbf b112 2abe
00000100: a8cb 223f cf5c 4b3e 1238 203f c4ef eabe
00000110: 38e5 1fbe 7b4e ebbe 8a75 66be 5a7f a6be
00000120: 599e 153e 8997 143f 8956 61be 2b62 e2be
00000130: 20a0 9d3c 2087 abbd 1b60 26bf 88b8 e5bd
00000140: b3c3 e4be fa39 073f 8087 143e 0e9c a73e
00000150: 0b71 f5be 961e c9be 92f3 33bf 151b b0be
00000160: f95a b53e 8553 e63d ad2e de3e 4ec5 98be
00000170: c460 0b3f 7cfd 3c3e 8099 babc f076 36bd
00000180: a1cc f2bd 5298 173f e7c5 0abf e307 c33e
00000190: c22b 2cbe c411 adbe 53b3 283f 08cc 403e
000001a0: cf30 c0be 18f2 213e 2403 403e d02a 8fbe
000001b0: e047 1a3d ba86 67be cede d83e c0e6 4dbe
000001c0: e159 103f 5d58 243f 0852 983e 6d5e 983e
000001d0: c02d 133d f43a 17be f884 cabe 4a94 f5be
000001e0: a5e4 3b3d 907b 1fbf 6c72 b43e bca8 243f
000001f0: 3b52 8b3d d8ac b4be 23d5 8c3d 8f87 233f

bias f4 [64]
-0.04051602 0.6249874 -0.59325665 -0.18164504 0.64671046 -0.6714785 -0.29955715 -0.08816218
-0.06951822 0.4092724 0.31553274 0.21952355 0.6742447 -0.12292024 -0.45085195 -0.1500613
-0.5103292 0.52520776 0.07382576 0.3660514 -0.14599246 0.049202684 -0.31901368 -0.69253534
0.3976525 0.40424448 0.03500971 0.47729543 -0.12414576 -0.59677863 -0.37897527 0.44059715
-0.25286677 0.6182636 -0.5725543 0.30165598 0.70925856 0.11325751 -0.33631894 -0.08922839
-0.4040664 -0.5190645 -0.3463542 -0.5685247 0.19048564 0.21859528 0.68549913 -0.043261647
-0.34929693 0.13432474 0.06118737 -0.31934828 0.46047756 -0.42098877 -0.35941878 0.5725824
-0.042085096 0.27992716 -0.17431694 -0.62601405 0.32725483 0.2702325 0.64624435 0.62078655
00000000: 20f4 25bd 2dff 1f3f abdf 17bf 2801 3abe
00000010: d18e 253f 04e6 2bbf 8e5f 99be 5f8e b4bd
00000020: 925f 8ebd 278c d13e 828d a13e c8ca 603e
00000030: 4d9b 2c3f 9bbd fbbd 11d6 e6be aba9 19be
00000040: efa4 02bf 0474 063f f631 973d 176b bb3e
00000050: 0c7f 15be c188 493d c355 a3be ff49 31bf
00000060: 1c99 cb3e 22f9 ce3e 5766 0f3d 1160 f43e
00000070: 2240 febd 7cc6 18bf 0c09 c2be f395 e13e
00000080: c177 81be 8646 1e3f eb92 12bf a772 9a3e
00000090: f891 353f 8ef3 e73d ff31 acbe 60bd b6bd
000000a0: cbe1 cebe 69e1 04bf 5655 b1be d68a 11bf
000000b0: ab0e 433e 71d7 5f3e df7c 2f3f 2033 31bd
000000c0: 0cd7 b2be 6d8c 093e 9c9f 7a3d 9e81 a3be
000000d0: b7c3 eb3e d78b d7be bd05 b8be c394 123f
000000e0: 6c61 2cbd 9d52 8f3e 2480 32be 7542 20bf
000000f0: f28d a73e ea5b 8a3e 4570 253f deeb 1e3f

weight f4 [64]
1.0 0.9778046 1.0 1.0581948 1.0043255 1.0 1.0163265 1.0005616
0.9854002 0.994844 0.98901576 1.0007738 1.0108323 0.98067355 0.98929983 1.0413203
1.0 1.004754 1.0142165 1.001061 1.0 0.9944656 1.0285453 1.0
1.0057895 0.9717724 0.9996573 0.9974147 0.99021196 1.0 1.0 1.0031787
0.99483323 0.9771919 1.0 0.97416574 1.0145985 0.9858093 1.0 1.0
1.0051051 1.0 1.0 1.0 0.9801747 0.97439843 0.9751906 1.0
1.0036777 0.9971056 0.9849603 1.0047041 1.0039225 1.0 1.0 0.9890163
0.99026054 0.96682817 1.0 1.0 1.0057818 1.0001544 0.9765097 1.0030943
00000000: 0000 803f 6751 7a3f 0000 803f ed72 873f
00000010: bd8d 803f 0000 803f fd16 823f 6712 803f
00000020: 3043 7c3f 19ae 7e3f 2330 7d3f 5b19 803f
00000030: f462 813f 6c0d 7b3f c142 7d3f fc49 853f
00000040: 0000 803f c79b 803f d9d1 813f c422 803f
00000050: 0000 803f 4c95 7e3f 5fa7 833f 0000 803f
00000060: b6bd 803f 13c6 783f 8ae9 7f3f 9256 7f3f
00000070: 887e 7d3f 0000 803f 0000 803f 2968 803f
00000080: 64ad 7e3f 4029 7a3f 0000 803f ed62 793f
00000090: 5dde 813f 005e 7c3f 0000 803f 0000 803f
000000a0: 49a7 803f 0000 803f 0000 803f 0000 803f
000000b0: bbec 7a3f 2d72 793f 17a6 793f 0000 803f
000000c0: 8378 803f 5042 7f3f 5c26 7c3f 259a 803f
000000d0: 8880 803f 0000 803f 0000 803f 2c30 7d3f
000000e0: b781 7d3f 0d82 773f 0000 803f 0000 803f
000000f0: 75bd 803f 0f05 803f 8afc 793f 6565 803f

bias f4 [64]
-0.0031558727 0.009621097 0.0076744114 -0.0059900247 0.017741032 -0.0017655742 0.012538533 -0.010477448
0.005671137 0.012273929 -0.0024424335 0.039978262 0.0015248263 0.004883767 -0.0055043683 -0.026545815
0.005126152 -0.012222905 0.009602195 0.008711951 -0.0066525657 0.0075914534 0.0026694965 0.005808242
0.015764553 -0.0019613076 -0.029613016 0.021387275 -0.007017375 -0.020028641 0.008048232 -0.025405945
0.009833621 0.004133423 0.0017322146 -0.0054775146 0.016537145 0.0008433768 -0.033298336 0.012556128
-0.0033502055 -0.013188139 0.007703539 -0.007746213 0.004484357 0.0049394667 -0.02363466 -0.010920147
0.012748881 -0.024531154 0.005435354 -0.015486782 0.014377958 0.011586105 0.025622971 -0.010384116
-0.0040106443 -0.008393312 -0.005312743 -0.00093462534 -0.008833671 -0.013277961 -0.009535318 -0.014692611
00000000: c2d2 4ebb cea1 1d3c a179 fb3b f847 c4bb
00000010: a455 913c d76a e7ba 6b6e 4d3c 9aa9 2bbc
00000020: f2d4 b93b 9718 493c 3c11 20bb 3fc0 233d
00000030: aedc c73a 0208 a03b fd5d b4bb 9c76 d9bc
00000040: 48f9 a73b 9442 48bc 8652 1d3c 92bc 0e3c
00000050: c4fd d9bb bac1 f83b b8f2 2e3b 1153 be3b
00000060: aa24 813c 4889 00bb ff96 f2bc 5e34 af3c
00000070: 02f2 e5bb 1b13 a4bc bbdc 033c 2120 d0bc
00000080: 321d 213c aa71 873b 7a0b e33a b97c b3bb
00000090: e878 873c 0f16 5d3a d663 08bd 38b8 4d3c
000000a0: 1f8f 5bbb 1013 58bc f86d fc3b f2d3 fdbb
000000b0: 83f1 923b 40db a13b 799d c1bc 6bea 32bc
000000c0: afe0 503c 8ff5 c8bc 0e1b b23b 46bc 7dbc
000000d0: 8791 6b3c a6d3 3d3c 44e7 d13c 2422 2abc
000000e0: b96b 83bb 1a84 09bc 8516 aebb a501 75ba
000000f0: 1abb 10bc ce8b 59bc 063a 1cbc 47b9 70bc

running_mean f4 [64]
0.0 0.55335534 0.0 0.0067618135 0.6435086 0.0 0.0020102412 0.00012464884
0.14968696 0.039884046 0.4502232 0.004324966 0.35351834 0.018340759 0.13220736 0.004482796
0.0 1.0980664 0.0010450613 0.33959502 0.0 0.041467838 0.01569716 0.0
0.30137962 0.26882672 0.08704121 0.5201416 0.24597909 0.0 0.0 0.11927004
0.1650471 0.71246344 0.0 0.06523439 1.0492299 0.0024709038 0.0 0.0
0.00077652343 0.0 0.0 0.0 0.41543144 0.29342657 1.0371914 0.0
0.016627077 0.08867929 0.0008873745 0.122140765 0.34969154 0.0 0.0 0.6870766
0.52998817 0.5626519 0.0 0.0 0.0995784 0.73946786 0.5164553 0.9493215
00000000: 0000 0000 b2a8 0d3f 0000 0000 3492 dd3b
00000010: fbbc 243f 0000 0000 40be 033b 2bb4 0239
00000020: 8a47 193e 745d 233d a883 e63e 72b8 8d3b
00000030: 5b00 b53e 5c3f 963c 5e61 073e 6be4 923b
00000040: 0000 0000 718d 8c3f 70fa 883a 66df ad3e
00000050: 0000 0000 2eda 293d 5597 803c 0000 0000
00000060: 6e4e 9a3e a8a3 893e a942 b23d 0028 053f
00000070: f1e1 7b3e 0000 0000 0000 0000 da43 f43d
00000080: 1b02 293e 0164 363f 0000 0000 9c99 853d
00000090: 2a4d 863f e3ee 213b 0000 0000 0000 0000
000000a0: 9b8f 4b3a 0000 0000 0000 0000 0000 0000
000000b0: 6eb3 d43e 023c 963e b0c2 843f 0000 0000
000000c0: 8235 883c 7d9d b53d b29e 683a f024 fa3d
000000d0: c50a b33e 0000 0000 0000 0000 41e4 2f3f
000000e0: 4ead 073f f409 103f 0000 0000 0000 0000
000000f0: c3ef cb3d c44d 3d3f 6a36 043f bc06 733f

running_var f4 [64]
6e-45 0.027190955 6e-45 0.00040682626 0.0007052459 6e-45 0.0002657773 1.6959469e-06
0.020713177 0.005718026 0.011983552 0.00051672367 0.02567466 0.0014789843 0.022242745 0.00044881573
6e-45 0.04760661 4.4265264e-05 0.012579583 6e-45 0.0047086864 0.0013510236 6e-45
0.0016734225 0.015985465 0.004324172 0.0065494394 0.021111524 6e-45 6e-45 0.012287914
0.020365642 0.035339743 6e-45 0.0049913935 0.023222232 0.00015482238 6e-45 6e-45
9.647828e-05 6e-45 6e-45 6e-45 0.0084671285 0.01591517 0.02028635 6e-45
0.0018183676 0.011391992 2.9314278e-05 0.016582632 0.009685384 6e-45 6e-45 0.012847609
0.046990234 0.0113510545 6e-45 6e-45 0.0120719075 0.03491853 0.008100066 0.02658849
00000000: 0400 0000 91bf de3c 0400 0000 4c4b d539
00000010: 40e0 383a 0400 0000 0658 8b39 4ba0 e335
00000020: aeae a93c 475e bb3b a956 443c bd74 073a
00000030: aa53 d23c 7ada c13a 6b36 b63c 074f eb39
00000040: 0400 0000 26ff 423d 77a9 3938 981a 4e3c
00000050: 0400 0000 534b 9a3b d414 b13a 0400 0000
00000060: be56 db3a f3f3 823c c9b1 8d3b ae9c d63b
00000070: 13f2 ac3c 0400 0000 0400 0000 3f53 493c
00000080: d9d5 a63c 68c0 103d 0400 0000 d88e a33b
00000090: 8d3c be3c d157 2239 0400 0000 0400 0000
000000a0: 6254 ca38 0400 0000 0400 0000 0400 0000
000000b0: b6b9 0a3c 8860 823c 8f2f a63c 0400 0000
000000c0: 4b56 ee3a 7aa5 3a3c efe7 f537 4dd8 873c
000000d0: 72af 1e3c 0400 0000 0400 0000 c77e 523c
000000e0: d578 403d c6f9 393c 0400 0000 0400 0000
000000f0: 40c9 453c bc06 0f3d 24b6 043c 1bd0 d93c

weight f4 [64, 128]
-0.11552189 -0.07952394 0.1028133 -0.069846734 0.005647963 0.030751718 -0.00059100945 -0.10376092
0.07241005 0.018694311 -0.03760612 0.03679342 -0.07892326 0.015819257 -0.039299745 0.03267631
-0.062682316 -0.025181504 0.047969837 0.00544567 -0.043358047 0.03715307 0.011198997 -0.031085465
-0.004102616 -0.010621248 0.038957562 -0.08241944 -0.0463766 -0.12557831 0.014444953 -0.042334244
0.07079008 -0.051942788 -0.022451254 0.07654577 -0.005764832 -0.058410097 -0.07501331 0.05029599
-0.016724937 0.01775376 0.026531547 0.03638561 0.008778877 0.0029173058 -0.023519995 -0.019037709
-0.08027453 -0.07238784 0.0028640516 0.0760647 -0.081118055 0.014953383 0.102941915 0.044992797
-0.010050157 -0.03943039 -0.03717304 0.009400822 0.016737144 -0.071851395 0.014454414 -0.0003184757
-0.082398504 -0.06570731 -0.053705826 0.05860654 -0.047563676 -0.060370512 -0.03770355 -0.045836084
0.11470735 0.07339228 0.06062041 -0.05405755 -0.12364776 0.014582374 -0.11182432 0.05073479
-0.0957491 0.02894616 0.010889579 -0.06571775 -0.046602547 0.02521633 -0.07336543 0.09701722
0.029532982 -0.026145304 0.045221306 0.044802412 -0.0127963545 0.11851541 -0.05129384 -0.002398437
-0.061951697 -0.016510747 0.09118634 -0.028642414 -0.0584998 0.0782607 0.066034876 0.031277142
0.08558307 0.069777794 0.013047764 -0.022197986 0.057043046 0.07588685 -0.046117682 0.021720279
-0.03255005 0.02426684 -0.10247879 -0.025987482 -0.067156896 -0.014201089 -0.079829164 0.045694966
0.12588032 -0.021549204 -0.061310954 -0.035646632 -0.04550321 0.033976313 -0.029748868 -0.030699078
0.036868364 -0.022285344 -0.020249246 0.026574086 -0.041925095 0.049516946 0.05782929 0.039336715
-0.0507498 0.07351302 -0.01390302 0.02674556 0.08177436 -0.08654715 -0.06576936 0.03986294
0.047195885 0.0629238 -0.055730525 0.07602766 0.009429276 0.039888855 0.0146712065 -0.058763113
-0.04594872 0.010341818 0.024911659 0.031109773 0.020988807 0.059667118 0.08476272 0.020911738
-0.03359758 0.08989407 0.010632196 0.0048803138 0.037712578 0.058571085 -0.08004472 -0.043588694
-0.04231531 0.020916823 0.05640268 0.04321454 0.022901904 0.050533537 -0.060325477 0.03274776
-0.01582734 -0.018675303 -0.053662322 -0.059968423 0.06524308 -0.057041436 -0.014549062 0.03874651
-0.008827624 -0.024533266 0.046297923 0.042213824 -0.045816507 0.015698392 -0.0072197453 -0.06646948
-0.07538439 0.0070378953 -0.06613693 0.018552318 -0.02824117 0.07978181 0.010479257 -0.0059301015
-0.063418046 -0.00956316 -0.055215243 -0.07702783 0.07625244 0.039675508 -0.05134441 -0.012365423
0.051965717 0.037257075 0.0746336 -0.022845834 0.03875764 -0.00041440222 0.07488639 0.05050093
-0.03426215 -0.054121282 -0.06966934 -0.03535038 -0.015708303 -0.07272566 -0.0307452 0.08450908
0.05952882 -0.0100968825 0.0021408736 0.041391294 0.07254133 0.033966184 0.03197058 0.06803643
0.029087998 0.00036683708 0.04046457 0.031423695 0.003138662 0.047624905 -0.057437107 -0.039793957
-0.062482633 0.085258335 0.013144774 -0.030419858 0.057799164 0.025073571 0.0065883067 -0.00065240386
0.044335123 0.051552746 0.039608527 0.030894453 -0.04743563 -0.046130516 -0.03303074 -0.030944811
00000000: be96 ecbd 73dd a2bd c88f d23d ce0b 8fbd
00000010: 8c12 b93b 07eb fb3c f9ed 1aba 9b80 d4bd
00000020: b84b 943d d024 993c e008 1abd b2b4 163d
00000030: 85a2 a1bd 6397 813c c5f8 20bd 98d7 053d
00000040: 965f 80bd 7149 cebc 057c 443d 9771 b23b
00000050: 3598 31bd d12d 183d ff7b 373c f2a6 febc
00000060: 3d6f 86bb be04 2ebc f791 1f3d 86cb a8bd
00000070: 64f5 3dbd 9a97 00be 86aa 6c3c ac66 2dbd
00000080: 64fa 903d f6c1 54bd b1eb b7bc 07c4 9c3d
00000090: eae6 bcbb 6d3f 6fbd 94a0 99bd 2b03 4e3d
000000a0: bc02 89bc 5570 913c b058 d93c 1409 153d
000000b0: 47d5 0f3c 4530 3f3b 01ad c0bc f8f4 9bbc
000000c0: f966 a4bd 1340 94bd d0b2 3b3b cfc7 9b3d
000000d0: 3921 a6bd 09ff 743c 36d3 d23d 5e4a 383d
000000e0: 6aa9 24bc c381 21bd c242 18bd e805 1a3c
000000f0: 561c 893c d326 93bd 35d2 6c3c 16f9 a6b9
00000100: 8cc0 a8bd 8e91 86bd a4fa 5bbd 690d 703d
00000110: 21d2 42bd 1247 77bd 0a6f 1abd 9ebe 3bbd
00000120: b0eb ea3d b14e 963d 1b4d 783d 736b 5dbd
00000130: 093b fdbd e9ea 6e3c 2604 e5bd 48cf 4f3d
00000140: 1b18 c4bd 7f20 ed3c 346a 323c 0797 86bd
00000150: 50e2 3ebd 7a92 ce3c 9d40 96bd f7b0 c63d
00000160: 27ef f13c ad2e d6bc fa39 393d bc82 373d
00000170: cda7 51bc 35b8 f23d 7d19 52bd 182f 1dbb
00000180: 10c1 7dbd 8c41 87bc e7bf ba3d 7fa3 eabc
00000190: 7c9d 6fbd 2547 a03d 4b3d 873d 761c 003d
000001a0: 2d46 af3d a9e7 8e3d 4ac6 553c 8dd8 b5bc
000001b0: f8a5 693d 916a 9b3d e5e5 3cbd baee b13c
000001c0: 3453 05bd 41cb c63c 66e0 d1bd b3e3 d4bc
000001d0: 8e89 89bd afab 68bc 797d a3bd a52a 3b3d
000001e0: c5e6 003e f587 b0bc 3221 7bbd 3402 12bd
000001f0: 9361 3abd bf2a 0b3d e6b3 f3bc a27c fbbc
00000200: 4803 173d c18f b6bc bfe1 a5bc e6b1 d93c
00000210: a6b9 2bbd 48d2 4a3d 68de 6c3d 891f 213d
00000220: 06df 4fbd ff8d 963d 7ec9 63bc 8119 db3c
00000230: 5179 a73d a23f b1bd 16b2 86bd 5247 233d
00000240: 7950 413d 31de 803d b145 64bd 64b4 9b3d
00000250: 407d 1a3c 7f62 233d 805f 703c 97b1 70bd
00000260: ba34 3cbd bb70 293c 8913 cc3c ecd9 fe3c
00000270: b8f0 ab3c 8265 743d 1498 ad3d 184f ab3c
00000280: 9e9d 09bd 621a b83d aa32 2e3c 0aeb 9f3b
00000290: 8178 1a3d 3ce8 6f3d 7cee a3bd 0f8a 32bd
000002a0: d252 2dbd c259 ab3c 7f06 673d bb01 313d
000002b0: c69c bb3c 41fc 4e3d d917 77bd 8422 063d
000002c0: 56a8 81bc f3fc 98bc 06cd 5bbd 73a1 75bd
000002d0: 2a9e 853d 48a4 69bd 305f 6ebc a9b4 1e3d
000002e0: bda1 10bc fdf9 c8bc e4a2 3d3d 67e8 2c3d
000002f0: 17aa 3bbd ea99 803c 9d93 ecbb 2721 88bd
00000300: 2263 9abd 259e e63b cc72 87bd 08fb 973c
00000310: 075a e7bc a564 a33d 31b1 2b3c 4c51 c2bb
00000320: 52e1 81bd cdae 1cbc 6129 62bd c4c0 9dbd
00000330: 3d2a 9c3d c982 223d 844e 52bd 5898 4abc
00000340: 01da 543d e09a 183d 80d9 983d 3027 bbbc
00000350: 55c0 1e3d 2044 d9b9 095e 993d 10da 4e3d
00000360: 7856 0cbd 47ae 5dbd cdae 8ebd 8fcb 10bd
00000370: b3ae 80bc 31f1 94bd 5cdd fbbc 1913 ad3d
00000380: 7ed4 733d 656d 25bc e64d 0c3b eb89 293d
00000390: 8c90 943d 2020 0b3d 95f3 023d af56 8b3d
000003a0: f449 ee3c 0a54 c039 2dbe 253d 22b6 003d
000003b0: 03b2 4d3b 5512 433d 2c43 6bbd fdfe 22bd
000003c0: caed 7fbd ec9b ae3d 2e5d 573c 1133 f9bc
000003d0: d1be 6c3d 1767 cd3c b9e2 d73b 1506 2bba
000003e0: bf98 353d f928 533d 8d3c 223d 5d16 fd3c
000003f0: dd4b 42bd 5af3 3cbd 3e4b 07bd f97f fdbc

bias f4 [64]
-0.034927253 0.05305554 0.07328607 0.014404103 0.056907065 0.04912193 -0.065648474 -0.06467939
-0.033213716 0.011826623 0.067145206 0.07638311 0.056444686 0.00546027 0.1004616 0.024359522
0.025089875 0.0014994752 0.09299235 0.07347866 -0.07825513 0.0003947536 -0.04576363 -0.05057385
0.015416495 0.0038402092 0.072296076 -0.017776236 0.035305917 0.0011452462 0.009754421 -0.06560956
0.08334894 0.004396552 0.0999675 0.09161551 -0.012989732 -0.010844862 -0.07038843 0.06979142
0.008412499 0.014472023 -0.052502856 -0.08045639 0.024194326 0.020356277 0.0035665391 0.017805872
0.0186838 -0.009061561 -0.005421655 0.02947781 0.010180431 -0.06858232 -0.04998545 -0.036035214
-0.04879545 0.047524072 0.00896474 -0.031145163 -0.01942518 0.0411877 -0.009833852 0.048383087
00000000: e10f 0fbd c450 593d 0217 963d 30ff 6b3c
00000010: 6217 693d 1434 493d b572 86bd a176 84bd
00000020: 1b0b 08bd 74c4 413c 6d83 893d bf6e 9c3d
00000030: 8b32 673d 11ec b23b d0be cd3d 9f8d c73c
00000040: 4889 cd3c 0a8a c43a c672 be3d fb7b 963d
00000050: 3a44 a0bd eef6 ce39 a572 3bbd 8626 4fbd
00000060: 7795 7c3c 05ac 7b3b f70f 943d 789f 91bc
00000070: f09c 103d 161c 963a 02d1 1f3c 4e5e 86bd
00000080: d9b2 aa3d f410 903b c3bb cc3d eaa0 bb3d
00000090: e3d2 54bc a6ae 31bc cf27 90bd ceee 8e3d
000000a0: 94d4 093c 101c 6d3c 3c0d 57bd 52c6 a4bd
000000b0: 2e33 c63c 35c2 a63c 99bc 693b 9fdd 913c
000000c0: c50e 993c f176 14bc 23a8 b1bb 737b f13c
000000d0: d3cb 263c e374 8cbd 8bbd 4cbd a999 13bd
000000e0: bddd 47bd 9aa8 423d d8e0 123c 2424 ffbc
000000f0: 8e21 9fbc 6fb4 283d 2a1e 21bc 582d 463d

weight f4 [64, 64]
-0.081397235 0.0003492471 0.091708414 0.057479404 -0.04512691 0.120986156 -0.096401654 0.06956953
0.028225591 -0.09687352 -0.045225527 -0.008801559 0.02988053 0.013813135 0.06216469 0.0043812464
0.10859679 -0.054241322 -0.028685559 0.07681366 -0.027210092 -0.071639515 -0.10795182 0.027290072
0.10043932 0.020177025 -0.09568411 -0.0638207 -0.023280034 -0.048539955 0.068619974 0.08781351
-0.022604577 -0.055605 -0.13863015 -0.05493967 -0.00208709 0.106503665 0.063351184 -0.106695525
0.07028067 0.0019653342 -0.036019575 0.09640481 0.038423162 -0.01941264 -0.035819493 -0.028111385
-0.08821453 -0.1312278 -0.0826648 -0.0041596005 -0.10384046 -0.10154358 0.028382646 0.09623925
0.06520149 0.028043866 0.10806874 -0.024768423 -0.092096046 -0.11999682 0.008163844 -0.072241955
-0.06320675 0.01857702 -0.070194796 0.056305163 0.0035511632 0.029242488 -0.034872662 -0.08974988
0.030489841 -0.068888545 0.12329092 -0.06507115 0.00904556 0.09901885 -0.07447501 -0.04964386
0.03763386 0.035125315 0.08164907 0.07746396 0.07797452 0.005245043 -0.09574366 0.055588603
-0.10912996 -0.07424154 0.09180123 0.013679093 -0.065125234 -0.11073693 0.0054783574 0.058957037
0.08516542 0.037747838 0.10642991 0.01358014 0.044659015 -0.07057352 -0.09355728 0.12180181
0.08036694 -0.115921475 -0.067275986 0.08359184 0.11656087 0.026041836 0.047784694 0.12515607
-0.059748817 -0.09119197 -0.067021415 -0.07500791 -0.08677425 0.037908006 0.10118435 0.057782
-0.11173992 0.08911144 0.05938481 -0.009731532 -0.08679405 0.046552684 0.10494893 -0.051760484
0.06794112 0.123896144 -0.053930536 0.06421638 0.13698179 -0.027601518 -0.056402836 -0.015197751
0.063130654 0.083347596 -0.11156853 -0.049529377 0.061407954 0.0052863513 0.11038162 -0.10059796
-0.016875634 0.12238919 0.120485134 0.03378201 0.009272394 -0.02186029 0.026218133 0.07599295
0.08764028 0.11463128 -0.098101825 0.033967413 -0.08881548 0.1040973 0.055796385 -0.03455418
-0.02655221 0.054591842 0.10700704 -0.013838813 0.068007104 -0.05897782 -0.03209046 -0.03687188
-0.011974787 0.06645483 -0.11524033 -0.073273644 0.00033388892 0.12364098 0.059533246 -0.094888605
-0.03096526 -0.06394211 0.04804334 -0.09899962 -0.034112487 -0.037817694 -0.013491868 0.018887065
0.034297325 0.042963907 0.043767344 0.12135241 0.036453497 -0.10174844 0.024996255 -0.014130787
0.0039359005 -0.111979365 0.09712064 -0.0034822393 0.0206361 0.12781833 0.059100877 -0.048547804
-0.11014656 -0.10953141 0.12119947 -0.12469867 -0.023273148 -0.11204499 -0.072249666 0.10951774
-0.103724346 -0.094386965 0.044119064 -0.0012985122 -0.037823513 -0.05208156 0.115438916 -0.10815372
0.08229196 -0.103991665 -0.06952131 0.07403404 0.11570252 -0.051799465 -0.037143424 0.08890236
-0.015792657 -0.0327167 -0.0746572 0.06275188 0.047331516 -0.0068982164 -0.026648298 0.08497996
-0.10173122 0.061196588 0.016847765 0.04758145 -0.04896677 -0.06212978 -0.07995845 0.018645093
-0.0027415163 -0.065903075 -0.020985097 -0.09212142 -0.01053145 0.1125619 -0.08047087 0.031745538
0.08101707 0.009852384 -0.026157418 0.028859897 0.13138767 0.06336396 0.054985996 -0.066336535
00000000: 98b3 a6bd 271b b739 9fd1 bb3d 866f 6b3d
00000010: ffd6 38bd 97c7 f73d 3b6e c5bd 787a 8e3d
00000020: 5b39 e73c a065 c6bd 673e 39bd 6a34 10bc
00000030: 03c8 f43c 7d50 623c 67a0 7e3d 8f90 8f3b
00000040: fe67 de3d 262c 5ebd fafd eabc 7b50 9d3d
00000050: b3e7 debc bdb7 92bd d815 ddbd 6e8f df3c
00000060: 21b3 cd3d 4a4a a53c 08f6 c3bd 6db4 82bd
00000070: c5b5 bebc d5d1 46bd a188 8c3d 92d7 b33d
00000080: 3c2d b9bc 12c2 63bd 10f5 0dbe 6b08 61bd
00000090: 8fc7 08bb 981e da3d 44be 813d 2f83 dabd
000000a0: 50ef 8f3d d6cc 003b 4389 13bd e36f c53d
000000b0: 9b61 1d3d 4207 9fbc 76b7 12bd d949 e6bc
000000c0: d2a9 b4bd 9560 06be 2a4c a9bd 424d 88bb
000000d0: 4faa d4bd 15f6 cfbd b982 e83c 1519 c53d
000000e0: 5c88 853d 40bc e53c 2553 dd3d 26e7 cabc
000000f0: da9c bcbd e5c0 f5bd a5c1 053c 97f3 93bd
00000100: 8a72 81bd d62e 983c 4ac2 8fbd 3ea0 663d
00000110: a2ba 683b f18d ef3c a3d6 0ebd c9ce b7bd
00000120: d5c5 f93c 7015 8dbd f37f fc3d 0644 85bd
00000130: d433 143c 65ca ca3d 5b86 98bd 5c57 4bbd
00000140: f625 1a3d 90df 0f3d a137 a73d 6da5 9e3d
00000150: 1bb1 9f3d 9cde ab3b 4115 c4bd e0b0 633d
00000160: 877f dfbd f30b 98bd 4902 bc3d 461e 603c
00000170: 6160 85bd 0bca e2bd cb83 b33b ef7c 713d
00000180: 356b ae3d 7a9d 1a3d edf7 d93d 3c7f 5e3c
00000190: 5fec 363d da88 90bd f69a bfbd 3a73 f93d
000001a0: 6c97 a43d 3d68 edbd fec7 89bd 3332 ab3d
000001b0: 77b7 ee3d b055 d53c e2b9 433d ea28 003e
000001c0: 2dbb 74bd dbc2 babd 8642 89bd bf9d 99bd
000001d0: b3b6 b1bd 6d45 1b3d be39 cf3d d2ac 6c3d
000001e0: e6d7 e4bd 0f80 b63d 7d3d 733d 0171 1fbc
000001f0: 14c1 b1bd 07ae 3e3d 77ef d63d cd02 54bd
00000200: b724 8b3d 43bd fd3d 44e6 5cbd e183 833d
00000210: f444 0c3e 941c e2bc a906 67bd fdff 78bc
00000220: a54a 813d 25b2 aa3d 0b7e e4bd 51df 4abd
00000230: e886 7b3d 2139 ad3b c20f e23d 4e06 cebd
00000240: c53e 8abc 2fa7 fa3d e9c0 f63d 015f 0a3d
00000250: 3deb 173c 5a14 b3bc 69c7 d63c 31a2 9b3d
00000260: bf7c b33d cec3 ea3d 9ce9 c8bd 6a21 0b3d
00000270: e4e4 b5bd f730 d53d c08a 643d af88 0dbd
00000280: 0584 d9bc b29b 5f3d 8226 db3d 30bc 62bc
00000290: 4f47 8b3d ba92 71bd 4971 03bd f806 17bd
000002a0: e631 44bc 7819 883d 1f03 ecbd 7e10 96bd
000002b0: d00d af39 7b37 fd3d 22d9 733d f554 c2bd
000002c0: dbaa fdbc 15f4 82bd 18c9 443d 50c0 cabd
000002d0: 89b9 0bbd bae6 1abd ff0c 5dbc 0cb9 9a3c
000002e0: 5a7b 0c3d ecfa 2f3d 6345 333d 9d87 f83d
000002f0: 4350 153d 7c61 d0bd f2c4 cc3c d184 67bc
00000300: baf8 803b 7055 e5bd 30e7 c63d 4836 64bb
00000310: 0a0d a93c cfe2 023e c313 723d 10da 46bd
00000320: 8594 e1bd 0152 e0bd 6d37 f83d 0462 ffbd
00000330: 54a7 bebc d877 e5bd a2f7 93bd d64a e03d
00000340: 6e6d d4bd f44d c1bd 31b6 343d d732 aaba
00000350: d4ec 1abd 7953 55bd 3d6b ec3d b37f ddbd
00000360: b088 a83d 95f9 d4bd 3061 8ebd 299f 973d
00000370: 71f5 ec3d ad2b 54bd b423 18bd 7112 b63d
00000380: 9a5f 81bc f201 06bd e0e5 98bd 0f84 803d
00000390: b1de 413d 6f0a e2bb 884d dabc f909 ae3d
000003a0: 7558 d0bd 46a9 7a3d 5304 8a3c c4e4 423d
000003b0: 6191 48bd cc7b 7ebd 41c1 a3bd 98bd 983c
000003c0: 03ab 33bb 31f8 86bd f0e8 abbc 28aa bcbd
000003d0: 1a8c 2cbc da86 e63d e9cd a4bd 9c07 023d
000003e0: 47ec a53d e56b 213c 1548 d6bc 976b ec3c
000003f0: 7d8a 063e f7c4 813d ff38 613d 73db 87bd

bias f4 [64]
-0.029103238 0.084506184 0.047803365 0.024767222 0.1092894 0.04354138 -0.01011811 -0.08101071
0.12872043 0.065345906 0.027458759 -0.0042481413 0.083837084 0.054068066 0.057650883 -0.08645388
-0.10464778 -0.054756146 -0.04898925 -0.077878624 0.11823311 -0.11671754 0.11674029 0.030892277
-0.08276293 -0.071601324 -0.013200476 -0.04136208 -0.068721704 0.07247477 -0.031919155 -0.020081649
0.017131034 0.013590859 -0.027250899 0.058228903 -0.11227945 0.016419468 0.05734652 0.10130972
0.030321842 0.07772708 0.046059556 -0.0035192189 0.101653576 0.11352596 0.052094348 0.058107298
-0.09275883 -0.08311039 -0.012709669 -0.0146254385 -0.0695637 0.10532051 0.03309195 -0.049080435
-0.08077029 -0.12695776 0.092306346 -0.025016828 -0.08771218 -0.06155088 0.094271675 -0.06989423
00000000: ea69 eebc 9411 ad3d 76cd 433d a1e4 ca3c
00000010: 1fd3 df3d 7258 323d 6ec6 25bc f1e8 a5bd
00000020: 4acf 033e 13d4 853d 31f1 e03c fe33 8bbb
00000030: c7b2 ab3d 7a76 5d3d 5523 6c3d bb0e b1bd
00000040: 9351 d6bd fb47 60bd f4a8 48bd d47e 9fbd
00000050: 3324 f23d 9b09 efbd 8815 ef3d cd11 fd3c
00000060: 9c7f a9bd b7a3 92bd cf46 58bc 496b 29bd
00000070: f7bd 8cbd a76d 943d a9bd 02bd 4582 a4bc
00000080: 6256 8c3c 32ac 5e3c 473d dfbc 6e81 6e3d
00000090: c5f2 e5bd 1f82 863c 2fe4 6a3d 787b cf3d
000000a0: 8365 f83c 602f 9f3d f2a8 3c3d b2a2 66bb
000000b0: c02f d03d 4c80 e83d e260 553d eb01 6e3d
000000c0: 57f8 bdbd c835 aabd 373c 50bc 899f 6fbc
000000d0: 6a77 8ebd 48b2 d73d 6d8b 073d 9108 49bd
000000e0: e56a a5bd 3701 02be 1c0b bd3d 17f0 ccbc
000000f0: 72a2 b3bd c71c 7cbd 8211 c13d b524 8fbd

weight f4 [64, 64]
-0.038509946 0.03823678 -0.08904078 -0.028820919 0.04868903 -0.07953002 0.09383711 -0.073900126
0.03859202 0.030488996 -0.0677011 -0.09473245 0.0892447 0.0191369 -0.12432336 -0.09068511
0.06356418 -0.057760842 -0.043630674 0.070065334 0.07649814 0.064706296 -0.031727728 -0.09135806
0.0061447127 -0.008977397 0.095742315 0.008967888 0.108801655 0.11912141 -0.010525043 0.06410056
0.021834921 -0.12248883 0.14177813 -0.10561197 -0.04083719 -0.030669278 0.011569082 -0.07846161
0.046895143 -0.10526519 -0.05369775 0.051371742 -0.09861428 -0.027618116 0.06465451 -0.036491293
0.11012189 -0.08371734 0.08821184 -0.03808674 0.055077836 0.11196058 0.021636441 0.052627094
0.058300853 0.11080538 -0.12317894 -0.12318426 0.0072160466 0.10660536 0.10139615 -0.019655634
-0.012982593 -0.07538116 0.050735936 -0.10417315 -0.0031370372 -0.020601107 -0.048071045 -0.07948766
-0.04241785 -0.041456517 -0.050436452 0.107195266 0.08711547 -0.049524397 -0.1415983 0.10443206
-0.09154978 -0.024398075 0.032570537 0.076818526 -0.07476184 0.082737036 0.06783529 0.05481442
0.0882163 0.0420587 -0.044518128 -0.14481078 0.0374635 0.097515725 0.021584317 0.0072140973
-0.09847405 -0.045602605 -0.05535242 -0.13643084 -0.07556196 -0.109163016 -0.10119197 0.04046557
0.02499535 0.025345698 0.07821097 0.021080963 -0.09973931 -0.051534854 -0.04812933 -0.14247528
0.09901616 0.0054990947 0.057235297 0.09192996 -0.043193903 0.03137409 0.03856518 -0.07342595
0.103288144 0.08897951 -0.07098128 -0.06788042 0.014275323 -0.07092559 -0.0049289465 -0.040896073
-0.102788575 -0.11382257 0.00499198 -0.040532306 -0.06129145 0.056690015 -0.07574063 -0.071573615
-0.05153787 -0.006748117 0.06590115 0.02347706 0.075041726 -0.09480343 0.033120673 -0.04290552
0.026322566 0.061255116 -0.034157656 0.08381549 -0.021828461 -0.07243084 0.042848777 -0.06697136
-0.12710464 -0.04090534 0.12512393 0.08365036 0.047257368 -0.08914184 0.12978567 0.12503968
0.11161513 -0.038961332 -0.113419265 0.038092487 -0.00214895 -0.097433686 0.03842937 0.13866258
-0.08960976 0.011380481 -0.019942833 -0.0958509 0.013136778 -0.04744569 0.1178714 0.041573163
-0.06421041 0.106373906 -0.018608177 -0.038680915 0.05578632 -0.09069064 0.0676511 0.11248174
-0.030947007 0.0072180093 -0.07331631 0.106314614 -0.032397084 -0.015092147 -0.0799997 0.11776405
-0.03359349 -0.0030363738 -0.041550253 0.054577246 0.03862269 0.09317444 -0.110750906 0.08297965
-0.10715782 -0.12768121 0.07426196 -0.08427344 0.064171135 -0.05803113 -0.10951472 0.021747962
0.030749485 0.091550715 -0.076807186 -0.12464759 -0.0038926832 0.072250076 0.055253293 0.08273159
0.042720154 -0.1187225 0.100634955 -0.10015091 -0.07798919 -0.004354617 -0.13492216 0.09013786
-0.09286153 -0.06889141 0.06337826 0.049476173 0.04523656 -0.1415379 -0.10830952 -0.119844444
0.009867741 0.025308242 0.10685121 -0.108341485 0.110303104 -0.10023943 0.09813457 0.07243795
-0.060143843 0.0110647995 0.031430293 0.008399279 -0.019411447 -0.07382795 -0.033026088 0.116411865
-0.05817625 0.031225253 -0.07398901 0.042000197 0.054717712 0.07164274 -0.026390474 0.024676872
00000000: 9bbc 1dbd 2b9e 1c3d 035b b6bd d919 ecbc
00000010: 266e 473d a3e0 a2bd ac2d c03d f358 97bd
00000020: aa12 1e3d 0fc4 f93c e0a6 8abd 1603 c2bd
00000030: edc5 b63d fdc4 9c3c 3f9d febd 1db9 b9bd
00000040: f02d 823d a296 6cbd 14b6 32bd 6a7e 8f3d
00000050: 0fab 9c3d bc84 843d eff4 01bd ef19 bbbd
00000060: 9659 c93b ef15 13bc 8c14 c43d 0cee 123c
00000070: 67d3 de3d edf5 f33d 3b71 2cbc 2847 833d
00000080: 26df b23c 6cdb fabd 492e 113e 174b d8bd
00000090: e644 27bd 233e fbbc 3f8c 3d3c 7bb0 a0bd
000000a0: 1f15 403d 4795 d7bd 2cf2 5bbd 2d6b 523d
000000b0: 49f6 c9bd 633f e2bc 9569 843d e577 15bd
000000c0: 9687 e13d ff73 abbd 69a8 b43d d700 1cbd
000000d0: 4c99 613d 974b e53d e83e b13c 828f 573d
000000e0: e0cc 6e3d eeed e23d 3d45 fcbd 0848 fcbd
000000f0: 9674 ec3b e953 da3d c9a8 cf3d da04 a1bc
00000100: f1b4 54bc 7061 9abd 7cd0 4f3d bc58 d5bd
00000110: c096 4dbb a7c3 a8bc 25e6 44bd 6dca a2bd
00000120: 57be 2dbd 4fce 29bd 7496 4ebd 3189 db3d
00000130: 9869 b23d 18da 4abd 25ff 10be 7ae0 d53d
00000140: 737e bbbd 79de c7bc af68 053d 0853 9d3d
00000150: bc1c 99bd 0972 a93d 3bed 8a3d 1685 603d
00000160: bfaa b43d be45 2c3d a458 36bd 4749 14be
00000170: 5473 193d 53b6 c73d 98d1 b03c 3c64 ec3b
00000180: c3ac c9bd ccc9 3abd 38b9 62bd 87b4 0bbe
00000190: 3bc0 9abd dc90 dfbd bc3d cfbd 3abf 253d
000001a0: 0cc3 cc3c c8a1 cf3c 132d a03d fcb1 ac3c
000001b0: 2044 ccbd 3616 53bd 4323 45bd 0ae5 11be
000001c0: fcc8 ca3d c031 b43b 8f6f 6a3d c645 bc3d
000001d0: 17ec 30bd 1e82 003d 86f6 1d3d 5860 96bd
000001e0: bc88 d33d e43a b63d a25e 91bd e404 8bbd
000001f0: 0be3 693c 7041 91bd 0083 a1bb a482 27bd
00000200: d182 d2bd cf1b e9bd c393 a33b 3405 26bd
00000210: be0c 7bbd ca33 683d e71d 9bbd 3095 92bd
00000220: 6019 53bd 4f1f ddbb 2ff7 863d f752 c03c
00000230: 7aaf 993d 4d28 c2bd 8ba9 073d b3bd 2fbd
00000240: 6ca2 d73c a5e6 7a3d e6e8 0bbd 75a7 ab3d
00000250: 9ad1 b2bc 9f56 94bd 3382 2f3d 4828 89bd
00000260: b827 02be 5c8c 27bd 7d20 003e e150 ab3d
00000270: f190 413d ff8f b6bd 89e6 043e 670a 003e
00000280: 7996 e43d eb95 1fbd 5c48 e8bd de06 1c3d
00000290: 66d5 0cbb 508b c7bd 1d68 1d3d 90fd 0d3e
000002a0: 5285 b7bd 3275 3a3c 275f a3bc 7a4d c4bd
000002b0: a43b 573c 6956 42bd 9066 f13d 9f48 2a3d
000002c0: bf80 83bd 90da d93d 2d70 98bc e16f 1ebd
000002d0: 3280 643d 04bc b9bd a98c 8a3d d45c e63d
000002e0: 9484 fdbc 0d85 ec3b dd26 96bd 7abb d93d
000002f0: ceb2 04bd 0d45 77bc e2d6 a3bd 472e f13d
00000300: 5499 09bd e6fd 46bb 9930 2abd 648c 5f3d
00000310: d332 1e3d 3ed2 be3d 5fd1 e2bd 3cf1 a93d
00000320: 8f75 dbbd ddbe 02be a816 983d 8e97 acbd
00000330: 286c 833d 0db2 6dbd 4149 e0bd c828 b23c
00000340: 58e6 fb3c f17e bb3d 164d 9dbd 3c47 ffbd
00000350: 631c 7fbb d9f7 933d 4751 623d 2e6f a93d
00000360: 54fb 2e3d c824 f3bd b319 ce3d ec1b cdbd
00000370: ccb8 9fbd 2db1 8ebb 0929 0abe 339a b83d
00000380: 302e bebd f116 8dbd 76cc 813d 87a7 4a3d
00000390: f949 393d 50ef 10be 62d1 ddbd 0171 f5bd
000003a0: 4eac 213c 3b53 cf3c cfd4 da3d 24e2 ddbd
000003b0: 98e6 e13d 554a cdbd c7fa c83d 595a 943d
000003c0: 6459 76bd 2249 353c 0dbd 003d 219d 093c
000003d0: c104 9fbc 1c33 97bd 5d46 07bd 5869 ee3d
000003e0: 384a 6ebd 1acc ff3c 8d87 97bd 6608 2c3d
000003f0: ae1f 603d 6eb9 923d d630 d8bc 2727 ca3c
