hetgnn_model.pt (torch, 526881 bytes, 104 tensors)

weight f4 [64, 1]
00000000: b4fe 34bf e88d 75be 0dfa 3b3e 4c43 1fbe
00000010: c084 5a3e ac43 7f3f 4238 5fbf 58a5 06be
00000020: 4d49 193f be24 3cbf 6f31 433f 7465 27bf
00000030: 10e0 ebbe 0d56 363f 4008 6ebf c03a 69bf
00000040: 983c 0dbd d74e 24bd bb1c aa3e a40d 523f
00000050: 3ccb 2bbf 646b 2fbf 84b0 adbe 8815 f9be
00000060: 04da 9d3e fa94 08bf d487 ca3e a7fc 9e3e
00000070: 423d 4cbf 26fa 39bf d62a d2be 60d5 01bf
00000080: 43f1 adbe 03dd 033f 78a7 77bf d7ad 4f3f
00000090: 0827 653f 01fc b2bd 2f97 953e 9442 613f
000000a0: 68d4 04be 0ce2 14bf 5c2e 343f dc0d b6bd
000000b0: b8ec 9cbe f017 b93d a0ff 7b3e 7086 c6be
000000c0: aa3a 3bbf c413 9abe 92de 833c 7251 31bf
000000d0: 4cb3 443f 7776 7e3e e54a 563e e83b 12bf
000000e0: 009c 28bb b8ca 6d3e b798 913e 8c63 9ebe
000000f0: 3814 40be 0846 5f3e d98a fabe 8b81 143e
-0.70701146 -0.23979914 0.18357106 -0.15553015 0.21339703 0.99712634 -0.8719522 -0.13149011
0.59877473 -0.73493564 0.76247305 -0.6538918 -0.46069384 0.71225053 -0.9298134 -0.9110527
-0.034481615 -0.04011425 0.33225045 0.82052064 -0.67106986 -0.6852324 -0.33923733 -0.4864924
0.30830395 -0.5335232 0.39556754 0.31052133 -0.7978097 -0.7264732 -0.41048306 -0.5071621
-0.3397313 0.5150911 -0.9673991 0.81124634 0.8951268 -0.08739472 0.29216906 0.87992215
-0.12971652 -0.5815742 0.7038324 -0.08889362 -0.30649352 0.09037769 0.24609232 -0.38774443
-0.7313639 -0.30093205 0.01609734 -0.692649 0.76836085 0.24849878 0.20927007 -0.5712266
-0.002572775 0.23221862 0.28436825 -0.30935323 -0.18757713 0.21804059 -0.48934057 0.14502542

bias f4 [64]
00000000: 505c 20be 5099 92bd c07c 3d3f 9169 303f
00000010: a020 8cbe 015e 273f 260e 333f 32a4 3fbf
00000020: 9456 84bd 30bf 85bd 3b81 013f 7405 edbe
00000030: b099 7bbf e66d 343f 8ecd 223f 0095 b93b
00000040: edb6 443f fcd0 143f c3c2 5b3d 2f1f 083f
00000050: e21a 1e3f 7662 7cbf 3a40 2ebf 086e 2fbf
00000060: c434 54bf 78a4 5cbe f899 6abf 2596 853e
00000070: 206d dbbe e88a e33e 3723 0a3f 9032 753e
00000080: c6e0 563f 3dcd ca3e d661 63bf 6dfb f23e
00000090: 2da5 29bf 825a fc3e c991 a33e 58f5 aebe
000000a0: 0aaa 5cbf c8a5 0d3f dc4b 1dbf 5223 363f
000000b0: 20f4 19be 48f6 2fbf dc92 58bf ae4c 06bf
000000c0: 5860 7abe 4075 3bbf a6ae 503f 0dc7 813f
000000d0: 9ee8 f23e c717 223f 6551 35be 4c84 febe
000000e0: e0a0 09bf c8fc f2be 6dd4 c63d 5e6d 673f
000000f0: f89c 1f3e ce6e 4dbf 47d6 6b3f f7ec af3e
-0.15660214 -0.07158148 0.7401848 0.6891108 -0.2736864 0.65377814 0.69943464 -0.7485992
-0.06461826 -0.06530607 0.50587815 -0.46293223 -0.98281384 0.7048019 0.635949 0.005663514
0.7684162 0.58131385 0.053652536 0.5317258 0.6175977 -0.9858774 -0.6806675 -0.6852727
-0.82893014 -0.21547115 -0.9164119 0.26091114 -0.42856693 0.44441915 0.53959984 0.2394507
0.8393673 0.3960971 -0.8882116 0.47457448 -0.66267663 0.49287802 0.31947163 -0.34171557
-0.8619696 0.5533109 -0.6144388 0.71147645 -0.15034533 -0.6873517 -0.8459909 -0.52460754
-0.24450815 -0.73225784 0.8151649 1.013887 0.47443098 0.6331753 -0.17706831 -0.4971031
-0.537611 -0.47458482 0.09708486 0.90401256 0.15587223 -0.802472 0.92123836 0.34360477

weight f4 [64]
00000000: 0000 803f 0000 803f 7478 803f bd88 803f
00000010: 0000 803f 9f96 773f 0000 803f 0000 803f
00000020: 9cc4 823f 0000 803f a71f 803f 0000 803f
00000030: 0000 803f 61b8 813f 0000 803f 0000 803f
00000040: f95c 7c3f ae75 793f cc94 7c3f f75d 7e3f
00000050: 0000 803f 0000 803f 0000 803f 0000 803f
00000060: 0000 803f 0000 803f 0000 803f 6892 773f
00000070: 0000 803f 0000 803f 3d73 793f 0000 803f
00000080: b21f 7b3f 2f11 7e3f 0000 803f bbba 7b3f
00000090: 44a4 7e3f 260e 7e3f a80d 743f 2733 823f
000000a0: 0000 803f 0000 803f 2e57 803f 9052 813f
000000b0: 0000 803f 0000 803f 0000 803f 0000 803f
000000c0: 0000 803f 0000 803f 67ac 7d3f cba0 7e3f
000000d0: 9ba6 7b3f ee18 7e3f 7eb3 7f3f 0000 803f
000000e0: 0000 803f 0000 803f 3f78 7b3f 4875 833f
000000f0: 0000 803f 0000 803f 54c7 813f a6e9 7e3f
1.0 1.0 1.0036759 1.0041729 1.0 0.96714205 1.0 1.0
1.021625 1.0 1.000966 1.0 1.0 1.0134393 1.0 1.0
0.98579365 0.9744519 0.98664546 0.9936213 1.0 1.0 1.0 1.0
1.0 1.0 1.0 0.96707773 1.0 1.0 0.97441465 1.0
0.9809524 0.9924497 1.0 0.98331803 0.994694 0.9924034 0.9533334 1.017186
1.0 1.0 1.0026605 1.0103321 1.0 1.0 1.0 1.0
1.0 1.0 0.9909119 0.994641 0.98301095 0.9925679 0.9988326 1.0
1.0 1.0 0.98230356 1.0270166 1.0 1.0 1.0138955 0.9957527

bias f4 [64]
00000000: 601b a83a 4787 0d3d 0235 6a39 bce7 b6bc
00000010: 95b5 3abb 3f71 9ebc 19c4 fcba d2a7 0b3d
00000020: 1f1f 5cbc 2801 13bd 8b87 92bc 4a47 293c
00000030: 9418 a6bc 0ee8 bc3c e5c0 3cbb 8999 7fb9
00000040: 7cc0 2bbc 79a5 a4b9 7679 9b3c 9812 fc3b
00000050: cbda ef3c 10ed f63b a764 343b 5617 4fbc
00000060: be64 2838 64bf 7139 8814 2c3c 2a4d 8bbc
00000070: 2f06 3e39 b874 1cb9 913f 95b9 c941 aebb
00000080: 0044 56bb 2415 1a3a 126e 6dbc a6a0 783c
00000090: 7842 5439 ee50 053c 160a c1ba 3881 5738
000000a0: 488a 863b 836a 403c 9d23 7a38 3c06 a239
000000b0: 1eea 8a39 5076 873a 615a 4bb9 a7d6 fa3b
000000c0: b48e ba39 5129 d8bc d0c8 94bb f51d 9d39
000000d0: c863 1a3c e5de 6b3c abfd 0f3c 66a2 71bb
000000e0: d8c9 44ba 6216 95b9 bf0d 1538 8f1e ecbc
000000f0: ce28 65bc d00d 7b39 e25a 6b3c 6476 f0b9
0.0012825541 0.03455284 0.00022335726 -0.022327296 -0.002848958 -0.01934111 -0.0019284516 0.034095593
-0.013435154 -0.035889775 -0.017886898 0.010331938 -0.020275392 0.023059871 -0.0028801498 -0.00024375891
-0.010482904 -0.00031403804 0.018978816 0.0076926462 0.029279133 0.0075355843 0.0027525814 -0.012639841
4.0148145e-05 0.0002305485 0.010502942 -0.017004568 0.00018122116 -0.000149208 -0.00028466855 -0.005317901
-0.003269434 0.0005877784 -0.014491575 0.01517502 0.00020242657 0.008136971 -0.0014727737 5.138034e-05
0.00410584 0.011744144 5.9637812e-05 0.00030903693 0.00026495842 0.0010334942 -0.00019393257 0.007654983
0.00035583007 -0.026386889 -0.0045405403 0.00029967693 0.009423204 0.014396404 0.0087885065 -0.0036870479
-0.00075068837 -0.0002843617 3.553717e-05 -0.028823165 -0.013986779 0.00023942371 0.01436493 -0.00045864575

running_mean f4 [64]
00000000: 0000 0000 0000 0000 0271 6c3f daa9 083f
00000010: 0000 0000 1748 d33f 0000 0000 0000 0000
00000020: bacd 083f 0000 0000 9a4a a23f 0000 0000
00000030: 0000 0000 f069 b53f 0000 0000 0000 0000
00000040: 9acf 3b3f c49b 0a3f 568c c53e 9a13 ad3f
00000050: 0000 0000 0000 0000 0000 0000 0000 0000
00000060: 0000 0000 0000 0000 0000 0000 7e4d 123f
00000070: 0000 0000 0000 0000 f7ab 033e 0000 0000
00000080: 58e4 ff3e e635 693f 0000 0000 6e98 a43f
00000090: a218 6e3e 9db8 cf3e 4e97 1c3f 78c3 093f
000000a0: 0000 0000 0000 0000 efdf b63d 5a75 1f3f
000000b0: 0000 0000 0000 0000 0000 0000 0000 0000
000000c0: 0000 0000 0000 0000 7dbe 543f dc7f a43e
000000d0: d805 9f3f aeae 613f aac0 013d 0000 0000
000000e0: 0000 0000 0000 0000 b96c c33e 8c26 183f
000000f0: 0000 0000 0000 0000 2443 dd3e b94d fa3e
0.0 0.0 0.92359936 0.5338417 0.0 1.6506375 0.0 0.0
0.53438914 0.0 1.2679017 0.0 0.0 1.4172955 0.0 0.0
0.7336365 0.5414393 0.3858363 1.3521607 0.0 0.0 0.0 0.0
0.0 0.0 0.0 0.57149494 0.0 0.0 0.12858568 0.0
0.499789 0.9109787 0.0 1.2859018 0.23251584 0.40570536 0.6116837 0.53813887
0.0 0.0 0.08929431 0.6228844 0.0 0.0 0.0 0.0
0.0 0.0 0.8310316 0.321288 1.2423658 0.88157165 0.03167788 0.0
0.0 0.0 0.38168886 0.5943382 0.0 0.0 0.43215287 0.48887423

running_var f4 [64]
00000000: 0400 0000 0400 0000 4fec 882b 4fea a92a
00000010: 0400 0000 e9c4 1f2c 0400 0000 0400 0000
00000020: d479 3c2a 0400 0000 a9b4 a62b 0400 0000
00000030: 0400 0000 4c29 0f2c 0400 0000 0400 0000
00000040: d394 ef2a e196 852a fd72 0d2a 73b0 a12b
00000050: 0400 0000 0400 0000 0400 0000 0400 0000
00000060: 0400 0000 0400 0000 0400 0000 0e52 7d2a
00000070: 0400 0000 0400 0000 9257 a928 0400 0000
00000080: 3f48 812a b5b4 442b 0400 0000 f3d8 b82b
00000090: d011 7529 3649 342a 7c04 a62a c16d 612a
000000a0: 0400 0000 0400 0000 ecdb 1528 b4e7 a02a
000000b0: 0400 0000 0400 0000 0400 0000 0400 0000
000000c0: 0400 0000 0400 0000 29f9 362b ab20 f529
000000d0: 51ce 8e2b ac15 802b 1133 c426 0400 0000
000000e0: 0400 0000 0400 0000 9fa1 322a 8ad0 812a
000000f0: 0400 0000 0400 0000 ec56 962a 76f2 ba2a
6e-45 6e-45 9.72897e-13 3.0183015e-13 6e-45 2.2704566e-12 6e-45 6e-45
1.6740022e-13 6e-45 1.1845153e-12 6e-45 6e-45 2.0344447e-12 6e-45 6e-45
4.2558196e-13 2.373024e-13 1.256321e-13 1.1488713e-12 6e-45 6e-45 6e-45 6e-45
6e-45 6e-45 6e-45 2.2499382e-13 6e-45 6e-45 1.8800747e-14 6e-45
2.2965134e-13 6.988397e-13 6e-45 1.3134202e-12 5.4416378e-14 1.6012612e-13 2.9490635e-13 2.0022093e-13
6e-45 6e-45 8.3188495e-15 2.8582486e-13 6e-45 6e-45 6e-45 6e-45
6e-45 6e-45 6.500517e-13 1.08858526e-13 1.0146971e-12 9.100962e-13 1.3614074e-15 6e-45
6e-45 6e-45 1.586565e-13 2.3059706e-13 6e-45 6e-45 2.6705667e-13 3.3208478e-13

weight f4 [64, 1]
00000000: 10d6 6d3f 2e65 ee3e ae1d 1e3f 7f04 153f
00000010: a4b9 e5be 641d 1d3f a0d6 6c3f 5230 a6be
00000020: 6e16 1abf e600 fb3e 72a9 743f 9906 fa3e
00000030: 80c6 27bf b83a 44be 3d75 553f b2ef 623e
00000040: ecb2 64bf e9d9 603f 7a0c 83bd 8fc9 073f
00000050: 2068 b5be 82cf 563f 1826 80bd e1d0 543e
00000060: 4a1f 50bf 00e1 003e 080e 8d3e 207e 8cbe
00000070: 7084 33be ef27 893c f4a2 babc 4cc1 50bf
00000080: a846 463e 1fd8 dbbb 1007 e3be 750c 313f
00000090: b109 363f 63f3 ee3e 5034 dcbd 385b 543e
000000a0: 372f 743f e610 64bf 6fc2 493e 1a42 52bf
000000b0: c45f 653f 7ccb 35bf e4f0 0fbf d09f 4a3e
000000c0: 4127 d93e 4a0b 76bf f427 b73e 62ea 7cbd
000000d0: e429 c7be ec29 123f 9069 5d3f 4873 c93e
000000e0: b908 e2be befe 393f fa51 543d 304d 54be
000000f0: 2866 0dbf 8f61 6d3e fa8c 5fbf e846 5a3f
0.9290476 0.4656157 0.6176404 0.58209985 -0.44868195 0.6137297 0.9251499 -0.3245874
-0.60190475 0.49024123 0.95571053 0.4883316 -0.6553726 -0.19163024 0.83382016 0.22161749
-0.89335513 0.87832505 -0.06398864 0.5304193 -0.35431004 0.8391038 -0.06257266 0.20782806
-0.81297743 0.1258583 0.27549767 -0.27439976 -0.1753099 0.016742675 -0.02278278 -0.8154495
0.1936289 -0.0067091133 -0.44341326 0.6915963 0.7110854 0.46670064 -0.10752165 0.20737922
0.95384544 -0.89088285 0.19703077 -0.8213211 0.8959925 -0.7101362 -0.56226945 0.19787526
0.4241276 -0.96110976 0.3577267 -0.061746962 -0.38899148 0.5709522 0.864892 0.39345765
-0.4414728 0.7265433 0.05183599 -0.2073257 -0.55234003 0.23181747 -0.8732449 0.85264444

bias f4 [64]
00000000: 90e8 fbbe b748 d53e 0798 c93d 1101 cabe
00000010: 6682 47bf 2942 693e 7564 2dbf 8b92 0b3f
00000020: 004d a6be a63c ab3e 7f89 123f b11e bfbe
00000030: d6a1 053f e8a0 40bf 5fb4 2d3f a0b7 8d3e
00000040: 30dd 91be 602e c7be 394d 4e3f aaed 97bd
00000050: 9841 573e 1926 fbbc a680 4d3f aec4 233f
00000060: 0e54 54bf 59dd 663f d449 19be c19f 163f
00000070: b09c 9abd 9446 4d3f 5b7c 6c3f 783f 92be
00000080: 4a79 79bf 3b7a db3d 98e2 573e b128 0dbf
00000090: f241 2f3f 59dc a1be d0ab 04bf 7455 9abe
000000a0: 2296 423f e0ed 063f c1aa 093f 40ac 98bd
000000b0: d6cd 3d3f 8001 a6bc 48ec 753e 5e3c 2bbf
000000c0: 5b39 72bd f8aa 5abe ec54 72bf e385 bd3e
000000d0: 700b 953e 9a9a 37bf e042 afbe ca42 263e
000000e0: ffd6 373f 1c8d 5bbf 092d 363e b6ab 20bf
000000f0: 7217 3c3f 1a04 cd3e e084 3ebe dbae 40be
-0.4920087 0.4165704 0.0984345 -0.3945394 -0.7793335 0.22779144 -0.6773141 0.5452048
-0.3248062 0.3344471 0.5724105 -0.37328103 0.5220007 -0.75245523 0.6785335 0.27679157
-0.28489065 -0.3890257 0.8058658 -0.07418378 0.21021116 -0.030657815 0.80274427 0.63971984
-0.8294076 0.901815 -0.1496957 0.58837515 -0.07549417 0.8018582 0.9237725 -0.28564048
-0.974507 0.10716673 0.21082532 -0.55140215 0.6846 -0.31613424 -0.51824665 -0.3014332
0.76010334 0.5270672 0.53776175 -0.07454729 0.74142206 -0.020264387 0.24015915 -0.6688899
-0.05913673 -0.21354282 -0.9466083 0.3701621 0.2911029 -0.7172028 -0.3423071 0.16236416
0.71812433 -0.8576219 0.17790617 -0.6276201 0.73473275 0.40042192 -0.18605375 -0.18816702

weight f4 [64]
00000000: d5d2 793f 4e31 7e3f fe98 843f 4958 7d3f
00000010: 0000 803f 021a 843f 8b4b 843f 2924 823f
00000020: 0000 803f 2e47 7f3f fef2 7b3f 26e8 823f
00000030: 0000 803f 0000 803f aa13 793f c628 803f
00000040: 0000 803f 07b0 7c3f 912b 7c3f 6b1a 7b3f
00000050: 0000 803f 04e9 803f 7f4e 7f3f db73 763f
00000060: 0000 803f 54f9 803f a7f7 813f d6aa 7c3f
00000070: 0000 803f 6424 7a3f 07d6 7b3f 0000 803f
00000080: 0000 803f b896 7c3f 0000 803f 2062 7c3f
00000090: e6a6 783f 5bb2 7b3f 0000 803f 0000 803f
000000a0: 04d8 7e3f 0000 803f 9762 7c3f 0000 803f
000000b0: 8bf8 793f 0000 803f 0000 803f 0000 803f
000000c0: 85da 7c3f 0000 803f 0000 803f 2151 7d3f
000000d0: 0000 803f 0000 803f 51c9 7c3f 2205 7d3f
000000e0: 02b2 813f 0000 803f 5bdd 813f 0000 803f
000000f0: a98c 7b3f 3ce5 813f 0000 803f 998e 7c3f
0.9758733 0.99293983 1.035919 0.9896284 1.0 1.0320437 1.0335554 1.0167285
1.0 0.99717987 0.9841765 1.0227096 1.0 1.0 0.9729563 1.0012443
1.0 0.98706096 0.9850398 0.98087186 1.0 1.0071111 0.9972915 0.9627053
1.0 1.0076089 1.0153702 0.98698175 1.0 0.9771178 0.98373455 1.0
1.0 0.9866748 1.0 0.98587227 0.97129667 0.98319024 1.0 1.0
0.99548364 1.0 0.98587936 1.0 0.9764487 1.0 1.0 1.0
0.98770934 1.0 1.0 0.9895192 1.0 1.0 0.98744684 0.9883596
1.0132449 1.0 1.0145677 1.0 0.98261505 1.0148082 1.0 0.98655087

bias f4 [64]
00000000: c0fc 403b 3ffc ff3c 185a ca3c f60a 39b9
00000010: 3323 fb39 5607 9e3a 3944 0eb8 b192 af38
00000020: b1b2 5c3c 527c 29bc e448 dc3a 19bc 1db9
00000030: 86c1 ad3c bf52 2f3b d816 933b 5dee b43a
00000040: 1047 d7bc a19b ed39 45d0 d3b9 2248 fcbb
00000050: ff2b 4dbc 689f 87bc 6285 ab3c 5a40 bd3c
00000060: bcef d43c f317 963c 210f 923c 4037 21bb
00000070: 6753 9c3c 42fa 1739 e049 783a 30ed 363c
00000080: 3dbf ce39 48db 5d39 9f56 cabc 243a 8d3a
00000090: 82e5 cb3c 41a0 873c a435 0bbc 7168 c63c
000000a0: 9e11 63bc ec78 e73c 6ca1 4a39 a28f 8eb9
000000b0: d5fc 393a 2366 ff3b 0953 a03c a8b0 bcbc
000000c0: 2811 5939 95c1 673b 87c7 38bc 2171 3d39
000000d0: c578 c0ba 52df 983c bc56 d73b 1f8b b43d
000000e0: 50a4 4ebd 35d8 d23b 36ae 663b c841 063c
000000f0: 5fef 5b39 a8b9 063c 82fc 273c 5495 82bc
0.0029447526 0.03124821 0.024701163 -0.00017647058 0.00047900676 0.001205663 -3.3918976e-05 8.371974e-05
0.013470338 -0.010344582 0.0016806391 -0.00015042759 0.021210443 0.0026752201 0.004488807 0.0013803948
-0.026279002 0.00045320115 -0.0004040023 -0.0076990286 -0.0125226965 -0.016555503 0.020937625 0.023101974
0.02599322 0.018321967 0.01782948 -0.0024599582 0.019082738 0.0001449371 0.00094714575 0.011164948
0.00039433865 0.00021157891 -0.024699507 0.0010774774 0.024889711 0.016555907 -0.008496676 0.024219723
-0.013859181 0.028255902 0.00019324356 -0.00027191365 0.0007094865 0.007794158 0.019570844 -0.023033455
0.00020701124 0.0035363187 -0.01127804 0.00018066588 -0.001468443 0.018661175 0.006571619 0.08815598
-0.05044967 0.0064344653 0.0035199053 0.008194394 0.0002097464 0.008222975 0.010253074 -0.015940346

running_mean f4 [64]
00000000: 4d8e df3e d2c8 613f c458 373f 0e4e 403e
00000010: 0000 0000 7a7b 573f a99f 7d3e 41b3 613e
00000020: 0000 0000 aa0d 533f 0892 c33f e322 ec3d
00000030: 0000 0000 0000 0000 b492 c13f 4922 ff3e
00000040: 0000 0000 3e66 fa3e 4910 3e3f 1caf e93e
00000050: 0000 0000 3be6 4e3f 7a7f 3d3f ec0a 593f
00000060: 0000 0000 0186 833f 5695 003e 5cb6 a03e
00000070: 0000 0000 3280 513f 9e93 663f 0000 0000
00000080: 0000 0000 46b3 cd3d 0000 0000 678f 0f3e
00000090: 3aae b23f bd3d 1a3e 0000 0000 0000 0000
000000a0: 7751 db3f 0000 0000 6008 3c3f 0000 0000
000000b0: e89f d13f 0000 0000 0000 0000 0000 0000
000000c0: 82b9 ba3e 0000 0000 0000 0000 f22f 9e3e
000000d0: 0000 0000 0000 0000 b6cf 053f 4355 0e3f
000000e0: 00b4 8d3e 0000 0000 8b6c 6b3e 0000 0000
000000f0: 5ea2 3a3e fdc9 213f 0000 0000 de0f 2a3f
0.43663254 0.8819705 0.7161982 0.18779776 0.0 0.84172785 0.24767937 0.22041036
0.0 0.82442725 1.527894 0.115300916 0.0 0.0 1.5122895 0.49830845
0.0 0.4890613 0.742436 0.4564141 0.0 0.80820054 0.7402264 0.8478229
0.0 1.027527 0.12556967 0.3138913 0.0 0.81836236 0.90068996 0.0
0.0 0.10043959 0.0 0.14019547 1.395942 0.15062614 0.0 0.0
1.7134236 0.0 0.7345028 0.0 1.6376925 0.0 0.0 0.0
0.36469656 0.0 0.0 0.30895954 0.0 0.0 0.52270067 0.5559885
0.27676392 0.0 0.22990625 0.0 0.18226 0.63198835 0.0 0.6643046

running_var f4 [64]
00000000: b76a 5e29 e3f6 932a a03b 052a 555d 0928
00000010: 0400 0000 0eb2 2c2a c5ac bc28 57f6 6928
00000020: 0400 0000 a258 5b2a 8448 112b 8e56 b527
00000030: 0400 0000 0400 0000 e050 252b 596a 9929
00000040: 0400 0000 0dea ca29 fd68 002a ba6c 6c29
00000050: 0400 0000 dfc4 2d2a 2638 502a 7aad 852a
00000060: 0400 0000 42a8 962a 6a17 ab27 327b 7628
00000070: 0400 0000 d890 0c2a 781a 822a 0400 0000
00000080: 0400 0000 b347 8c27 0400 0000 730c 8427
00000090: c621 232b 2db2 5627 0400 0000 0400 0000
000000a0: 4f4b 612b 0400 0000 83dc 2c2a 0400 0000
000000b0: e376 452b 0400 0000 0400 0000 0400 0000
000000c0: 3db1 1029 0400 0000 0400 0000 8fc6 7028
000000d0: 0400 0000 0400 0000 2261 a529 378f 5c29
000000e0: 23f6 9528 0400 0000 9f06 7428 0400 0000
000000f0: cc9f 2528 6c06 df29 0400 0000 0ed7 c229
4.9386463e-14 2.6283758e-13 1.183346e-13 7.625266e-15 6e-45 1.5338444e-13 2.094712e-14 1.2987515e-14
6e-45 1.9481858e-13 5.1614984e-13 5.0331435e-15 6e-45 6e-45 5.873201e-13 6.813013e-14
6e-45 9.0112034e-14 1.1405109e-13 5.2496832e-14 6e-45 1.543379e-13 1.8493592e-13 2.374592e-13
6e-45 2.6762105e-13 4.748742e-15 1.3682457e-14 6e-45 1.248475e-13 2.3111005e-13 6e-45
6e-45 3.8935542e-15 6e-45 3.6650857e-15 5.7956103e-13 2.9795055e-15 6e-45 6e-45
8.004057e-13 6e-45 1.5353174e-13 6e-45 7.015345e-13 6e-45 6e-45 6e-45
3.2128153e-14 6e-45 6e-45 1.3365732e-14 6e-45 6e-45 7.344322e-14 4.8974032e-14
1.6649068e-14 6e-45 1.3546157e-14 6e-45 9.19399e-15 9.9043034e-14 6e-45 8.652637e-14

weight f4 [64, 2]
00000000: 657c e13e 8de2 b83d 63ae d33e 2330 933e
00000010: b292 8d3e fc57 b73e b099 22bf 503f 2b3f
00000020: 884b e0be 2398 63bd e32f 0f3f a0f7 eebe
00000030: 64aa 07bf 3222 e03e a3a2 37bf 8150 613e
00000040: 7cbf 97be 5f14 893e c7c6 29bf 404b 99bc
00000050: f105 9e3e 84c5 033f 0129 fb3e 25fa 30be
00000060: f1b6 b1be 3013 eabe c2ba b5bb d3c1 073e
00000070: 1448 673d b672 253f f1c3 d73e f7c4 893e
00000080: c714 7d3e ffc3 2d3e 3166 9bbe 197b 283f
00000090: 3937 96be ca71 093f c036 19be 1616 87be
000000a0: c749 293f ea14 4dbd 918e 1c3f 9034 bdbe
000000b0: d01a 2abd a4e6 693e 2c87 f3bc 471d 13bf
000000c0: 36ff 34be dea6 003f bd15 353e c0ea c23e
000000d0: db07 b73e 9452 84be 6f95 16bf a416 2e3f
000000e0: 06e6 333f 0483 3e3e 4d18 19bf ea31 453e
000000f0: a5d1 85be 21c6 213f 9c20 783e fc00 a6be
00000100: 6622 16bf 9283 193f fb60 c33e 1ecb af3e
00000110: 8da4 2e3f 023f 143f 973d ae3e 31d6 adbe
00000120: 2d82 2c3f 7e30 adbe 7d8f 9a3e 902a 51be
00000130: a49a 553e 2cc9 42be 6eb0 353f caba dbbe
00000140: 110a 0e3f 0c00 023f 1096 38bf d0f1 1ebf
00000150: 5d1e 2fbf becb 06bf 36b7 2fbe efa1 c13e
00000160: 138c d93d a123 213f 4906 98be 0044 293f
00000170: 661a 20be 2097 a5be c0a5 513c d1a4 f1be
00000180: c07a 09bd d8e1 0c3e 345e 203e 7e4b f93e
00000190: 4a38 e8be a642 0e3f f68e b3be 3a5f ad3e
000001a0: 2d6d dabe 73f9 a5be bcf0 1a3e 2016 873e
000001b0: 5768 d23e ee73 25bf 39df d7be 1180 14bf
000001c0: 180b 42be e84d d8be c693 033f d5c6 acbd
000001d0: dcef 9c3e 4c62 47bd 0b9a cd3e 1861 d6be
000001e0: 1af4 053f 86ee f8be 28a8 fabd 2903 e3be
000001f0: 2c06 b9bb 9df1 1d3f d5fc 48be 0172 a93e
0.44040218 0.09027586 0.41343984 0.28747663 0.27650982 0.35809314 -0.6351576 0.6689348
-0.43807626 -0.05556501 0.55932444 -0.46673298 -0.5299437 0.4377609 -0.7173254 0.22003366
-0.29638278 0.26773354 -0.66318935 -0.01871264 0.30863908 0.5147326 0.4905472 -0.17282923
-0.34709886 -0.45717764 -0.005545945 0.13257532 0.056465223 0.6462816 0.4214168 0.26908085
0.24714957 0.16969298 -0.30351403 0.6581283 -0.29339007 0.53689253 -0.14962292 -0.26384038
0.661282 -0.050068773 0.6115504 -0.36954165 -0.041529477 0.22841889 -0.02972754 -0.5746655
-0.1767548 0.5025462 0.17684074 0.38069725 0.3574818 -0.25844252 -0.5882177 0.68003297
0.7027286 0.18604666 -0.59802705 0.19257322 -0.2613651 0.63192946 0.2423119 -0.32422626
-0.5864624 0.59966385 0.38159928 0.34334654 0.68219835 0.5790864 0.34031364 -0.33952478
0.6738613 -0.3382606 0.30187598 -0.20426393 0.20859772 -0.19022053 0.70972335 -0.42915946
0.5548411 0.5078132 -0.7210398 -0.62087727 -0.68405706 -0.52654636 -0.17159733 0.37818858
0.1062242 0.6294499 -0.29692295 0.66119385 -0.1563507 -0.32341862 0.012795866 -0.47196057
-0.03356433 0.13758028 0.15660936 0.48690408 -0.45355445 0.5557045 -0.35070008 0.33861715
-0.4266142 -0.32416877 0.15130895 0.26384068 0.4109523 -0.6463002 -0.42162493 -0.58007914
-0.18949544 -0.42246938 0.5139736 -0.08436362 0.30651748 -0.048677728 0.40156588 -0.41870952
0.52325594 -0.4861948 -0.122391045 -0.44338349 -0.0056464877 0.616968 -0.19627698 0.3309479

bias f4 [64]
00000000: 9250 03bf 978c 7ebe c032 813d f652 22be
00000010: 6db1 143f 38d0 73bc d1cd 20bf bc11 863e
00000020: 6d53 4b3e 1f50 2ebf 9e39 ee3e 7bc9 0f3f
00000030: 4c6a ccbe 9c1f 76bd ae91 eabe 1827 233f
00000040: 0bc1 1b3f 3505 7e3e 19e1 093e f8fa 53be
00000050: 8d5d 1bbd c94f 4b3e 2f24 26bf 5381 bf3e
00000060: d394 b5be d966 4bbe e5c0 07bd 59ad 25bf
00000070: 7f49 bc3e dc71 35be bb5c 893d 8ce5 f23e
00000080: 130d 923e e2b6 afbd 276f 243f 86f3 d93e
00000090: d7cd 0d3f 0a60 a4bd 20a1 d6be e53b 00bf
000000a0: 5ced 9e3e 7584 b93e cdba 893e 878b 37bc
000000b0: 9a63 b3be 3a7c 203f 18a2 033f bd04 dbbe
000000c0: 9c53 cfbe 3ddd f0be 9747 243f 9162 45be
000000d0: 35b4 a7be 702a 02bf d5a1 eabd 8047 66bc
000000e0: 5fda 26bf 4df2 bb3e f3e8 ce3e 1b61 db3e
000000f0: 9fd4 00bf 9e11 a13e 1a52 aebd 98f8 433e
-0.51294816 -0.24858318 0.06308508 -0.1585196 0.5808323 -0.014881186 -0.6281405 0.26185405
0.19856043 -0.68091005 0.46528333 0.5616681 -0.39924848 -0.06008874 -0.4581427 0.6373153
0.60841435 0.24806674 0.13464774 -0.20701206 -0.037931014 0.19854654 -0.6489896 0.37403354
-0.35465106 -0.19863452 -0.033142943 -0.6471763 0.36774823 -0.17719215 0.0670714 0.47440755
0.285256 -0.08579804 0.64232105 0.42568606 0.5539221 -0.080261305 -0.41919804 -0.5009139
0.31040466 0.3623387 0.2690033 -0.0112026995 -0.35036927 0.62689555 0.5141921 -0.42777053
-0.40493476 -0.4704379 0.6417174 -0.19275881 -0.32754675 -0.50846004 -0.11456648 -0.014055133
-0.6517696 0.36708298 0.404121 0.42847523 -0.50324434 0.31458753 -0.085117534 0.191378

weight f4 [64]
00000000: a2e7 863f 7981 7a3f 8f24 7a3f cdcc 813f
00000010: ab09 803f c7fa 7b3f 0000 803f c0ea 7a3f
00000020: 7421 773f 0000 803f 64df 793f b3ef 773f
00000030: 0000 803f 14aa 7c3f c315 803f f128 7b3f
00000040: 1245 7b3f 53c6 763f bc81 7b3f 0000 803f
00000050: 0efc 7d3f cd5a 7d3f 0000 803f 90d6 7f3f
00000060: ab2c 823f 819b 7b3f eee4 833f 3d00 853f
00000070: 13de 7a3f 0012 803f 59ed 793f 14d7 783f
00000080: 5789 7a3f f769 7a3f e801 753f 5f0b 793f
00000090: 397a 7a3f 83f8 7e3f 0000 803f 281e 7d3f
000000a0: 7bea 783f 89d0 7d3f a05a 753f 7a90 7b3f
000000b0: 0162 7e3f acd4 783f 1813 7a3f 0000 803f
000000c0: 0000 803f 9f3a 803f 4f48 763f 6d35 813f
000000d0: 0000 803f 0000 803f 2ead 803f 0000 803f
000000e0: 0000 803f a193 753f 0bab 7b3f c9cc 783f
000000f0: cf2c 883f f79c 763f 98b8 793f 6576 793f
1.0539439 0.9785381 0.97712034 1.0140625 1.000295 0.9842953 1.0 0.9801445
0.9653542 1.0 0.9760649 0.96850127 1.0 0.9869702 1.0006641 0.98109347
0.9815227 0.9639637 0.98244834 1.0 0.9921273 0.98966676 1.0 0.9993677
1.0169882 0.98284155 1.0304239 1.0390698 0.9799511 1.0005493 0.9762779 0.97203183
0.97865814 0.9781794 0.95706034 0.97282976 0.97842747 0.9959795 1.0 0.9887414
0.9723279 0.99146324 0.9584141 0.9826733 0.9936829 0.9719951 0.97685385 1.0
1.0 1.001789 0.96204084 1.0094429 1.0 1.0 1.005285 1.0
1.0 0.9592839 0.98307866 0.9718748 1.0638674 0.9633326 0.9754729 0.9744628

bias f4 [64]
00000000: 3274 f73c 1d68 b13c 265c 053c 400e 0c3d
00000010: 98d6 103d 3609 993c e8c1 1a3a 498d 41bd
00000020: 2c4a 8d3b fb95 0a3d 1c6f 623c d6e2 7fbd
00000030: 0034 09bb 5b2a 923c 2578 b03b 116f 023d
00000040: db02 3abc c8b8 ab3b 98c2 74bc 56a9 d4b9
00000050: 70b7 073d 3740 9d39 3544 6dbc 7fec 9ebb
00000060: ddcb 9fba 4915 abbc 16dd 09bc 43fa 06bd
00000070: 8f1c 0c3d f292 e23c 6216 0d3d fd0b 87bb
00000080: b899 2cbc 9c69 a13c c5b1 a93c 60e3 013d
00000090: c2fb b2bc b9ba d43c d910 c6bb 2af7 a7bc
000000a0: 65ea 803c ee34 b8bc a53c 0c3d 7eae 383c
000000b0: 47dd 13bc 054d 31bd 9138 8abc 2c8e b33c
000000c0: 5a27 2639 da1b 05bd 15d3 a13c ad19 173c
000000d0: a676 d0b9 b4ee ed39 365c 3b3c 18a9 1f3d
000000e0: 3e5b 353d ca64 283c f5ce 6d3c 1d34 03bd
000000f0: aeb2 08bd 046f 903c 772e febb 37bb 2bb9
0.030206773 0.02165609 0.008139646 0.034193277 0.035360903 0.01868115 0.0005903528 -0.04725388
0.0043118205 0.03383444 0.013820436 -0.062472187 -0.0020935535 0.017842462 0.005385416 0.031844202
-0.01135322 0.0052405335 -0.014938973 -0.00040561956 0.033133924 0.00029993217 -0.014481594 -0.00484997
-0.0012191493 -0.020884173 -0.008414527 -0.032953512 0.034206923 0.02765796 0.034445174 -0.004121302
-0.010534696 0.019703679 0.02071465 0.031710982 -0.021848563 0.025967943 -0.006044489 -0.0205036
0.015736768 -0.022486176 0.034237523 0.011272071 -0.009024925 -0.043286342 -0.016872676 0.021918379
0.00015845653 -0.032497264 0.019753972 0.00922243 -0.00039761252 0.0004538201 0.011435559 0.03897962
0.04427647 0.010277936 0.014514674 -0.03203212 -0.033373527 0.017631061 -0.007757004 -0.00016377574

running_mean f4 [64]
00000000: eea7 9938 6cd1 fe3d 5d96 c33e 8705 4e3d
00000010: 22bb aa3e 98bd cc3d 0000 0000 7fa2 c23d
00000020: c49b 3f3e 0000 0000 fb13 613f d15a 383f
00000030: 0000 0000 1f8c 923c ea40 113d 4ce1 7b3f
00000040: a757 513f 6f65 db3e 6bb5 863e 0000 0000
00000050: b9ce 8b3e dc23 a53e 0000 0000 dd5d de3d
00000060: 529c e23b 412b ce3d 9a29 723d 4a86 3639
00000070: 953b 503f 8632 a738 9da5 863e 2a66 dd3e
00000080: 96af 9c3e 3ee5 8e3e e34a a33f c89f d93e
00000090: 9c93 383f 71de e33c 0000 0000 3f9f b33b
000000a0: 701a 583f 9b88 8a3c 100b 0e3c 2525 de3d
000000b0: 16f7 b13d 5dba 4f3f ddb7 8b3e 0000 0000
000000c0: 0000 0000 b432 493c 9eda 313f 6e5f 903b
000000d0: 0000 0000 0000 0000 7832 803c 0000 0000
000000e0: 0000 0000 c902 153f 977a 083f 2a4d d63e
000000f0: 2973 0039 f2f7 913d aac0 6c3e 701e 853e
7.326888e-05 0.12442288 0.38200656 0.05029824 0.33345896 0.099971 0.0 0.0950365
0.18711764 0.0 0.8792111 0.72013575 0.0 0.01788908 0.035462297 0.9839065
0.8177437 0.42850825 0.26310286 0.0 0.27306154 0.3225392 0.0 0.10857747
0.0069156075 0.10066844 0.059121706 0.00017406899 0.81340915 7.972591e-05 0.26298228 0.43242007
0.3060271 0.27909273 1.2757229 0.42504716 0.72100234 0.02781603 0.0 0.00548163
0.8441534 0.016910842 0.00866963 0.108469285 0.08689706 0.8114374 0.27288714 0.0
0.0 0.012280155 0.6947421 0.0044059074 0.0 0.0 0.015649065 0.0
0.0 0.58207375 0.5331206 0.41855747 0.00012249932 0.0712737 0.2312037 0.25999784

running_var f4 [64]
00000000: 37ee 5535 b421 613c 7847 8c3c 3f0a 2c3c
00000010: 8ca8 833c 09b4 8a3c 0400 0000 2986 863c
00000020: 4492 423c 0400 0000 d28e f63c 308e b33c
00000030: 0400 0000 5e49 0b3a 359a 943b eefb aa3c
00000040: 4e0d f63b de58 2c3d 8ed8 df3c 0400 0000
00000050: ae2d 063d 3bdd 1b3d 0400 0000 96a5 683c
00000060: bc04 0f3a 2dbe 173c 8020 c63b a177 aa36
00000070: 7c3b 333d 55ea 9235 b211 063d af77 583c
00000080: 2c38 413d a25d b03c 3229 893d 4f79 983c
00000090: 7621 3c3d 01a6 193b 0400 0000 14e2 383a
000000a0: aadd 413d 883e 393b 90f9 943a 514b 1a3c
000000b0: a6b3 4b3c e253 2e3d 5162 303c 0400 0000
000000c0: 0400 0000 882e 853a 9adc 293d ea1b bd39
000000d0: 0400 0000 0400 0000 fe37 1b3b 0400 0000
000000e0: 0400 0000 ac2c b53c aca3 003c a916 de3c
000000f0: f8c4 1436 d017 f73b c6b0 dc3c 2ec7 433c
7.969533e-07 0.013740946 0.017123923 0.01050049 0.01607158 0.01693155 6e-45 0.016421394
0.011875693 6e-45 0.030097399 0.021918386 6e-45 0.0005313362 0.0045349845 0.020872083
0.0075089103 0.042076938 0.027324941 6e-45 0.032758407 0.03805278 6e-45 0.014199635
0.00054557226 0.00926165 0.006046355 5.0803214e-06 0.0437579 1.0946047e-06 0.03273172 0.013212129
0.04717271 0.021529023 0.066973105 0.018612532 0.04593035 0.0023444893 6e-45 0.0007052731
0.047330536 0.0028266031 0.0011365879 0.009417371 0.012432968 0.042560466 0.010765628 6e-45
6e-45 0.0010160962 0.041470148 0.00036069687 6e-45 6e-45 0.0023684497 6e-45
6e-45 0.022116028 0.007851522 0.027110415 2.216837e-06 0.0075406805 0.02693976 0.011949344

weight f4 [64, 128]
00000000: 8daa 0e3e 4fa0 463d 66e1 04bc 27a9 a3bd
00000010: 03e9 4f3d e662 b83d eb4c 1fbd e2c8 9bbc
00000020: 17cf 57bd 5b26 853d f14a 84bd 2119 68bd
00000030: 8483 2ebc d4d0 19bd 7f6f 81bc 858d 95bd
00000040: 63f2 dfbc 2181 db3a 60e9 f83c 7e94 3b3d
00000050: 21b1 28bd 16df 5dbd ce71 4f3d 8779 c5bd
00000060: 783a bdbd 5434 25bd 4020 8d3d b6a2 71bd
00000070: faaf 59bd e003 1fbd e23e 2d3d 7f23 5a3d
00000080: 8b81 973d 846d 8bbd 5107 57bd 1451 e8bc
00000090: 2949 a93d c0a8 673d 1ee6 993d c66d acba
000000a0: 0279 8abd b312 9d3d de41 dabd 3b1e bcbc
000000b0: fd34 3bbc ee2a d1bc 1013 9cbd 9041 193d
000000c0: 0776 89bd 12a2 96bc 8d08 39bd 2da1 1fbc
000000d0: 3e92 8b3d d9fb 0cbd 6aac 2ebd 4879 3a3d
000000e0: 7976 8abc f3bc 253d f610 bd3c 0c08 87bd
000000f0: 30ae eabc abfe 02bd 8325 c23d 7953 e2bc
00000100: e675 51bd f0bc 33bd 9854 16bd 9726 183d
00000110: 390f 09bd 864e 133d 59ca f6bc 6d8e 49bd
00000120: a2f4 78bd 1b29 73bd 76cf bd3c 2370 6c3d
00000130: 6032 aebd 18a0 abbd 73ce 15ba 2c6a 32bb
00000140: e4c9 0ebd a60d 82bc c9bd 6a3d 02b4 62bd
00000150: 5759 0dbd 228b 713a 5530 47bd ab91 a9bd
00000160: 6687 46bd 7d65 b0bd e9d7 9fbd 9719 093c
00000170: 5edd 9f3c 6e89 253d 7ea1 8ebb 584f 7f3d
00000180: e1f1 d5bc 5989 26bd 355e 16bd abcc 793c
00000190: 903d 85b8 c05e 913d 4a80 103c 9d55 ad3b
000001a0: cf18 9bbc e5cf 153d a04f cc3c d283 4f3d
000001b0: 4811 0bbc be2a eb3b 8fa8 3a3d a214 b23d
000001c0: d0ac a238 e716 32bd e695 563d f479 3b3c
000001d0: 6957 42bd 8c3d 3dba fb61 c2bd c7c8 773d
000001e0: e7eb 733d 74ed 033d 1445 d13c a956 013d
000001f0: b8a9 d73c 9601 59bd f7ef 663d be25 cd3c
00000200: 5dfb 2ebd 4efa 913d 8848 7fbd a89b 0c3d
00000210: 0407 b8bb 5786 c2bb 4b17 12b9 8934 9ebc
00000220: 185e c1bb 938c dfbd 3db8 eb3b 31ba 313d
00000230: 26c4 c4bd cf53 a13d c167 e43a 29db e6bc
00000240: 8218 2fbd ad43 b0bd 0ea7 de3b 84c6 c83d
00000250: 30cb c1bc a7d1 23bd 4c59 a4bb 65b9 11bd
00000260: 068a 273d ccf2 843d 46d8 0e3d 4a91 e8bd
00000270: fea9 cebc 5a95 f2bd 9a96 9fbd 0d85 143d
00000280: 1ff9 923d 12e8 213d c849 23ba de78 4cbc
00000290: fbba 8e3d 6b90 a7bd f84a 353d 9b75 d03d
000002a0: 5c00 f33b ead8 ba3c a74f 4c3c c56f 763d
000002b0: 03c4 cabd 861e bebd 246a 8cbd d2a6 383d
000002c0: 23ef d8bd 21e9 863d 4494 5fbd 1b14 a13d
000002d0: aad2 3cbd fb9c a03c c9fa 4f3c a5b7 82bd
000002e0: 7c00 2abc 3984 2dbd 8a59 c2bc 0d19 bf3d
000002f0: 0e62 543d 3749 30bd de05 e9bc 9205 413d
00000300: c1c3 afbd 014c 84bd a357 5ebb 1b1f 96bc
00000310: f6e5 cd3a c465 debc 6240 47bd fc11 963c
00000320: 0767 833c 764e cb3d 9755 b5bc 5939 5d3d
00000330: d57d 133c c9a7 84bd 16b5 36bd d5c7 b93b
00000340: 94a7 883d 1730 32bd 5a31 5f3d 2fad 8abc
00000350: 8bda f03d 18d3 57bc bfa4 523c 1c4c 9bbd
00000360: fa48 a2bd be80 cbbb 65e1 d9bd e2c5 30bd
00000370: 516e f3bc 20c8 95bc 499b 283d 32fa 6fbd
00000380: 388a 9dbc d07c 4f3d 0975 c83c 1c89 67bd
00000390: ed06 85bd 0b17 9dbd e752 8a3d 924a abbb
000003a0: e335 52bd 45ea 3ebd 9c38 5e3d f072 003d
000003b0: 6fa3 99bc 790f 86bd df43 f8bc e449 3d3c
000003c0: d922 943d 7582 fabd 9cf5 313d 5be7 ad3c
000003d0: 2823 fe3b f486 5ebd 5c8a 05bd 0d15 b6bd
000003e0: d2af a2bc 3db6 abbd 13d4 64bd 2a48 e8bd
000003f0: 27fd e53c 7d5b 6cbd b748 70bd 9b19 a43c
0.13932247 0.048492726 -0.00811038 -0.079912476 0.050759327 0.090032384 -0.038891714 -0.019016687
-0.05268773 0.06501456 -0.064596064 -0.05666459 -0.010651473 -0.03755267 -0.015800236 -0.07302383
-0.027337259 0.0016746857 0.03038472 0.04579591 -0.04118455 -0.05416783 0.050645642 -0.0964232
-0.09239668 -0.040333107 0.06890917 -0.058993064 -0.05314634 -0.038822055 0.042296298 0.053256508
0.07397755 -0.06807998 -0.05249721 -0.028358974 0.08265907 0.056557417 0.075145945 -0.0013155274
-0.06761362 0.07669582 -0.106570944 -0.022963634 -0.011426208 -0.025533166 -0.076208234 0.03741604
-0.06711965 -0.018387828 -0.04517417 -0.009743017 0.06815003 -0.03441987 -0.042644896 0.04552582
-0.016902195 0.0404634 0.023079377 -0.06593332 -0.028647512 -0.03198115 0.09479811 -0.027627693
-0.051137827 -0.043881357 -0.03670177 0.037146177 -0.033461783 0.035963558 -0.030125784 -0.049208093
-0.060780175 -0.059365373 0.023170214 0.05772413 -0.08505702 -0.08380145 -0.0005714662 -0.0027223928
-0.034860507 -0.015875649 0.0573099 -0.05534745 -0.03450903 0.0009214153 -0.048630077 -0.08279737
-0.04846897 -0.08613107 -0.078048535 0.0083679175 0.019514736 0.040414266 -0.0043527475 0.062331527
-0.026116313 -0.04065833 -0.036710937 0.015246551 -6.353401e-05 0.0709815 0.008819649 0.005289747
-0.018932728 0.036575217 0.024940312 0.050662823 -0.008488007 0.007176726 0.045570906 0.08695342
7.756951e-05 -0.043478873 0.052389048 0.01144265 -0.047446642 -0.0007218949 -0.094913445 0.06049421
0.059551146 0.032208875 0.025545634 0.031576786 0.026326045 -0.052980028 0.056381192 0.025042411
-0.042720187 0.0712782 -0.06232503 0.034328133 -0.0056160707 -0.0059364247 -0.00013932322 -0.01931216
-0.0059011094 -0.10915484 0.007193594 0.043390457 -0.09607725 0.07877313 0.0017425941 -0.028180676
-0.04274798 -0.08606658 0.006794817 0.09803489 -0.023656458 -0.039994862 -0.005015528 -0.035577197
0.040903114 0.06491622 0.034874223 -0.11355837 -0.025227543 -0.11844893 -0.07792397 0.0362597
0.07176422 0.03952796 -0.0006228951 -0.012479989 0.069692574 -0.081818424 0.04426095 0.101786815
0.0074158143 0.02280851 0.0124701625 0.060165185 -0.099006675 -0.09283166 -0.06856182 0.045080967
-0.10592487 0.065874346 -0.054584756 0.07865163 -0.046099342 0.019606104 0.012694069 -0.06382684
-0.010376092 -0.042362425 -0.023724336 0.0933095 0.051851325 -0.043038573 -0.02844518 0.047124453
-0.08582259 -0.06459809 -0.0033926747 -0.01832538 0.0015708792 -0.027148135 -0.048645385 0.018319122
0.016040338 0.099270746 -0.022135539 0.05400977 0.009002169 -0.06477315 -0.04460629 0.005669574
0.06672588 -0.043502893 0.054490425 -0.016928283 0.11760434 -0.013172887 0.012856661 -0.07582876
-0.079240754 -0.0062104156 -0.10638694 -0.043157466 -0.029715689 -0.018283904 0.041163716 -0.058588214
-0.019230947 0.05065614 0.02446987 -0.056527242 -0.064954616 -0.07670411 0.067540936 -0.0052273953
-0.05132092 -0.046610136 0.054253206 0.031359613 -0.018754689 -0.0654592 -0.030305801 0.011553261
0.07233209 -0.12231914 0.043447122 0.021228483 0.007755656 -0.05432792 -0.032602653 -0.08890734
-0.019859228 -0.083843686 -0.055866312 -0.11341889 0.028074814 -0.057704438 -0.058663096 0.02003174

bias f4 [64]
00000000: d139 3c3d df2c 0bbe 512d 423d 4156 8f3d
00000010: 53dc a0bd c4b5 6a3c bca0 60bd 2876 b7bd
00000020: 1b89 ae3d 2b39 693d adb4 09bd 01c5 a53d
00000030: 81c5 8bbd 72ff 163d 86db 323c 2ec1 aabd
00000040: 8a8f 3b3d d241 bdbd fc85 2bbd c674 803d
00000050: 8240 883d 8632 a33d ca44 a73d 8cb4 9b3d
00000060: b885 9739 1703 c6bc 817c 4ebd 3ebf 1ebd
00000070: 5e26 8e3d e936 97bd 032f 1f3d a202 78bd
00000080: f6ef 973c 99ec 29bd f0c4 553d 4fcb 4dbb
00000090: fa2f 0fbd ffd2 98bd 471b 193d ebbd b33d
000000a0: c7b5 d23c 254a bcbc 7588 cd3d eb81 6e3d
000000b0: 4efe 9bbd eba4 debd 7185 bcbd 01b7 4dbd
000000c0: a6e2 b03d 3be7 993d 6f8f 4fbd 451e 8bbd
000000d0: 3ecd 99b9 ce6f 443d d3f5 1bbd c7ba 25bd
000000e0: f62b 57bd 53af d7bd 8cd5 a9bd d3b7 93bc
000000f0: 259c 173d 602b abbd 9476 8abd cd5e d0bb
0.045953576 -0.13591336 0.0474065 0.069988735 -0.078545235 0.014325563 -0.05484079 -0.089580834
0.085222445 0.056939285 -0.03361957 0.08094216 -0.0682478 0.036864705 0.010916596 -0.08337627
0.045791186 -0.0924107 -0.041875824 0.06272273 0.06652929 0.07968621 0.08167417 0.07602796
0.00028900593 -0.024171395 -0.050411705 -0.0387566 0.06940912 -0.0738352 0.038863193 -0.060549386
0.01854704 -0.041485403 0.052189767 -0.00314017 -0.034957863 -0.07462119 0.03737953 0.08776458
0.025721444 -0.022984574 0.10035793 0.05822937 -0.07616864 -0.10871299 -0.092051394 -0.050223354
0.0863698 0.07514807 -0.0506739 -0.06792883 -0.0002933535 0.047958188 -0.038076233 -0.040461328
-0.05253216 -0.10531487 -0.08292684 -0.01803199 0.037014145 -0.083578825 -0.06760898 -0.0063589574

weight f4 [64, 64]
00000000: 07c0 b1bd 6855 41bc 2aff e0bd 74df 05be
00000010: b7ab 5abd b521 1f3d 8d93 3e3b 65b1 8ab9
00000020: 5bec 673d 21d1 4d3d a68d 823d 86a2 dcbd
00000030: 51ee 66bd f143 eebd a2d3 c7bd a89c ca3b
00000040: faec 03be 3ad9 ed3d 1f2e 023e 19a3 633d
00000050: 072f 1abb 35e6 3c3d 7293 c63c a7e0 e1bd
00000060: 8bc0 eb3d 4960 a93d 0eeb 05bd ab49 653b
00000070: d01b 93bd 73ca 00bd 1450 a6bd 7d18 acbd
00000080: a37b bdbc cb59 c63d 1515 febd af1e ec3d
00000090: cb84 683d f3b4 ccbd 491d d23c 994b 02be
000000a0: 8a1a 9cba 5115 13be 5cd9 ff3a cc4d ec3b
000000b0: 3092 4fbd f06a edbd 689e 57bc 95b2 833d
000000c0: c317 cabd e946 f1bc b5ea 39bc d45e a9bc
000000d0: 0928 b3bc c327 ad3d 6074 c9bd ef1b 47bd
000000e0: 7c30 cb3d 47e5 85bb 3dbb 71bc 5fe5 17be
000000f0: df1a 963c a0e7 c5bd 78a7 523c 702f 7dbd
00000100: a3f9 233d b02a a4bd e5af c23d a2ee 23bd
00000110: 981c 92b8 d620 41bd b82a b13d c088 debc
00000120: dca2 c3bd ae05 4dbd a148 0bbd db06 fcbc
00000130: ef7e 143d a875 1d3c 97df c73d 7e8c abbd
00000140: 43be ff3d ca7b d83c 1519 423d f802 0cbc
00000150: c59a 07be 7f31 b63d 82cb 9b3d 9012 d2ba
00000160: 4808 12be 8cd5 c33d 774e e1bc 48e0 cf3d
00000170: 2415 c1bc b7cf 71bc accb 803d ac22 bdbd
00000180: 5751 a73d e12b cf3b 1290 93bc ff00 f03b
00000190: 7551 cf3d 3bf3 0ebc 42e7 cc3d c0ef 223d
000001a0: ff40 b2bd 418e cf3d c3d0 9dbd b36e 14bd
000001b0: ec47 f2bd 933d c6bc 8e58 a03d 7b7e 05be
000001c0: 1a7d 9b3c 9d30 68bb b914 a13d af9f 47bb
000001d0: 57f2 f2bd 6f32 42bd a992 b1bc 26c2 09bd
000001e0: 5c6d 25bd 477b a3bd 0980 b7bd 4c63 87bd
000001f0: 27a1 cbbc f3f8 fc3d bbcd a1bd 9478 d43d
00000200: 310f b63d dc78 8bbd 81da 69bb 86f5 09bd
00000210: 161b bb3b d08b 3fbc 0b1b f9bd a8f1 67bd
00000220: b591 f8bd 9775 cdbd dfb3 d4bc 3de9 5f3d
00000230: bda3 1e3d 441e d63b 6e8b b6bd 1026 eb3d
00000240: 19f7 8fbd 0b10 17bd 8920 f53d 8465 5d3c
00000250: 7bfa cf3d dbc2 33bd 1dc2 6abd 50d5 2d3e
00000260: 0b6d a8bc e65a 81bd 762c 3fbb b6d0 c3bd
00000270: 28ee eb3a 0cf6 1ebe 70fa 61bd de72 22bd
00000280: a8f4 b93d 04ab cd3d 501f c13d 6470 d2bd
00000290: 1406 d73d 335d 553d 96f3 b33d 68a3 20bd
000002a0: 98d1 33bd 5f78 8e3d fb07 f93d 3583 f0bd
000002b0: 3d6e acbd 17ec 1b3d ff67 933d a585 d83d
000002c0: 0f7b 77bd d9de bf3c 89be e1bc 41ad 88bd
000002d0: f8b0 a43d 2a8b a73c 292f 9c3d 6332 b23d
000002e0: 66ef 303d 4fe0 043d 6e0e 0d3c c490 9cbc
000002f0: 3e58 48bd 6b6c 61bd 0008 7dbd a643 af3a
00000300: 07a0 963c d7e3 d5bd 7559 7abd 09f0 cebd
00000310: 294c bebd 6e5c e7bd f517 92bd fbd0 debd
00000320: f1ef 1a3d fbb3 803c 318c d4bd 3c84 90bd
00000330: f9db a3bd 7909 debd 7016 b03d e130 d03d
00000340: 2991 b03d cbb2 ab3d a84c a1bd 1dcf 21bd
00000350: 82ac d0bb 5bb8 04be 4878 c8bd dc0f dd3c
00000360: 5bf8 753d d89d debc 40f8 463d 85d6 5c3d
00000370: 467d f93d fb8f 933c 9736 15bd 8544 9abd
00000380: b5bd a43d 1317 a6bd bac9 97bb aecc debc
00000390: 48aa 013e 8ee6 08ba 5b02 153d 9b02 59bd
000003a0: 984b 93bd 27b3 2bbd 3ae9 ce3d 273d 15bd
000003b0: be13 dbbc 4827 253d d9f1 93bd f6bd c73d
000003c0: 849e d6bb 2aa2 0ebc 69f4 e7bd 43ad c8bd
000003d0: b8fc 593c 96d2 e63d 705e 08bd 3b21 053d
000003e0: 22d6 07be 011a f8bc fb06 c6bd 9865 91bc
000003f0: 0d2d 663d 1d5f 84bb 57a4 d2bd 25e4 813d
-0.086792044 -0.011800148 -0.10986169 -0.13073522 -0.053386416 0.038850505 0.0029079646 -0.0002645358
0.05662189 0.05024827 0.063746735 -0.107731864 -0.05637962 -0.116340525 -0.09757163 0.0061832257
-0.12883368 0.11613698 0.12712906 0.055575464 -0.0023526566 0.04611798 0.02424023 -0.11029177
0.11511334 0.08270318 -0.03269487 0.0034986536 -0.07183039 -0.03144307 -0.081207424 -0.08403108
-0.023130244 0.096850954 -0.12406365 0.1152929 0.056767266 -0.09995451 0.02564873 -0.1272415
-0.0011909765 -0.143636 0.0019519734 0.0072114225 -0.050676525 -0.11592662 -0.013160326 0.06430546
-0.098678134 -0.029452758 -0.011347462 -0.0206751 -0.021869676 0.084548496 -0.0983665 -0.048610624
0.09921357 -0.00408617 -0.014754114 -0.14833592 0.01832336 -0.096633196 0.0128573105 -0.061812818
0.040032994 -0.080159545 0.095062055 -0.0400225 -6.9671485e-05 -0.047150455 0.08650726 -0.027164817
-0.09552547 -0.050054245 -0.03400481 -0.030764988 0.036253866 0.009610571 0.09759443 -0.08376406
0.124874614 0.026426215 0.0473872 -0.00854563 -0.13242634 0.088961594 0.076071754 -0.001602726
-0.14260972 0.09562215 -0.027503235 0.101502 -0.023569651 -0.014758996 0.06288847 -0.09235129
0.08169811 0.0063223694 -0.018013034 0.0073243375 0.101229586 -0.008724983 0.100050464 0.039779425
-0.08703803 0.10134555 -0.07705834 -0.036238384 -0.11830124 -0.024199283 0.078293905 -0.1303653
0.018980552 -0.0035429366 0.07865281 -0.003046017 -0.11862629 -0.04741138 -0.021676378 -0.03363242
-0.040387496 -0.07982498 -0.08959968 -0.06610736 -0.024857117 0.12352171 -0.07900568 0.10374561
0.08889616 -0.068101615 -0.0035683217 -0.033681415 0.005710016 -0.011691049 -0.12163361 -0.056626946
-0.121371664 -0.10032194 -0.025964675 0.054665793 0.03873037 0.0065343697 -0.08913313 0.11481869
-0.07029552 -0.036880534 0.11969096 0.013512973 0.10155197 -0.043887 -0.057314027 0.16975904
-0.020559808 -0.063161656 -0.0029170788 -0.09561293 0.0018000053 -0.15523547 -0.055170476 -0.039660327
0.090798676 0.10042384 0.094298005 -0.10275343 0.10499206 0.052090835 0.08786695 -0.039218336
-0.043901056 0.06956553 0.12159725 -0.11743776 -0.08419464 0.03806695 0.0719757 0.10572366
-0.060420092 0.023421692 -0.027556675 -0.066736706 0.080415666 0.0204521 0.076261826 0.08701017
0.04319706 0.03244048 0.008609397 -0.019111998 -0.04891228 -0.055035036 -0.061775208 0.0013371601
0.018386854 -0.104438476 -0.06112047 -0.10104377 -0.0929187 -0.112969264 -0.07133476 -0.108797036
0.037826482 0.015710821 -0.10378302 -0.07056472 -0.08000941 -0.108416505 0.085980296 0.10165573
0.08621437 0.083837114 -0.07875949 -0.03950416 -0.006368221 -0.12960951 -0.09788567 0.026985101
0.060051303 -0.027174875 0.048576593 0.05391552 0.12182097 0.018012991 -0.036429014 -0.075326
0.08043996 -0.0810987 -0.004632202 -0.027197208 0.12662613 -0.00052223436 0.0363792 -0.052981
-0.07192153 -0.0419189 0.10103078 -0.036435273 -0.026742812 0.040320665 -0.07223863 0.09753029
-0.0065496583 -0.008705655 -0.113259144 -0.09798672 0.013304882 0.11270635 -0.033293188 0.032502394
-0.13265279 -0.030285837 -0.096693 -0.017748639 0.056195308 -0.0040396587 -0.102852516 0.06342343

bias f4 [64]
00000000: 260e b33c 9d8f 793d 79e1 1fbd 8744 973d
00000010: 4024 4ab7 75fc 71bc c624 6dbd 4901 0fbd
00000020: d77e 853d e28d 45bc ff79 103e f40c a2bd
00000030: 35d7 853d b2b4 7e3d c2cf 9c3d 31fd b93d
00000040: 511f ea3d 5cfb b53b 9e5b a43d ed50 213d
00000050: b624 84bd 2f7e 98bc a44b a13d 0fb9 f3bd
00000060: 5036 17bd c62a 30bd 938f ca3d 552e 43bd
00000070: 668b 96bb 6ab0 f6bc eda8 b63d 94a8 95bd
00000080: 8dd2 d43d 146b dabc 3883 01be 7896 a9bb
00000090: b503 cc3d 6f92 96bd 21bd f4bd f0e5 3bbb
000000a0: 94a3 e43c 369e 883d 778f d33d d7f3 b2bd
000000b0: 5c9c e9bd 27df 0a3e f66c b03d c307 903d
000000c0: 22d3 e73c 41be 18bc b2e1 eebd a720 a13d
000000d0: 8751 ce3d abb8 f53d 2050 06bc 8c27 ccbd
000000e0: da09 ea3d fdc4 73bc d844 3cbd 4d52 90bc
000000f0: 2231 90bd f13e 41bd 041f 883b 3694 ebbd
0.021857332 0.060927976 -0.039033387 0.073861174 -1.2048578e-05 -0.014769663 -0.057896398 -0.034913335
0.065183334 -0.012057753 0.14109038 -0.07912627 0.06535188 0.062184043 0.07656814 0.090814956
0.114317544 0.005553646 0.08025287 0.039383817 -0.064523146 -0.018614857 0.078757554 -0.119005315
-0.03691703 -0.043009542 0.09890666 -0.047651608 -0.0045942543 -0.030113418 0.08918939 -0.07307544
0.10391722 -0.026662387 -0.12647712 -0.005175408 0.099616446 -0.07352149 -0.11950136 -0.002867099
0.027910031 0.06670801 0.10330098 -0.08737915 -0.11406776 0.13561688 0.08614533 0.070327304
0.028298918 -0.009322704 -0.11664142 0.07867556 0.10074144 0.11998113 -0.008197814 -0.099684805
0.1142766 -0.014878509 -0.045964092 -0.01761737 -0.07040621 -0.047179166 0.004154088 -0.11502878

weight f4 [64, 64]
00000000: 791c 053d bdcb 553d 1e2e a53d 6230 bb3d
00000010: e819 e13d e59e c53d edee ae3d 0e26 37bc
00000020: aa5c 0dbd c5bb 0d3d 27c4 c13c bfed 27be
00000030: 43f4 d2bd 6ad3 36bb 1bae 55bd d690 03be
00000040: b0d3 56bd 4234 86bd 9607 3cbd 3e1e 963b
00000050: d204 ff3a b54d 503d 8fc3 8a3d 25df 8bbd
00000060: e20f a5bd 2d69 3e3d 1d9b 5d3c 6a5a 6cbd
00000070: d823 bd3d 173c c53a ec60 cbbd f0e5 8ebc
00000080: e8db a93b 8d59 0bbd 4029 603d 738a 5b3d
00000090: eae0 22bd e8ac e33d 6c4e 113e b6c8 61bd
000000a0: 9784 0a3d d6ff 223d c316 ef3d 2c88 65bd
000000b0: 2e5e b2bc 7e04 5ebc 4c91 80bd 7566 d53d
000000c0: 5bc7 75bd e6d7 513d 0efd e13d 0713 a6bd
000000d0: 2626 e43d 514c fdbb 84ca 003e ea24 b03d
000000e0: 8cc5 eebc 4ce8 213c 2c93 61bc d840 353d
000000f0: 8a21 06be 505a c3bc fd06 663d f0df d8bd
00000100: bff0 d33d 324c 853d 22a0 87bd b96f d8bd
00000110: 0cdc fa3c d1d0 b33a 4259 80bd 6915 f5bc
00000120: 6382 0a3e 9b8f d63d 75f7 3ebb 45d5 b6bc
00000130: 3202 df3d 0e48 c53b 75e8 853d 3c2c d83d
00000140: d879 7c3c 4433 813c b30b f83c 9d51 8dbd
00000150: c10a 003e 1510 a83d 9660 14bd 9216 cd3d
00000160: f541 d8bd 529f aa3d e3f2 0abe 650b 50bc
00000170: 7ca1 babd 6143 cabc 35bf c0bc d7bd e2bd
00000180: b953 a03d 027c efbd a013 433d 566d 013e
00000190: 44a6 1d3b e430 2abc b569 8e3c 34a3 c33d
000001a0: 4693 ec3d d765 06be 6318 563d d0c2 9cbd
000001b0: c4dd f2bd a77a 4ebc 732b 2c3d a39f 18be
000001c0: ac8f 4a3c 4d0c 3e3d 4298 d43d 4c45 cc3d
000001d0: c5e9 c33c eec4 953d df9e 24bd 5c21 67bd
000001e0: fbdc 913b 1e44 0dbd ba66 9f3c c35c adbc
000001f0: 75fe 75bd e031 9f3b 983d 4d3d 302a 85bd
00000200: 3208 42bb 5013 983d 49ad a23d c127 f53c
00000210: 6bf8 64bc ce7b 7b3d 7d61 8abd 628d 0dbe
00000220: cf83 e8bd a348 dbbd a5ad e73c 5a2b 9f3d
00000230: 8af4 6b3d 2888 f5bc 3406 db3d a8c0 a43b
00000240: b0b4 ad3d c0c6 adbb 35cd 923d 00c4 a0bd
00000250: 4246 9bbd b241 7e3d adb5 0dbe 8f5d d93d
00000260: 9896 d63d 0338 cf3d fc16 11bd b07e 693d
00000270: cf2e a23d e28f 423d 3c90 46bd 498d 103d
00000280: ee8d d03d 9dab c6bc 7066 5bbd 1889 26bd
00000290: b1b1 c73d 4b8a 95bb bdf7 aabd cce5 bfbd
000002a0: 4b59 313d 7095 f53d b3ce 34bc 54a6 f93d
000002b0: 05fa a03d 87d5 3a3d cc52 d4bd 1ae3 c7bd
000002c0: 723d a43c bbc9 07bd 6f81 dabc b6dd df3d
000002d0: f463 003d 5a33 b33c 7f36 5ebd 6281 3c3d
000002e0: e401 d93d 60f2 96bd 9fb9 5dbd b571 893d
000002f0: a140 833d cfc8 85bd 19ce f6bd 1b7e 6b3d
00000300: c8cc 273d b83e d7bd 64b0 48bd 8104 d3bd
00000310: 4f1d 043d ff00 b7bb f7c3 f43c 7cc3 d33d
00000320: 26e5 e8bb baa8 bcbd 4da7 9c3d 191c c7bd
00000330: 3a57 b33d 1517 2b3c 236e cb3d 9b17 c2bd
00000340: 9480 d43d 15ad db3d aeac a23c c61a 96bb
00000350: d874 f63c 2785 913d a0d0 b4bd 75b4 a03d
00000360: 694b 62bd 5041 ecbd 4d26 723d 6ffa e2bc
00000370: fd83 87bd 24e0 f73d a3e6 dd3c c3d9 4dbd
00000380: 3d29 413d f8cf d63c cdce 97bd a690 c8bd
00000390: 8114 c5bd cfcc cd3d cc48 283b bf5a e53d
000003a0: 1307 28bd 1d34 173d 6e0f c2bd 44db 5abd
000003b0: 0c93 e3bd 3c28 96bd 3f9f d3bd b407 1a3d
000003c0: 1701 f63d ea8e 3f3d ada0 ca3c e46a 80bd
000003d0: bcb3 3b3c 98fd 36bd 426b 1e3d 640f 91bd
000003e0: e4a2 d2bd 9864 e7bd 8b20 2fbd 1849 093e
000003f0: 3c77 d5bd c5da c7bd 21ee 22bd 3102 a6bd
0.032497857 0.052196253 0.08065437 0.09140088 0.10991269 0.09649447 0.08541665 -0.011178507
-0.0345122 0.0346029 0.023653103 -0.16399287 -0.103004955 -0.0027897009 -0.052167993 -0.1284822
-0.052447975 -0.06552936 -0.045905672 0.004581242 0.0019456393 0.050855357 0.06775581 -0.06829671
-0.0805967 0.046487022 0.013525751 -0.057703413 0.09235352 0.0015047815 -0.09930596 -0.017443627
0.0051836856 -0.03402095 0.05472684 0.053598832 -0.039765276 0.111169636 0.14190072 -0.055123053
0.033817854 0.039794765 0.11674263 -0.056038067 -0.021773424 -0.013550876 -0.06277713 0.10419933
-0.060004573 0.051231287 0.110345945 -0.08109098 0.11140089 -0.007730045 0.12577254 0.08600791
-0.029146932 0.009882044 -0.013767999 0.044251293 -0.13098732 -0.023846775 0.05615901 -0.10589588
0.10348653 0.06508674 -0.0662234 -0.105681844 0.030622505 0.0013718848 -0.062670246 -0.029917436
0.13526301 0.10476609 -0.0029139195 -0.022318492 0.108890906 0.0060205525 0.06538478 0.10555312
0.015409909 0.015771516 0.030279016 -0.06900332 0.12504102 0.082061924 -0.036224924 0.100140706
-0.10559455 0.08331169 -0.13569216 -0.012698029 -0.09112832 -0.024690332 -0.023528675 -0.11071365
0.07828469 -0.116935745 0.047626138 0.12639365 0.00240554 -0.010387633 0.01738439 0.09552613
0.11551528 -0.13124786 0.05226935 -0.07654345 -0.11858705 -0.012602485 0.042033624 -0.14904647
0.012363356 0.04639845 0.103806034 0.09974155 0.023915181 0.07312952 -0.040190574 -0.0564283
0.0044513918 -0.03448879 0.019458164 -0.021162396 -0.060057122 0.0048582405 0.05010757 -0.06502187
-0.0029606936 0.074255586 0.07943208 0.029926183 -0.013975243 0.061397366 -0.06756876 -0.13823465
-0.113532655 -0.10707214 0.028281042 0.077719405 0.057606257 -0.02997215 0.106945425 0.005027849
0.08481729 -0.005303234 0.071680464 -0.07849884 -0.0758176 0.06207437 -0.13838835 0.10613548
0.10477942 0.10118105 -0.03542231 0.057005584 0.07919084 0.0475005 -0.048477396 0.03529099
0.10183321 -0.024251753 -0.05356449 -0.040658087 0.09750689 -0.004563605 -0.083480336 -0.09370002
0.043298047 0.119913936 -0.011035609 0.12189928 0.078601874 0.04561379 -0.10367355 -0.09760113
0.02004883 -0.03315137 -0.026673047 0.1093096 0.031345323 0.021875072 -0.05425119 0.046021827
0.10596064 -0.07370448 -0.0541321 0.06711141 0.06408811 -0.06532442 -0.12051029 0.05749331
0.04096678 -0.105100095 -0.048996344 -0.103035934 0.032254513 -0.0055848355 0.0298786 0.1034002
-0.0071073947 -0.092118695 0.076490976 -0.09722156 0.087568715 0.010442515 0.09933116 -0.09477159
0.10376087 0.10726372 0.01985773 -0.0045808284 0.030085012 0.07105475 -0.088288546 0.078469194
-0.055247698 -0.11535895 0.059118558 -0.027707307 -0.06616972 0.12103298 0.027087515 -0.050256502
0.04715847 0.026222214 -0.07412491 -0.097932145 -0.096230514 0.1004883 0.0025678156 0.11198949
-0.04102237 0.036914933 -0.09475599 -0.053431764 -0.11112031 -0.07331893 -0.10333108 0.037605003
0.120119266 0.046767153 0.02473482 -0.06270388 0.011456426 -0.04467544 0.038676508 -0.07083014
-0.10284975 -0.112984836 -0.042755645 0.1340679 -0.10423133 -0.09758524 -0.03977788 -0.08105887
