hetgnn_model.pt (torch, 531568 bytes, 107 tensors)

weight f4 [64, 1]
0	0x3ed19aa8	0.40938306
1	0xbeb58628	-0.35453916
2	0xbed55ca0	-0.4167223
3	0x3eeac4c2	0.4585324
4	0x3edadb9d	0.42745677
5	0xbdd64ba4	-0.10463646
6	0xbec1e2cb	-0.37868342
7	0x3ec9bb09	0.3940051
8	0x3f3bbdee	0.73336685
9	0xbea69518	-0.32535625
10	0x3f710f3f	0.9416389
11	0x3f56b083	0.83863086
12	0xbf1641e8	-0.58694315
13	0x3f1ce2a3	0.6128332
14	0x3ec23c64	0.379367
15	0xbd8e3500	-0.06943703
16	0xbf612d96	-0.87960184
17	0xbf62ea66	-0.88638914
18	0xbc874040	-0.016510129
19	0xbe9b3b16	-0.30318516
20	0xbf616510	-0.88044834
21	0x3f4632da	0.77421343
22	0xbf169dce	-0.5883454
23	0xbf19f3c8	-0.60137606
24	0x3f6f24e3	0.9341566
25	0x3eab6021	0.33471778
26	0x3f787644	0.9705546
27	0xbf085436	-0.53253496
28	0xbee48cec	-0.44638765
29	0x3ea90ef9	0.33019236
30	0xbe9a417a	-0.3012808
31	0xbdfaf180	-0.12253094
32	0x3f182e08	0.5944524
33	0xbf3cbddc	-0.737272
34	0x3ece1180	0.40247726
35	0xbf5be940	-0.85902786
36	0x3e513a68	0.20432436
37	0x3e9bb08c	0.30408132
38	0x3f0c375a	0.5477196
39	0x3f024321	0.5088368
40	0x3ebd75ff	0.37004086
41	0xbe8d8564	-0.2764083
42	0xbe68d160	-0.2273612
43	0x3f35bf30	0.70994854
44	0xbf45a11c	-0.7719896
45	0x3f42756e	0.75960433
46	0xbf536582	-0.82576764
47	0xbeebae62	-0.4603148
48	0xbeea0ea2	-0.4571429
49	0x3f80036c	1.0001044
50	0xbf307820	-0.68933296
51	0xbf1ca378	-0.61186934
52	0x3f00efb6	0.5036577
53	0x3eb98580	0.36234665
54	0xbf7ea8f0	-0.9947653
55	0xbeaa2c40	-0.33236885
56	0xbeff7750	-0.49895716
57	0xbeae02e0	-0.33986568
58	0x3f77555d	0.9661463
59	0x3f4f38e4	0.80946183
60	0x3e632dac	0.22185391
61	0x3f56a67c	0.83847785
62	0xbf41ba66	-0.75675046
63	0x3f740031	0.9531279

bias f4 [64]
0	0xbf105b5e	-0.56389415
1	0x3da39df0	0.079891086
2	0xbf6de3ac	-0.92925525
3	0xbe3c705a	-0.18402234
4	0x3eb880dd	0.36035815
5	0x3e3ca31b	0.18421595
6	0x3f33e14b	0.70265645
7	0x3c093690	0.008374825
8	0x3f0db027	0.5534691
9	0x3f767080	0.9626541
10	0xbe501397	-0.20319973
11	0xbd8ea162	-0.06964375
12	0xbd12cea0	-0.035841584
13	0x3f476133	0.7788269
14	0xbf59a222	-0.8501302
15	0xbe879c48	-0.2648642
16	0x3d8e6980	0.06953716
17	0xbc819fc0	-0.015823245
18	0xbf0f85e6	-0.5606369
19	0x3f6fe189	0.93703514
20	0xbf6c8a9e	-0.92399013
21	0xbf1e99ab	-0.6195323
22	0xbf51bb34	-0.81926274
23	0x3e032ea8	0.12810767
24	0xbce78ec1	-0.028266313
25	0x3e8559af	0.26044986
26	0xbf7bd930	-0.98378277
27	0xbebea024	-0.37231553
28	0xbe7a9398	-0.24470365
29	0x3deb6ac0	0.1149497
30	0x3f3e0e5c	0.7424066
31	0xbf52fe56	-0.82419336
32	0xbf7dc71e	-0.99131954
33	0x3f5cc14d	0.86232454
34	0xbf191654	-0.59799695
35	0x3f559482	0.8342973
36	0xbf5c2890	-0.85999393
37	0xbf48ead0	-0.78483295
38	0xbf6da780	-0.9283371
39	0xbda00650	-0.07813704
40	0x3f3e309b	0.74292916
41	0xbf21f5f6	-0.6326593
42	0x3f535213	0.8254711
43	0xbf4a0732	-0.7891723
44	0x3ea8c7b4	0.3296486
45	0xbe31a62b	-0.17348544
46	0x3f18f272	0.5974494
47	0x3f413857	0.7547659
48	0x3f7c2b0e	0.98503196
49	0x3e8067c3	0.25079164
50	0xbe94f674	-0.2909428
51	0x3f4c85e3	0.79891795
52	0xbf132260	-0.5747433
53	0xbf620a78	-0.88297224
54	0x3f464568	0.77449656
55	0xbe98f5f8	-0.2987516
56	0xbf0d8b24	-0.55290437
57	0xbe6d1650	-0.23153043
58	0xbdbbee8c	-0.091763586
59	0xbeec05cb	-0.4609817
60	0x3e1b60d0	0.1517365
61	0xbd9e1f3a	-0.077208
62	0xbec5c0a4	-0.38623536
63	0xbda5c86b	-0.08094867

weight f4 [64]
0	0x3f800000	1.0
1	0x3f800000	1.0
2	0x3f800000	1.0
3	0x3f801012	1.0004904
4	0x3f80672b	1.0031484
5	0x3f7f46a0	0.9971714
6	0x3f7f546c	0.9973819
7	0x3f805844	1.0026937
8	0x3f807090	1.0034351
9	0x3f7efc7e	0.9960402
10	0x3f7f6bbe	0.99773777
11	0x3f7ec85b	0.9952447
12	0x3f800000	1.0
13	0x3f801d06	1.0008857
14	0x3f800000	1.0
15	0x3f800000	1.0
16	0x3f800000	1.0
17	0x3f800000	1.0
18	0x3f800000	1.0
19	0x3f802c87	1.0013589
20	0x3f800000	1.0
21	0x3f802df9	1.001403
22	0x3f800000	1.0
23	0x3f800000	1.0
24	0x3f8035a0	1.0016365
25	0x3f80243b	1.0011057
26	0x3f800000	1.0
27	0x3f800000	1.0
28	0x3f800000	1.0
29	0x3f804289	1.0020305
30	0x3f800000	1.0
31	0x3f800000	1.0
32	0x3f800000	1.0
33	0x3f7fb4d9	0.99885327
34	0x3f800000	1.0
35	0x3f800000	1.0
36	0x3f800000	1.0
37	0x3f800000	1.0
38	0x3f800000	1.0
39	0x3f7f4ba6	0.99724805
40	0x3f7fa051	0.99854
41	0x3f800000	1.0
42	0x3f7fcd38	0.99922514
43	0x3f800000	1.0
44	0x3f800000	1.0
45	0x3f806bce	1.0032899
46	0x3f800000	1.0
47	0x3f802aba	1.0013039
48	0x3f806a70	1.0032482
49	0x3f806e48	1.0033655
50	0x3f800000	1.0
51	0x3f8044c7	1.0020989
52	0x3f800000	1.0
53	0x3f800000	1.0
54	0x3f800000	1.0
55	0x3f800000	1.0
56	0x3f800000	1.0
57	0x3f800000	1.0
58	0x3f8041aa	1.0020039
59	0x3f7fa60b	0.99862736
60	0x3f805267	1.0025147
61	0x3f8062de	1.0030172
62	0x3f800000	1.0
63	0x3f7f1677	0.99643654

bias f4 [64]
0	0x3b3df4c9	0.0028985015
1	0x3a0b7a37	0.00053206406
2	0x3b56dd7c	0.0032785824
3	0xbb3d6c48	-0.0028903652
4	0xba7e903c	-0.00097108237
5	0x3b4dbc39	0.0031392707
6	0x3b6c75bd	0.003608092
7	0xbb2343e0	-0.0024912283
8	0x3b8ca7a2	0.0042924443
9	0xbb574f6a	-0.003285373
10	0x3a46763c	0.0007570719
11	0x3aa85712	0.0012843332
12	0x3adcef07	0.0016855904
13	0x3ad4c6fa	0.0016233616
14	0xb976148c	-0.00023468042
15	0xbb6a5501	-0.0035756233
16	0xba829b8d	-0.0009964571
17	0xbb830fcd	-0.0039996863
18	0xbb860ab0	-0.0040906295
19	0xbb209486	-0.002450259
20	0xbb74efe6	-0.0037374436
21	0x3b16bae2	0.0022999574
22	0xbb47b347	-0.0030471848
23	0x3afd45b8	0.0019323146
24	0xbadc2c80	-0.001679793
25	0x3b4aec1c	0.0030963486
26	0x3b995d34	0.0046803
27	0x3ad32889	0.0016110103
28	0xb802a920	-3.1151925e-05
29	0xbb3f82ec	-0.0029222323
30	0x3b7e26a2	0.0038780351
31	0xbb33c774	-0.0027432116
32	0xbaf900b6	-0.0018997404
33	0xba9c24b6	-0.0011912796
34	0x3a39fc4c	0.0007094785
35	0x3b175c4f	0.0023095792
36	0xbb4688f1	-0.0030294026
37	0xbb36e5a9	-0.0027907884
38	0x39f35466	0.00046411454
39	0xbb6a2600	-0.0035728216
40	0xb99828c6	-0.00029022078
41	0x3b39468e	0.0028270814
42	0x39296f00	0.00016158447
43	0xbb12cfef	-0.002240177
44	0xbb4858e8	-0.003057057
45	0x3b8990d6	0.004198174
46	0x3b2e2614	0.002657299
47	0xbb7b511b	-0.0038347903
48	0xbb10de68	-0.002210522
49	0xbba3e392	-0.0050014937
50	0xbb6f10b4	-0.0036478462
51	0x3aee0af6	0.0018161226
52	0x3b14145f	0.002259515
53	0x3b1ba20a	0.0023747706
54	0x3b56d300	0.0032779574
55	0xbae830e0	-0.0017714761
56	0xbb2b3eb0	-0.0026129894
57	0xb88c27af	-6.683112e-05
58	0xbb3490b4	-0.002755207
59	0x3b8c0d45	0.004274043
60	0x3b22bc2e	0.0024831402
61	0xba61fdda	-0.00086208957
62	0x3af7d37f	0.0018907635
63	0xba6bcf99	-0.0008995473

running_mean f4 [64]
0	0x00000000	0.0
1	0x00000000	0.0
2	0x00000000	0.0
3	0x3e03c7f5	0.12869246
4	0x3ebd8f5d	0.3702344
5	0x3d1757ec	0.036949083
6	0x3e1c12be	0.15241525
7	0x3e3f8a25	0.18705042
8	0x3f1a6797	0.60314316
9	0x3e9858d4	0.2975527
10	0x3eb1d748	0.3473456
11	0x3eb9b15d	0.3626813
12	0x00000000	0.0
13	0x3f270279	0.6523815
14	0x00000000	0.0
15	0x00000000	0.0
16	0x00000000	0.0
17	0x00000000	0.0
18	0x00000000	0.0
19	0x3e98bb9a	0.2983063
20	0x00000000	0.0
21	0x3d904670	0.07044685
22	0x00000000	0.0
23	0x00000000	0.0
24	0x3ed95aa1	0.42451957
25	0x3e8f8964	0.28034508
26	0x00000000	0.0
27	0x00000000	0.0
28	0x00000000	0.0
29	0x3e5509da	0.2080454
30	0x3e52f3fa	0.20600882
31	0x00000000	0.0
32	0x00000000	0.0
33	0x3d775af8	0.06038949
34	0x00000000	0.0
35	0x00000000	0.0
36	0x00000000	0.0
37	0x00000000	0.0
38	0x00000000	0.0
39	0x3e4f0336	0.20216069
40	0x3f0554ee	0.5208272
41	0x00000000	0.0
42	0x3e8fce3e	0.28087038
43	0x00000000	0.0
44	0x00000000	0.0
45	0x3e8cc720	0.2749567
46	0x00000000	0.0
47	0x3e0dd179	0.13849439
48	0x3e7e253a	0.24818888
49	0x3f15c168	0.5849824
50	0x00000000	0.0
51	0x3db3e52c	0.087839454
52	0x00000000	0.0
53	0x00000000	0.0
54	0x00000000	0.0
55	0x00000000	0.0
56	0x00000000	0.0
57	0x00000000	0.0
58	0x3ed16550	0.40897608
59	0x3e267fab	0.16259639
60	0x3e32c72c	0.1745879
61	0x3eb662e4	0.35622323
62	0x00000000	0.0
63	0x3ed21a19	0.41035536

running_var f4 [64]
0	0x3f080c83	0.5314409
1	0x3f080c83	0.5314409
2	0x3f080c83	0.5314409
3	0x3f080c83	0.5314409
4	0x3f080c83	0.5314409
5	0x3f080c83	0.5314409
6	0x3f080c83	0.5314409
7	0x3f080c83	0.5314409
8	0x3f080c83	0.5314409
9	0x3f080c83	0.5314409
10	0x3f080c83	0.5314409
11	0x3f080c83	0.5314409
12	0x3f080c83	0.5314409
13	0x3f080c83	0.5314409
14	0x3f080c83	0.5314409
15	0x3f080c83	0.5314409
16	0x3f080c83	0.5314409
17	0x3f080c83	0.5314409
18	0x3f080c83	0.5314409
19	0x3f080c83	0.5314409
20	0x3f080c83	0.5314409
21	0x3f080c83	0.5314409
22	0x3f080c83	0.5314409
23	0x3f080c83	0.5314409
24	0x3f080c83	0.5314409
25	0x3f080c83	0.5314409
26	0x3f080c83	0.5314409
27	0x3f080c83	0.5314409
28	0x3f080c83	0.5314409
29	0x3f080c83	0.5314409
30	0x3f080c83	0.5314409
31	0x3f080c83	0.5314409
32	0x3f080c83	0.5314409
33	0x3f080c83	0.5314409
34	0x3f080c83	0.5314409
35	0x3f080c83	0.5314409
36	0x3f080c83	0.5314409
37	0x3f080c83	0.5314409
38	0x3f080c83	0.5314409
39	0x3f080c83	0.5314409
40	0x3f080c83	0.5314409
41	0x3f080c83	0.5314409
42	0x3f080c83	0.5314409
43	0x3f080c83	0.5314409
44	0x3f080c83	0.5314409
45	0x3f080c83	0.5314409
46	0x3f080c83	0.5314409
47	0x3f080c83	0.5314409
48	0x3f080c83	0.5314409
49	0x3f080c83	0.5314409
50	0x3f080c83	0.5314409
51	0x3f080c83	0.5314409
52	0x3f080c83	0.5314409
53	0x3f080c83	0.5314409
54	0x3f080c83	0.5314409
55	0x3f080c83	0.5314409
56	0x3f080c83	0.5314409
57	0x3f080c83	0.5314409
58	0x3f080c83	0.5314409
59	0x3f080c83	0.5314409
60	0x3f080c83	0.5314409
61	0x3f080c83	0.5314409
62	0x3f080c83	0.5314409
63	0x3f080c83	0.5314409

weight f4 [64, 1]
0	0xbe1a7567	-0.15083848
1	0x3ecc8ebc	0.39952648
2	0xbe571380	-0.21003532
3	0x3f0a9980	0.5414047
4	0xbef47444	-0.47744954
5	0xbd8fae10	-0.07015622
6	0xbdbb32d0	-0.09140551
7	0x3f7b502b	0.981692
8	0xbf7a8c76	-0.97870576
9	0xbf4c5e3c	-0.7983129
10	0xbdbf0f00	-0.09329033
11	0x3f2f2532	0.6841613
12	0xbf33d710	-0.70250034
13	0x3f16dc66	0.5893005
14	0x3f5d4985	0.86440307
15	0x3f487bdb	0.7831399
16	0x3f386d71	0.72041994
17	0xbeab7b94	-0.3349272
18	0xbd561ce0	-0.05227363
19	0x3e35fef0	0.17773032
20	0x3f4a3a94	0.78995633
21	0x3e98b5d9	0.2982624
22	0xbe6ee9a0	-0.23331308
23	0x3e93455f	0.28763863
24	0x3eeb92c0	0.460104
25	0x3f6d8389	0.9277883
26	0xbe4fbca0	-0.20286798
27	0x3f33ccd8	0.7023444
28	0xbeeb3b21	-0.4594355
29	0xbea29c80	-0.31760025
30	0x3f10a091	0.56495005
31	0xbf02ba4a	-0.51065505
32	0xbe69bca5	-0.22825868
33	0xbe73d548	-0.23811829
34	0xbeebb170	-0.46033812
35	0xbf58058c	-0.84383464
36	0x3c25f516	0.010129234
37	0xbf753c96	-0.9579557
38	0xbf4c5780	-0.79821014
39	0xbe1f2220	-0.15540361
40	0x3ef359b6	0.47529382
41	0x3f4ebd8b	0.8075797
42	0xbf77b9c6	-0.9676784
43	0xbd7d27e0	-0.061805606
44	0x3f3bf632	0.7342254
45	0xbf5012cc	-0.8127868
46	0x3ea19bf8	0.31564307
47	0x3ec6c842	0.3882466
48	0x3e60a205	0.21936806
49	0x3f531f11	0.8246928
50	0xbd1ebcbb	-0.038754206
51	0xbf7902d4	-0.9726994
52	0x3e8a061c	0.26957786
53	0xbf275508	-0.6536412
54	0xbe420b08	-0.1894952
55	0x3f2425c0	0.641201
56	0xbf76e524	-0.9644339
57	0xbe8c77a8	-0.2743504
58	0x3d9f96c5	0.07792429
59	0xbef8f6ac	-0.48625696
60	0x3f60312f	0.8757505
61	0x3f261214	0.64871335
62	0xbd96fef0	-0.07372844
63	0x3f41e59a	0.7574097

bias f4 [64]
0	0x3f366d73	0.71260756
1	0x3cee5ff9	0.029098498
2	0xbeae3014	-0.34021056
3	0xbf1cf7b4	-0.61315465
4	0xbe8d7c64	-0.27633965
5	0x3c449d00	0.012000322
6	0xbf264dcc	-0.6496246
7	0xbdd369b9	-0.10322899
8	0xbf38c3c4	-0.72173715
9	0xbf0e7216	-0.5564283
10	0xbeb4d0d0	-0.3531556
11	0x3e894ed7	0.26817963
12	0x3f053d26	0.5204643
13	0xbe64a891	-0.22329928
14	0xbea86e85	-0.3289682
15	0xbe70b79d	-0.23507543
16	0x3e0406c3	0.12893204
17	0xbf0c9446	-0.5491375
18	0xbf12c104	-0.5732577
19	0xbf086182	-0.53273785
20	0xbf2a4022	-0.6650411
21	0x3d24e706	0.040259384
22	0xbf551282	-0.83231366
23	0x3ed09c1c	0.40744102
24	0xbf7df16c	-0.99196506
25	0xbee2539e	-0.4420442
26	0xbebee504	-0.372841
27	0xbf5e6742	-0.8687631
28	0x3f14a068	0.5805726
29	0x3f38417b	0.71974915
30	0x3ea69fdd	0.3254384
31	0xbf532544	-0.8247874
32	0x3eea4ccb	0.45761713
33	0xbd8d1d40	-0.068903446
34	0x3e861174	0.2618519
35	0xbf4a325c	-0.7898309
36	0x3db7caf9	0.08974261
37	0xbd98f9a0	-0.07469487
38	0x3f03e22c	0.51516986
39	0xbde61410	-0.11234295
40	0x3e1857a1	0.14877178
41	0xbf1a8cfb	-0.6037137
42	0xbf2f4b48	-0.68474245
43	0xbe235918	-0.15951955
44	0xbf4aece0	-0.7926769
45	0xbf1a2792	-0.6021663
46	0xbef237fc	-0.47308338
47	0xbe98a301	-0.29811862
48	0x3e7bdacd	0.24595185
49	0x3e39b70b	0.18136232
50	0x3f49918d	0.7873772
51	0xbf26bb7e	-0.6512984
52	0xbf1857e4	-0.5950911
53	0x3f58dc81	0.8471146
54	0xbe85cb20	-0.26131535
55	0x3ea7e1be	0.32789415
56	0xbf3f3e10	-0.74704075
57	0xbea3649c	-0.31912696
58	0x3c945f9d	0.018111998
59	0xbeed0160	-0.46290112
60	0xbf3c4945	-0.735493
61	0x3f0209e7	0.5079636
62	0xbda4a290	-0.08038819
63	0x3e85e64a	0.2615226

weight f4 [64]
0	0x3f7f89c6	0.998196
1	0x3f7fad51	0.99873835
2	0x3f800000	1.0
3	0x3f800000	1.0
4	0x3f800000	1.0
5	0x3f800000	1.0
6	0x3f800000	1.0
7	0x3f805e08	1.0028696
8	0x3f800000	1.0
9	0x3f800000	1.0
10	0x3f800000	1.0
11	0x3f7fb170	0.99880123
12	0x3f800000	1.0
13	0x3f8072d6	1.0035045
14	0x3f7fd5f0	0.9993582
15	0x3f7ee8d9	0.9957405
16	0x3f7fc47c	0.99909186
17	0x3f800000	1.0
18	0x3f800000	1.0
19	0x3f800000	1.0
20	0x3f803152	1.0015051
21	0x3f802ed8	1.0014296
22	0x3f800000	1.0
23	0x3f801442	1.0006182
24	0x3f800000	1.0
25	0x3f8040d1	1.001978
26	0x3f800000	1.0
27	0x3f800000	1.0
28	0x3f800332	1.0000975
29	0x3f804cee	1.0023477
30	0x3f7f721d	0.997835
31	0x3f800000	1.0
32	0x3f7f88b5	0.99817973
33	0x3f800000	1.0
34	0x3f800000	1.0
35	0x3f800000	1.0
36	0x3f806fa9	1.0034076
37	0x3f800000	1.0
38	0x3f800000	1.0
39	0x3f800000	1.0
40	0x3f7ef098	0.99585867
41	0x3f7fd6ed	0.99937326
42	0x3f800000	1.0
43	0x3f800000	1.0
44	0x3f800000	1.0
45	0x3f800000	1.0
46	0x3f800000	1.0
47	0x3f7fb077	0.9987864
48	0x3f806bfe	1.0032957
49	0x3f80576e	1.0026681
50	0x3f7eb4b3	0.99494475
51	0x3f800000	1.0
52	0x3f800000	1.0
53	0x3f7f3615	0.996919
54	0x3f800000	1.0
55	0x3f7f0aef	0.9962606
56	0x3f800000	1.0
57	0x3f800000	1.0
58	0x3f805e65	1.0028807
59	0x3f800000	1.0
60	0x3f8018b6	1.0007541
61	0x3f809972	1.0046828
62	0x3f800000	1.0
63	0x3f808e91	1.0043508

bias f4 [64]
0	0x3b42663d	0.002966299
1	0x3bb86eda	0.005628449
2	0x3a9b9270	0.0011869203
3	0xbae976d0	-0.0017811898
4	0xbad7c028	-0.0016460465
5	0x3b1b942e	0.0023739445
6	0x3ae06467	0.0017119766
7	0xbb817ce0	-0.003951654
8	0xbb6adc78	-0.0035836976
9	0x3b0cf403	0.0021507747
10	0x3b8c7266	0.0042860983
11	0x3b0402d5	0.002014329
12	0x3b0904a0	0.0020907298
13	0xbb853256	-0.0040648384
14	0x3b288b27	0.0025717707
15	0xbba6cdf1	-0.005090468
16	0x3af7e9f0	0.0018914323
17	0x3ab65ee5	0.0013913779
18	0x3ba14162	0.0049211243
19	0xbb65e57b	-0.0035079408
20	0x3a084ddb	0.00051995897
21	0xbb5dd39f	-0.003384806
22	0xbb89c547	-0.0042044255
23	0xbb0a7059	-0.0021124093
24	0x3b24ce4c	0.0025147377
25	0x3adbc2b6	0.0016766402
26	0xbb4d532c	-0.0031330092
27	0x3aef0fa5	0.0018238915
28	0x3acaa6bc	0.0015461068
29	0xb94ab199	-0.00019330381
30	0x3b66686e	0.003515746
31	0x3b391600	0.0028241873
32	0xbad9dd7e	-0.0016621796
33	0x3b5e41c0	0.0033913702
34	0x3af26a6b	0.001849485
35	0x3b89cd26	0.004205364
36	0x3bacb018	0.0052700154
37	0xbb39efb4	-0.0028371634
38	0xbb7fdb38	-0.0039040577
39	0xbb2e24d7	-0.0026572251
40	0xb8e99120	-0.000111373374
41	0x3b58505d	0.0033006885
42	0x3ad063a9	0.0015898842
43	0xba017ebc	-0.00049398444
44	0x3b4a225d	0.0030843236
45	0xbb4e26d8	-0.0031456258
46	0x3babe274	0.005245501
47	0x3b3b0016	0.0028533987
48	0x3b9f9ff1	0.0048713614
49	0x3a08b746	0.0005215298
50	0x3b3a433a	0.0028421418
51	0x3a1cc311	0.0005979995
52	0xbaef94f5	-0.0018278646
53	0x3b82b1a8	0.0039884634
54	0x3a7e03b2	0.00096898817
55	0x39837ae0	0.00025077816
56	0xba7e7f41	-0.00097082934
57	0x3b3aeb45	0.002852158
58	0x3b2594bb	0.0025265652
59	0xbb5b0cea	-0.0033424445
60	0xbac40c31	-0.0014957247
61	0x3b11af33	0.002222967
62	0xbb90269a	-0.004399133
63	0xb937a466	-0.00017513483

running_mean f4 [64]
0	0x3e85aed2	0.2610994
1	0x3e4f3858	0.20236337
2	0x00000000	0.0
3	0x00000000	0.0
4	0x00000000	0.0
5	0x00000000	0.0
6	0x00000000	0.0
7	0x3ed389bc	0.4131602
8	0x00000000	0.0
9	0x00000000	0.0
10	0x00000000	0.0
11	0x3ee4e155	0.44703165
12	0x00000000	0.0
13	0x3e2e980e	0.17050192
14	0x3e7f4db9	0.24931993
15	0x3e828571	0.25492433
16	0x3ecbebb3	0.39828262
17	0x00000000	0.0
18	0x00000000	0.0
19	0x00000000	0.0
20	0x3d6acf1c	0.05732642
21	0x3e2215c0	0.1582861
22	0x00000000	0.0
23	0x3ea5c7ca	0.3237899
24	0x00000000	0.0
25	0x3e68b167	0.22723924
26	0x00000000	0.0
27	0x00000000	0.0
28	0x3d693b0f	0.05694109
29	0x3e401f16	0.18761858
30	0x3ed5df4f	0.41771933
31	0x00000000	0.0
32	0x3ddce35c	0.10785553
33	0x00000000	0.0
34	0x00000000	0.0
35	0x00000000	0.0
36	0x3d3d696c	0.046243116
37	0x00000000	0.0
38	0x00000000	0.0
39	0x00000000	0.0
40	0x3e955058	0.2916286
41	0x3dc28adb	0.09499141
42	0x00000000	0.0
43	0x00000000	0.0
44	0x00000000	0.0
45	0x00000000	0.0
46	0x00000000	0.0
47	0x3d2b5495	0.04182871
48	0x3e5f5d0c	0.21812838
49	0x3ef1a0ef	0.47193095
50	0x3eb3052a	0.34964877
51	0x00000000	0.0
52	0x00000000	0.0
53	0x3db6a934	0.08918992
54	0x00000000	0.0
55	0x3ee7ed2c	0.45298135
56	0x00000000	0.0
57	0x00000000	0.0
58	0x3d3b196b	0.045678537
59	0x00000000	0.0
60	0x3d865d55	0.065607704
61	0x3f0a8a52	0.5411731
62	0x00000000	0.0
63	0x3ef346e5	0.47515026

running_var f4 [64]
0	0x3f080c83	0.5314409
1	0x3f080c83	0.5314409
2	0x3f080c83	0.5314409
3	0x3f080c83	0.5314409
4	0x3f080c83	0.5314409
5	0x3f080c83	0.5314409
6	0x3f080c83	0.5314409
7	0x3f080c83	0.5314409
8	0x3f080c83	0.5314409
9	0x3f080c83	0.5314409
10	0x3f080c83	0.5314409
11	0x3f080c83	0.5314409
12	0x3f080c83	0.5314409
13	0x3f080c83	0.5314409
14	0x3f080c83	0.5314409
15	0x3f080c83	0.5314409
16	0x3f080c83	0.5314409
17	0x3f080c83	0.5314409
18	0x3f080c83	0.5314409
19	0x3f080c83	0.5314409
20	0x3f080c83	0.5314409
21	0x3f080c83	0.5314409
22	0x3f080c83	0.5314409
23	0x3f080c83	0.5314409
24	0x3f080c83	0.5314409
25	0x3f080c83	0.5314409
26	0x3f080c83	0.5314409
27	0x3f080c83	0.5314409
28	0x3f080c83	0.5314409
29	0x3f080c83	0.5314409
30	0x3f080c83	0.5314409
31	0x3f080c83	0.5314409
32	0x3f080c83	0.5314409
33	0x3f080c83	0.5314409
34	0x3f080c83	0.5314409
35	0x3f080c83	0.5314409
36	0x3f080c83	0.5314409
37	0x3f080c83	0.5314409
38	0x3f080c83	0.5314409
39	0x3f080c83	0.5314409
40	0x3f080c83	0.5314409
41	0x3f080c83	0.5314409
42	0x3f080c83	0.5314409
43	0x3f080c83	0.5314409
44	0x3f080c83	0.5314409
45	0x3f080c83	0.5314409
46	0x3f080c83	0.5314409
47	0x3f080c83	0.5314409
48	0x3f080c83	0.5314409
49	0x3f080c83	0.5314409
50	0x3f080c83	0.5314409
51	0x3f080c83	0.5314409
52	0x3f080c83	0.5314409
53	0x3f080c83	0.5314409
54	0x3f080c83	0.5314409
55	0x3f080c83	0.5314409
56	0x3f080c83	0.5314409
57	0x3f080c83	0.5314409
58	0x3f080c83	0.5314409
59	0x3f080c83	0.5314409
60	0x3f080c83	0.5314409
61	0x3f080c83	0.5314409
62	0x3f080c83	0.5314409
63	0x3f080c83	0.5314409

weight f4 [64, 2]
0	0x3d7d75a0	0.061879754
1	0x3e192234	0.14954454
2	0x3d46e8db	0.048561912
3	0x3eca9784	0.39568722
4	0xbb90101c	-0.0043964516
5	0xbf21e170	-0.63234615
6	0xbd30b267	-0.043138888
7	0x3f0956f7	0.5364832
8	0x3f28aaac	0.65885425
9	0xbe0d0ae3	-0.13773684
10	0x3f357abd	0.7089041
11	0x3e3b9db4	0.18321878
12	0xbee59f46	-0.44848078
13	0x3f1f72d7	0.62284607
14	0x3f2cd471	0.6751166
15	0xbf342397	-0.70366806
16	0xbf191637	-0.5979952
17	0x3ee0e506	0.4392473
18	0xbcf4158f	-0.029795436
19	0x3e91ffcd	0.28515473
20	0x3cbb1acf	0.022839932
21	0x3e089336	0.13337407
22	0xbf0d2a52	-0.551427
23	0xbf1a8639	-0.6036106
24	0xbf049ff4	-0.5180657
25	0x3f277484	0.65412164
26	0xbf1fb978	-0.6239238
27	0x3f07fad4	0.5311711
28	0x3e9e68ea	0.30939418
29	0x3f32f88c	0.699105
30	0xbe9b56e1	-0.3033972
31	0x3ecf33f6	0.4046933
32	0x3ef5d544	0.4801427
33	0xbe1dd789	-0.15414251
34	0x3cbaae80	0.022788286
35	0xbde77c28	-0.11302978
36	0xbeabbfd2	-0.33544785
37	0xbf08949a	-0.5335175
38	0x3f34b858	0.70593786
39	0xbeb6c9ac	-0.35700738
40	0xbf27236f	-0.6528844
41	0x3f1de590	0.6167841
42	0x3f2be410	0.6714487
43	0x3eb9ae8c	0.3626598
44	0x3eaf12be	0.34193987
45	0xbf2974f8	-0.66194105
46	0x3e7a95f7	0.2447127
47	0x3e5fcf51	0.21856429
48	0xbeb34f39	-0.3502138
49	0x3eeced21	0.46274665
50	0x3f03df2a	0.51512396
51	0xbe516fa9	-0.20452751
52	0xbf10ec08	-0.56610155
53	0xbee19f83	-0.4406701
54	0x3f16dae2	0.5892774
55	0x3f092e89	0.5358663
56	0x3f14d494	0.5813687
57	0xbea158a8	-0.31512952
58	0x3ea08dd6	0.31358212
59	0x3ec40b4e	0.38289875
60	0x3dbb9fc8	0.09161335
61	0xbe9c0408	-0.30471826
62	0x3e7d959f	0.24764107
63	0x3d96ca3d	0.07362793
64	0x3e4244ac	0.18971509
65	0xbd84e790	-0.064894795
66	0x3d471860	0.04860723
67	0x3dfb2fc0	0.12264967
68	0xbf2ed94a	-0.68300307
69	0x3eb08662	0.34477526
70	0xbf152589	-0.582604
71	0x3dd153f8	0.10221094
72	0x3f2a91e8	0.66628885
73	0x3f130411	0.5742808
74	0x3d0c2cb9	0.03422234
75	0x3eea0589	0.45707348
76	0x3dec78f2	0.11546506
77	0x3ed6850b	0.4189838
78	0x3f3418ca	0.70350325
79	0x3e2edd2a	0.17076555
80	0xbe7a97c5	-0.24471958
81	0x3eab71f2	0.3348537
82	0x3dbeca02	0.09315874
83	0x3f111e77	0.5668711
84	0x3ea51857	0.32245132
85	0x3d7e2daa	0.062055267
86	0xbea8b8f2	-0.32953602
87	0x3ef6f3c8	0.48232865
88	0x3eb3dec1	0.35130885
89	0x3e0c077e	0.13674733
90	0xbefd0ca8	-0.49423718
91	0xbf182d75	-0.5944436
92	0x3f1ed941	0.62050253
93	0x3ec4d630	0.38444662
94	0x3ecc2a5d	0.3987607
95	0x3e733355	0.2375005
96	0x3ea522f2	0.32253224
97	0xbd489ad8	-0.048975796
98	0xbf23e20b	-0.6401679
99	0xbdb19520	-0.086710215
100	0xbf07b614	-0.53012204
101	0xbeb6489c	-0.35602272
102	0x3f2335b2	0.6375381
103	0x3d0b6a50	0.034036934
104	0xbf03a484	-0.51422906
105	0x3eccee8c	0.40025747
106	0x3e223757	0.15841423
107	0x3e015846	0.1263133
108	0x3f308a17	0.6896071
109	0xbca2705c	-0.019828968
110	0xbea01d75	-0.31272474
111	0x3e8d7acb	0.27632746
112	0x3dc54302	0.09631921
113	0x3ea3436b	0.31887373
114	0xbf1f895c	-0.6231897
115	0xbec05331	-0.3756347
116	0x3f305a4a	0.6888777
117	0xbe2115cb	-0.1573097
118	0x3ecfabd6	0.40560788
119	0xbe06c6f8	-0.13161838
120	0xbe6a64ae	-0.22889969
121	0x3dda51d7	0.10660141
122	0x3e85e174	0.2614857
123	0x3e86d676	0.26335496
124	0xbe78a0bc	-0.24280065
125	0x3e524cc0	0.2053709
126	0x3d9ecfa5	0.07754449
127	0xbe5b1432	-0.21394423

bias f4 [64]
0	0xbf0523ec	-0.5200794
1	0xbe597538	-0.21236122
2	0x3f11dd9a	0.5697876
3	0xbecd0a98	-0.40047145
4	0x3ef2cf7c	0.47423923
5	0xbd1d19c2	-0.038354643
6	0x3e7cbad1	0.2468064
7	0x3ece011e	0.40235227
8	0xbf037dc6	-0.5136379
9	0xbe840982	-0.25788504
10	0x3d3cf6e0	0.046133876
11	0x3d7c06fa	0.06153009
12	0x3f183855	0.59460956
13	0x3ea41642	0.3204823
14	0xbf3153ff	-0.6926879
15	0xbf231d36	-0.6371645
16	0xbcb3e25a	-0.021958519
17	0xbe870550	-0.2637124
18	0xbe3fb5b4	-0.18721658
19	0xbed447c6	-0.4146101
20	0x3e8a14ca	0.26968986
21	0x3e4abcc4	0.19798571
22	0xbe3917b2	-0.18075445
23	0x3ea9e28e	0.3318066
24	0x3e92504a	0.2857688
25	0xbd71d4a0	-0.059040666
26	0x3e27736d	0.16352625
27	0xbf0b6018	-0.544435
28	0xbdd0da81	-0.10197926
29	0xbf2b642f	-0.66949743
30	0xbe9016cd	-0.28142396
31	0x3e363bc6	0.1779624
32	0x3f2da0f8	0.67823744
33	0xbf0a069c	-0.53916335
34	0xbeebd29c	-0.4605912
35	0xbf18ba8c	-0.5965965
36	0x3e67ddd8	0.2264322
37	0x3eb5d353	0.3551279
38	0x3ecab29c	0.39589393
39	0xbebfc5c6	-0.37455577
40	0x3e7070b5	0.23480494
41	0xbe1fd46c	-0.15608376
42	0xbeb6832b	-0.35646948
43	0xbe2f3b37	-0.17112432
44	0x3ee19621	0.44059852
45	0xbdd6e080	-0.10492039
46	0x3d364fc9	0.044509683
47	0xbeaa99b0	-0.3332038
48	0x3f1c9315	0.6116193
49	0xbe742914	-0.23843795
50	0x3f235b39	0.6381107
51	0xbf0f1dbe	-0.5590476
52	0xbca9c508	-0.020723835
53	0x3e34a795	0.17642052
54	0xbe36469d	-0.17800374
55	0x3f111a5e	0.5668086
56	0xbebe106c	-0.37121904
57	0xbea86ba0	-0.3289461
58	0x3f1bb565	0.6082366
59	0x3e5da66f	0.2164552
60	0x3f22165e	0.6331538
61	0xbc8b135e	-0.016977008
62	0xbf070436	-0.527408
63	0xbd5300e7	-0.051514532

weight f4 [64]
0	0x3f800000	1.0
1	0x3f808d1a	1.0043061
2	0x3f807376	1.0035236
3	0x3f805eda	1.0028946
4	0x3f7fce9d	0.9992464
5	0x3f806414	1.0030541
6	0x3f803b06	1.0018013
7	0x3f805159	1.0024825
8	0x3f800000	1.0
9	0x3f807a82	1.0037386
10	0x3f809beb	1.0047582
11	0x3f7f6709	0.99766594
12	0x3f7f3960	0.9969692
13	0x3f802412	1.0011008
14	0x3f807316	1.0035121
15	0x3f800000	1.0
16	0x3f809a26	1.0047042
17	0x3f800000	1.0
18	0x3f800000	1.0
19	0x3f807c22	1.0037882
20	0x3f801845	1.0007406
21	0x3f7eb1ce	0.9949006
22	0x3f7fc939	0.99916416
23	0x3f7f370b	0.99693364
24	0x3f7f2404	0.9966433
25	0x3f7f5ca9	0.99750763
26	0x3f7f4401	0.9971314
27	0x3f7f64e3	0.99763316
28	0x3f7f42fe	0.99711597
29	0x3f800000	1.0
30	0x3f800000	1.0
31	0x3f7ebd83	0.9950792
32	0x3f7f83c7	0.9981045
33	0x3f800000	1.0
34	0x3f800000	1.0
35	0x3f800000	1.0
36	0x3f7f8982	0.99819195
37	0x3f7fbe73	0.9989998
38	0x3f7f0ee6	0.9963211
39	0x3f7ef3f1	0.99590975
40	0x3f802947	1.0012597
41	0x3f7fbed1	0.9990054
42	0x3f800a7e	1.0003202
43	0x3f7f377c	0.9969404
44	0x3f7f5699	0.9974151
45	0x3f800000	1.0
46	0x3f809699	1.0045959
47	0x3f801bea	1.0008519
48	0x3f801039	1.0004951
49	0x3f800000	1.0
50	0x3f7f1797	0.9964537
51	0x3f7ef57c	0.9959333
52	0x3f8044f7	1.0021046
53	0x3f8069f6	1.0032337
54	0x3f7f0dc9	0.9963041
55	0x3f80449d	1.0020939
56	0x3f7fe153	0.9995319
57	0x3f800000	1.0
58	0x3f7f729c	0.99784255
59	0x3f7f3cd3	0.99702185
60	0x3f8009b8	1.0002966
61	0x3f805fb5	1.0029207
62	0x3f800000	1.0
63	0x3f804722	1.0021708

bias f4 [64]
0	0x3a80508a	0.0009789628
1	0x3a909876	0.0011031765
2	0x388cb1f2	6.708865e-05
3	0x3b4d64c6	0.0031340583
4	0xba47b051	-0.0007617521
5	0xbb91e762	-0.004452632
6	0xbb25e2b6	-0.0025312132
7	0x3b44989f	0.0029998196
8	0xba304cd0	-0.0006725313
9	0x3b9c2196	0.004764746
10	0xb9d52383	-0.00040652984
11	0x3b91d998	0.004450988
12	0x39e11997	0.0004293441
13	0x3b19a720	0.0023445562
14	0x3b8efdc0	0.0043637455
15	0x3baa30d6	0.00519381
16	0xbb3d5a37	-0.0028892884
17	0xba4e8d25	-0.00078793085
18	0x3b329bd4	0.0027253525
19	0x3ab507eb	0.0013811564
20	0x3b410aea	0.0029455968
21	0xbab0914a	-0.0013471034
22	0xbb9311cb	-0.004488205
23	0x3938944e	0.00017602855
24	0x3b5cc2d0	0.0033685453
25	0xbab653d0	-0.0013910476
26	0xbb1f58ef	-0.0024314483
27	0xbb2b6e9f	-0.0026158465
28	0xb9c1249d	-0.00036839108
29	0xbb0fd281	-0.0021945538
30	0xbb4c8df6	-0.0031212545
31	0xba911799	-0.0011069655
32	0x3b67766c	0.0035318388
33	0x3aac93ab	0.0013166567
34	0x39f039fc	0.0004581957
35	0x3a08f27f	0.0005224123
36	0x3ad4dec8	0.001624071
37	0xba15fdad	-0.00057216996
38	0xbaef6f08	-0.0018267343
39	0x3b95a8b0	0.0045672283
40	0xba5b98b3	-0.0008376941
41	0x3ace5d10	0.0015744288
42	0xbb7dfde1	-0.003875606
43	0x3a982b7a	0.0011609637
44	0xbb51fc8e	-0.0032041403
45	0x3b084776	0.0020794547
46	0x3ac5f010	0.0015101451
47	0x3baa9355	0.0052055516
48	0xbae02df4	-0.0017103539
49	0x3b96832a	0.0045932727
50	0x3b02f8ba	0.0019984678
51	0x3b3e492f	0.002903532
52	0xb9bbe2aa	-0.00035836297
53	0xbb1f19e6	-0.0024276911
54	0x3b3a84f8	0.0028460603
55	0xbb3ae193	-0.00285158
56	0xbb9485ae	-0.0045325374
57	0xba16d390	-0.0005753571
58	0xbb5fe2bc	-0.0034162244
59	0x393ccf91	0.00018006402
60	0x39e8679c	0.00044327683
61	0xbb8c2b86	-0.0042776493
62	0x3b4f25cf	0.003160823
63	0xba10524a	-0.0005505426

running_mean f4 [64]
0	0x00000000	0.0
1	0x3d041e3c	0.032255396
2	0x3e43ead3	0.19132547
3	0x3bcce671	0.0062530567
4	0x3f03c33d	0.51469785
5	0x3e8c6686	0.2742197
6	0x3e76c8e5	0.24100073
7	0x3e8dfe09	0.27732876
8	0x00000000	0.0
9	0x397ee525	0.0002430869
10	0x3db39ecd	0.08770523
11	0x3905bb3a	0.00012753616
12	0x3ef49544	0.4777013
13	0x3e53600a	0.20642105
14	0x3c4a5500	0.012349367
15	0x00000000	0.0
16	0x3dcab4af	0.09897744
17	0x00000000	0.0
18	0x00000000	0.0
19	0x3b8c2c51	0.004277744
20	0x3e45586c	0.19272012
21	0x3efc6327	0.49294397
22	0x3a407ee6	0.0007343128
23	0x3ecb44f5	0.39701048
24	0x3e7d0b4a	0.24711338
25	0x3da13af6	0.07872574
26	0x3abd5286	0.001444415
27	0x3d72b439	0.059253905
28	0x3d675266	0.056475066
29	0x00000000	0.0
30	0x00000000	0.0
31	0x3e70f098	0.23529279
32	0x3f075d46	0.528767
33	0x00000000	0.0
34	0x00000000	0.0
35	0x00000000	0.0
36	0x3f160987	0.5860829
37	0x3ed85648	0.42253327
38	0x3ef02269	0.46901253
39	0x3d92ae55	0.071621574
40	0x3e4dc76b	0.20095603
41	0x3df8f344	0.12155774
42	0x3902f503	0.0001248904
43	0x3c8f47b4	0.017490245
44	0x3ef5c555	0.48002115
45	0x00000000	0.0
46	0x3ec02d03	0.3753434
47	0x3cd44398	0.025911137
48	0x3f07db87	0.5306935
49	0x00000000	0.0
50	0x3e24d32f	0.16096185
51	0x3b3bc6a8	0.0028652344
52	0x3cdb4433	0.026765918
53	0x3e63e286	0.2225438
54	0x3dea1f7d	0.11431787
55	0x3ecaa6bf	0.39580342
56	0x398936a3	0.00026171384
57	0x00000000	0.0
58	0x3f1d02c8	0.6133237
59	0x3e7c8ece	0.2466385
60	0x3ed38a39	0.41316393
61	0x3e2acdce	0.16680071
62	0x00000000	0.0
63	0x3826bd6d	3.97539e-05

running_var f4 [64]
0	0x3e909a97	0.28242943
1	0x3e920e16	0.28526372
2	0x3e99d0df	0.30042168
3	0x3e90da84	0.28291714
4	0x3e9afd61	0.30271438
5	0x3e9e2194	0.30884993
6	0x3e9d08f9	0.30670908
7	0x3ea37e16	0.31932133
8	0x3e909a97	0.28242943
9	0x3e909af9	0.28243235
10	0x3e911187	0.28333685
11	0x3e909b8c	0.28243673
12	0x3e9fcf49	0.31212834
13	0x3e9de6d3	0.30840167
14	0x3e918299	0.2841995
15	0x3e909a97	0.28242943
16	0x3e94e974	0.2908436
17	0x3e909a97	0.28242943
18	0x3e909a97	0.28242943
19	0x3e90dbb9	0.28292635
20	0x3e9f878e	0.31158108
21	0x3e9ff958	0.31244922
22	0x3e90a1ff	0.28248593
23	0x3e93804f	0.2880883
24	0x3e97f223	0.29676923
25	0x3e9499d6	0.29023618
26	0x3e90a942	0.28254133
27	0x3e9612dc	0.29311264
28	0x3e941564	0.2892257
29	0x3e909a97	0.28242943
30	0x3e909a97	0.28242943
31	0x3e924d3c	0.2857455
32	0x3e9180d6	0.28418607
33	0x3e909a97	0.28242943
34	0x3e909a97	0.28242943
35	0x3e909a97	0.28242943
36	0x3ea56a8c	0.3230785
37	0x3e95de3a	0.29271108
38	0x3e9581c9	0.2920058
39	0x3e95f3ac	0.2928747
40	0x3e945dde	0.28977865
41	0x3e978032	0.29589993
42	0x3e909ac2	0.2824307
43	0x3e91a913	0.28449306
44	0x3e944a4a	0.28962928
45	0x3e909a97	0.28242943
46	0x3e9ebcdd	0.31003466
47	0x3e91f47d	0.28506842
48	0x3e931c86	0.287327
49	0x3e909a97	0.28242943
50	0x3e99a2ec	0.30007112
51	0x3e90b985	0.2826654
52	0x3e927d37	0.28611156
53	0x3e91b469	0.28457955
54	0x3e982564	0.29716027
55	0x3e94607b	0.2897986
56	0x3e909b44	0.28243458
57	0x3e909a97	0.28242943
58	0x3e9c095f	0.304759
59	0x3e94b6df	0.2904577
60	0x3e9203ce	0.28518528
61	0x3e944f38	0.2896669
62	0x3e909a97	0.28242943
63	0x3e909ab1	0.2824302

weight f4 [64, 128]
0	0x3d0dc8b4	0.034615234
1	0xbb858266	-0.0040743826
2	0x3d5ce0c2	0.053925283
3	0xbd4b163a	-0.049581744
4	0x3cde106c	0.02710744
5	0x3d9177ff	0.071029656
6	0x3d5dd0c2	0.054154165
7	0xbceb4e0c	-0.02872374
8	0xbda95f1a	-0.08270092
9	0xbc19843f	-0.009369909
10	0x3d959626	0.07304029
11	0x3daf717b	0.085665666
12	0xbd5ccf17	-0.053908434
13	0x3da9b371	0.08286179
14	0x3d01e72f	0.031714614
15	0x3d25332e	0.040332012
16	0x3c17d4a0	0.009267002
17	0x3d93827e	0.07202624
18	0xbbde06d6	-0.0067757173
19	0x3c09c787	0.008409387
20	0xbd260dbe	-0.04054045
21	0xbd67447c	-0.056461796
22	0xbc87f3d6	-0.016595762
23	0xbd7c0dc8	-0.06153658
24	0x3769cea0	1.3935991e-05
25	0xbd5a39b7	-0.053277697
26	0x3d25199a	0.04030762
27	0x3d9329c8	0.071857035
28	0xbd2b8e16	-0.04188355
29	0x3cf3d841	0.029766204
30	0x3d956afa	0.07295795
31	0x3c5b8b42	0.013399901
32	0x3da76155	0.081728615
33	0xbd81b1f1	-0.06332768
34	0x3b3eeb67	0.002913201
35	0xbcff6df0	-0.031180352
36	0xbd976306	-0.07391934
37	0xbcc4544a	-0.023965973
38	0xbda483e5	-0.080329694
39	0xbcb3e4f4	-0.02195976
40	0xbd8c3d20	-0.06847596
41	0x3ceedc30	0.029157728
42	0xbd0cef19	-0.03440771
43	0xbcff2706	-0.031146538
44	0xbda28ce8	-0.07937032
45	0x3c19580c	0.009359371
46	0x3dad256f	0.084544055
47	0xbccf1ff0	-0.025283784
48	0xbd74a6f1	-0.05972952
49	0xbd902399	-0.0703804
50	0xbce14136	-0.027496915
51	0xbc7e0cea	-0.015506009
52	0xbc9f0300	-0.01941061
53	0x3da56d87	0.08077531
54	0xbd1c511e	-0.038163297
55	0x3dae71a1	0.08517767
56	0x3d261ede	0.04055678
57	0xbc9585a4	-0.018252201
58	0x3d184458	0.037174553
59	0xbd2ea83b	-0.042640906
60	0x3a6741cc	0.0008821755
61	0xbd7c729d	-0.06163274
62	0xbb9ca92e	-0.00478091
63	0xbcb28890	-0.021793634
64	0xbda84066	-0.08215408
65	0xbd968b03	-0.07350733
66	0x3cd7ecfb	0.026358118
67	0xbda26e34	-0.07931176
68	0x3db15073	0.086579226
69	0xbd9d6867	-0.07685929
70	0xbd0665ff	-0.032812115
71	0x3d199564	0.037495986
72	0xbcb5a14a	-0.022171635
73	0xbd9d4c88	-0.07680613
74	0x3be33559	0.00693385
75	0x3d3c9052	0.046036072
76	0x3c4aaf89	0.012370952
77	0xbd4ce0e3	-0.050019156
78	0xbd89f256	-0.06735675
79	0xbc64d9c4	-0.013967935
80	0x3cb01c52	0.02149788
81	0x3cbba0fa	0.022903908
82	0x3d18d940	0.03731656
83	0xbcbbb0fb	-0.02291154
84	0x3d33cdac	0.043897316
85	0x3b8e66a2	0.004345731
86	0x3c36ef3f	0.011165439
87	0xbc82a7d5	-0.01594917
88	0xbd02aed0	-0.031904995
89	0xbd4fbad3	-0.05071528
90	0x3d8ade5a	0.067806914
91	0x3cc3ae1c	0.023886733
92	0x3d8b25b0	0.06794298
93	0xbc50a90e	-0.012735618
94	0x3d88b9c1	0.06676055
95	0xbc4f7eb2	-0.012664484
96	0x3db03d0b	0.08605393
97	0xbd7c9fdb	-0.061675888
98	0x3d5d49b3	0.054025363
99	0x3cf0769f	0.029353438
100	0xbc328747	-0.01089651
101	0x3db3f2a4	0.087865144
102	0x3becd408	0.0072274245
103	0xbd6bfc1a	-0.05761347
104	0x3d7dfad7	0.062006798
105	0x3a99dcd2	0.0011738783
106	0xbd9d06bc	-0.076673
107	0x3d2ee30c	0.042696998
108	0x3d7686b2	0.06018705
109	0x3d4e7c6d	0.05041163
110	0xbd1d9b3b	-0.038478117
111	0x3d00b915	0.031426508
112	0x3cec8a7a	0.028874625
113	0xbcb82929	-0.022480564
114	0xbd220bfa	-0.039562203
115	0xbce380c9	-0.02777137
116	0xbda45a59	-0.08025045
117	0xbcf63d33	-0.030058479
118	0x3cecf9b8	0.028927669
119	0xbc111b25	-0.008856569
120	0xbd5429cb	-0.05179767
121	0x3dafa7fd	0.08576963
122	0x3bf81f0f	0.007572062
123	0xbd0442ec	-0.032290384
124	0xbd45534b	-0.048175137
125	0xbcbc7063	-0.023002809
126	0x3db4c76a	0.08827098
127	0xbd09d0c8	-0.033646375
128	0xbd213706	-0.039359115
129	0x3d55cdcf	0.052198227
130	0xbd3bfe17	-0.045896616
131	0x3d3b4ac3	0.045725595
132	0x3d947040	0.072479725
133	0x3d9e7a9a	0.07738228
134	0xbd7c6cff	-0.061627384
135	0x3cf49abd	0.029858941
136	0xbce32320	-0.02772671
137	0x3d4929a7	0.04911199
138	0x3d5b50c6	0.05354383
139	0xbd66f4ae	-0.05638569
140	0xbd9d3ca5	-0.07677583
141	0x3d81ba60	0.06334376
142	0x3ca9cc9d	0.02072745
143	0x3cb1116c	0.021614753
144	0xbdadfe18	-0.0849573
145	0xbc369b07	-0.01114536
146	0xbdafd454	-0.0858542
147	0x3bded298	0.006800007
148	0x3d0bc1f2	0.034120508
149	0x3d136ad0	0.035990536
150	0x3d27c2f4	0.040957406
151	0x3cf3ccb5	0.029760698
152	0x3dbae2be	0.09125279
153	0x3c37cf66	0.011218881
154	0xbda65d12	-0.081232205
155	0x3cff7c05	0.031187067
156	0xbd04073e	-0.03223347
157	0xbd67c0b9	-0.05658028
158	0x3cbc3937	0.0229765
159	0x3c75fe2f	0.015014215
160	0xbca5d77a	-0.020244349
161	0x3ba7c64a	0.0051200734
162	0xbda678dd	-0.081285216
163	0x3d40b3f4	0.047046617
164	0x3da86e04	0.08224109
165	0xbcc35894	-0.023845948
166	0x3cea3337	0.028588874
167	0xbd6e092c	-0.058114216
168	0xbc54bc29	-0.012984314
169	0xbcf0be41	-0.029387595
170	0x3d5e6e2a	0.05430428
171	0x3cd6fa9e	0.02624255
172	0xbcd0834c	-0.025453232
173	0x3d122fc1	0.035690073
174	0xbda5a562	-0.08088185
175	0xbbb30ebf	-0.0054644044
176	0x3d2a9f55	0.041655857
177	0x3d65af95	0.05607565
178	0x3d7e2cfe	0.062054627
179	0x3d7f9ba4	0.06240429
180	0xbd5fb375	-0.054614503
181	0xbc173969	-0.009229996
182	0x3c5b8fc6	0.0134009775
183	0x3d94fb94	0.07274547
184	0xbd81bccd	-0.06334839
185	0x3cffbcf1	0.031218024
186	0x3b378c27	0.0028007121
187	0x3cb0f41a	0.021600772
188	0xbd5ecfec	-0.05439751
189	0xbcb79e15	-0.022414247
190	0xbd9c935c	-0.07645294
191	0x3c4c70c4	0.012478057
192	0xbd012b88	-0.031535655
193	0xbc0ebc56	-0.008711895
194	0x3cd6cdb8	0.026221141
195	0x3d0636bc	0.032767043
196	0x3bc2b4cb	0.0059419624
197	0x3cef065c	0.029177837
198	0x3c5d7cac	0.013518494
199	0xbd94b8ce	-0.07261811
200	0xbc14421a	-0.009048963
201	0x3d190f54	0.037368134
202	0xbc9ecdc6	-0.01938523
203	0xbd569960	-0.052392364
204	0xbd9b3b3c	-0.075796574
205	0x3c26bdbd	0.010177073
206	0xbd1baf44	-0.038008943
207	0xbcf6cf32	-0.030128095
208	0xbd8c3cfd	-0.0684757
209	0xbce7e496	-0.02830724
210	0x3d8daf95	0.06918255
211	0xbcc1c9b7	-0.023655755
212	0x3db43187	0.08798509
213	0x3c6df435	0.0145235555
214	0xbd629a64	-0.05532302
215	0xbd8c3094	-0.06845203
216	0x3bd9faa4	0.006652193
217	0xb9cb0b54	-0.00038727617
218	0xbce15031	-0.027504059
219	0x3c823b17	0.015897317
220	0xbd11939d	-0.035541166
221	0x3ce4e015	0.027938882
222	0x3c934854	0.017978825
223	0x3d8259c4	0.06364778
224	0xbd38fc39	-0.045162413
225	0xbd6661b7	-0.056245532
226	0xbb186dbc	-0.0023258766
227	0xbd78367e	-0.060598843
228	0x3db2ee3d	0.087368466
229	0x3d86bc31	0.065788634
230	0x3cc723d0	0.024309069
231	0x3ac0664a	0.0014678922
232	0xbd2eb8f3	-0.04265685
233	0xbc993065	-0.018699834
234	0xbd6c199c	-0.05764161
235	0xbd808194	-0.06274715
236	0x3db3c0ea	0.0877703
237	0xbd84bdb1	-0.06481493
238	0xbd74d293	-0.05977113
239	0x3d200888	0.039070636
240	0x3d2af7aa	0.041740097
241	0x3d2070e6	0.03917017
242	0xbd9909cb	-0.07472571
243	0xbc607952	-0.0137008
244	0xbcf35c55	-0.029707113
245	0x3db11631	0.08646811
246	0xbd22f196	-0.039781176
247	0x3c5a5c4d	0.01332767
248	0xbd912810	-0.070877194
249	0x3d0361f7	0.03207585
250	0xbd9a738e	-0.075415716
251	0xbccbe9d9	-0.02489178
252	0x3c8d9308	0.017282024
253	0xbbb0106d	-0.005373052
254	0xbd01aa07	-0.03165629
255	0xbc473ff1	-0.012161241

bias f4 [64]
0	0xbdb3ffe9	-0.08789045
1	0x3c6db906	0.014509445
2	0x3d54b3e1	0.05192936
3	0x3d53b0dd	0.05168234
4	0xbd0e790a	-0.0347834
5	0xbd31bcaa	-0.043392815
6	0x3d4e5735	0.050376136
7	0x3d9aecd7	0.07564705
8	0xbd8afd01	-0.06786538
9	0xbd80522e	-0.062656745
10	0xbd01b9be	-0.03167128
11	0xbd02449b	-0.03180371
12	0xbcc8cfd4	-0.024513163
13	0x3d94073a	0.07227941
14	0x3ca5a6dc	0.020221166
15	0xbd2dcae4	-0.04242982
16	0xbd8e868c	-0.069592565
17	0x3d898469	0.06714708
18	0x3d616cb4	0.055035308
19	0x3a8b64fc	0.0010634954
20	0xbb688dd1	-0.003548492
21	0x3c6dd18a	0.01451529
22	0x3c7c6d7c	0.0154069625
23	0x3d955c39	0.07292981
24	0x3d82dd77	0.06389897
25	0x3c9df947	0.019283904
26	0xbd662ba2	-0.056193955
27	0xbcb0c034	-0.021576025
28	0x3d49fa58	0.049311012
29	0x3d847c9c	0.0646908
30	0xbc529585	-0.012853031
31	0xbd9b50c4	-0.07583764
32	0xbd30f5b7	-0.043203082
33	0xbb6593e3	-0.0035030774
34	0x3d7fe334	0.062472537
35	0x3d47ca08	0.048776656
36	0x3da9dc33	0.08293953
37	0x3d909ce4	0.070611745
38	0x3c71dcaf	0.014762088
39	0x3c69b259	0.014263713
40	0x3d504263	0.05084456
41	0xbd898d29	-0.06716377
42	0xbc4f65dc	-0.0126585625
43	0x3b9eb20b	0.0048430017
44	0xbd9b47ea	-0.07582076
45	0xbdb5a713	-0.088697575
46	0x3c829d9b	0.015944293
47	0xbd8a7a21	-0.067615755
48	0x3d865d52	0.06560768
49	0x3d0ef1b6	0.034898482
50	0xbd7c9cdd	-0.061673034
51	0xbd8319c0	-0.06401396
52	0xbc6b5fc2	-0.014366092
53	0x3c04822e	0.008087678
54	0xbd8fe039	-0.07025189
55	0x3ca428ea	0.02003904
56	0xbc9b6ed9	-0.018973755
57	0x3d9ddc69	0.077080555
58	0x3da6d1e8	0.08145505
59	0x3c8df36e	0.01732799
60	0xbd4786bf	-0.04871249
61	0xbd25a54d	-0.040440846
62	0xbda0789e	-0.07835506
63	0xbcc0c32a	-0.023530561

weight f4 [64, 64]
0	0xbb372c1e	-0.002794988
1	0xbd822dd8	-0.063564
2	0xbc23fd63	-0.010009143
3	0x3df9c52e	0.12195812
4	0xbca1462c	-0.01968678
5	0xbdbefba7	-0.093253426
6	0x3d879209	0.06619651
7	0xbc1dde2f	-0.009635492
8	0xbc483d42	-0.012221636
9	0xbd469c97	-0.04848918
10	0x3cd44791	0.025913032
11	0xbdde7e66	-0.10863952
12	0xbc82ff91	-0.015991004
13	0xbd95a68b	-0.07307156
14	0x3dee2c7e	0.1162958
15	0x3d4e94f0	0.050435007
16	0x3df3c005	0.11901859
17	0x3db9cba9	0.09072048
18	0xbe003c5c	-0.12523025
19	0x3dbe6e1a	0.09298344
20	0xbda7a4da	-0.0818574
21	0x3d0873c1	0.033313517
22	0xbd830f55	-0.06399409
23	0xbdeb39de	-0.11485647
24	0xbc545d81	-0.012961746
25	0x3dbb8819	0.09156818
26	0xbdad1211	-0.084507115
27	0xbe02165e	-0.12703845
28	0x3da466bb	0.08027407
29	0xbda929b2	-0.08259906
30	0xbc0ab673	-0.008466351
31	0xbd8b12fb	-0.067907296
32	0xbd7bfe87	-0.061522033
33	0xbcc6aa0a	-0.024251003
34	0x3d959caa	0.07305272
35	0xbc3ee294	-0.0116507
36	0xbdad0e17	-0.08449953
37	0x3d17ed36	0.037091456
38	0x3c1b34f1	0.009473071
39	0xbd84437f	-0.06458186
40	0x3d1c860b	0.03821377
41	0xbdcf9c95	-0.101372875
42	0x3dc07a25	0.09398297
43	0x3ddb204a	0.10699518
44	0x3de528df	0.11189436
45	0xbd72a75c	-0.059241638
46	0x3dba41c4	0.09094575
47	0x3d43281c	0.047645673
48	0xbcc89896	-0.024486821
49	0xbd6a3a0d	-0.057184268
50	0x3df43cbe	0.11925648
51	0xbdfa9d7a	-0.122370675
52	0x3da06725	0.07832173
53	0x3db552ce	0.08853684
54	0xbd7e7c06	-0.062129997
55	0xbc1d0f2a	-0.009586135
56	0xbbc5ab61	-0.006032393
57	0x3dc1ae71	0.094571
58	0xbc9c452f	-0.019075958
59	0x3c104e9c	0.008807804
60	0xbd885c15	-0.06658188
61	0x3dea95db	0.11454364
62	0xbcf940e7	-0.030426456
63	0xbd91c584	-0.07117751
64	0xbd53e53c	-0.051732287
65	0x3d88560b	0.066570364
66	0x3dae8622	0.085216776
67	0xbd43aedb	-0.047774177
68	0x3ded7948	0.11595398
69	0x3c5fc5e8	0.013658024
70	0xbd576700	-0.052588463
71	0x3d0cc65c	0.034368858
72	0xbdfedf67	-0.12444954
73	0x3bda404f	0.006660498
74	0x3dd91311	0.1059934
75	0x3d11a318	0.03555593
76	0xbd341435	-0.043964583
77	0xbd32db29	-0.04366604
78	0xbd100259	-0.03515849
79	0xbde3e556	-0.11127727
80	0x3d9763d7	0.0739209
81	0xbb4c15c2	-0.0031140898
82	0xbd067f6c	-0.032836363
83	0x3de83155	0.11337534
84	0x3d2eb77f	0.042655464
85	0xbd45c396	-0.04828223
86	0xbd82d1db	-0.06387683
87	0xbddfe199	-0.10931701
88	0xbdad437c	-0.08460137
89	0x3cbea7a3	0.023273295
90	0x3e0101d8	0.1259836
91	0xbdaf32ed	-0.08554635
92	0x3da2689f	0.07930111
93	0xbdaf49d1	-0.08559001
94	0x3dc455b0	0.09586656
95	0x3d831173	0.063998125
96	0xbdbd00fb	-0.09228703
97	0xbdde1ddd	-0.1084554
98	0xbd2f921b	-0.042863946
99	0x3cc06280	0.023484468
100	0x3de531ee	0.11191164
101	0x3deaacdc	0.114587516
102	0xbdadb19e	-0.084811434
103	0xbd451af4	-0.048121408
104	0x3de07683	0.10960104
105	0x3df74c09	0.120750494
106	0xbd8dd2f1	-0.069249995
107	0x3dd7bd07	0.10534101
108	0xbdc517df	-0.09623694
109	0x3dd1bc8b	0.1024104
110	0xbd3eb6a1	-0.046560887
111	0xbd5b3768	-0.053519636
112	0x3dbf5b92	0.093436375
113	0x3d9fefcd	0.0780941
114	0x3cfe409f	0.031036673
115	0xbc24e966	-0.010065412
116	0x3d9998a3	0.07499816
117	0x3bf16afb	0.0073674894
118	0x3cd0561c	0.025431685
119	0xbe026b39	-0.12736215
120	0xbd8bbb33	-0.06822815
121	0xbd1a12d0	-0.037615597
122	0xbd56f03e	-0.052475207
123	0xbca2ce93	-0.019873893
124	0xbde70f0e	-0.11282168
125	0xbdf6880d	-0.120376684
126	0x3d006bbf	0.031352755
127	0xbc98917b	-0.018624058
128	0xbdb359f4	-0.087573916
129	0xbcc4742c	-0.023981176
130	0xbc833938	-0.016018495
131	0x3ca3159b	0.019907763
132	0xbde2fe8c	-0.11083707
133	0xbdfc1df6	-0.12310402
134	0xbd721c62	-0.0591091
135	0xbc4eecf0	-0.0126297325
136	0xbdde5885	-0.108567275
137	0xbc619090	-0.013767377
138	0x3ded1e15	0.11578003
139	0x3dc8e2e6	0.098089024
140	0xbd9fcb74	-0.078024775
141	0x3d9460ab	0.072450005
142	0x3dcb160c	0.099163145
143	0x3d757145	0.059922475
144	0xbdb08d22	-0.08620669
145	0xbd475c98	-0.04867229
146	0xbdfbf1ab	-0.12301954
147	0x3d8c2c22	0.06844355
148	0x3d877128	0.0661338
149	0xbdb6918a	-0.08914478
150	0x3de701cc	0.112796396
151	0xbdc861f6	-0.097843096
152	0xbdcce08e	-0.10003768
153	0xbd7d1ffe	-0.06179809
154	0xbd0c00fc	-0.034180626
155	0xbdd15852	-0.10221924
156	0xbda37bc4	-0.07982591
157	0xbc1520cc	-0.009102058
158	0xbb3fa5e6	-0.002924317
159	0x3dce4a41	0.100727566
160	0xbd729954	-0.059228256
161	0x3d2114b4	0.039326385
162	0xbd8e535e	-0.06949495
163	0x3cfed630	0.031107992
164	0xbddfc325	-0.10925893
165	0xbdf27edc	-0.11840603
166	0xbcb16630	-0.021655172
167	0xbce7c8c0	-0.028293967
168	0x3de9d5d0	0.114177346
169	0x3da6e4e6	0.08149128
170	0x3da95df7	0.082698755
171	0xbd859d12	-0.065240994
172	0xbd290c04	-0.041271225
173	0x3d59a876	0.053139172
174	0xbc987b4d	-0.018613482
175	0x3d766fee	0.06016534
176	0x3d4701d8	0.048585743
177	0xbc06c376	-0.008225312
178	0xbc8edc4f	-0.017439036
179	0x3b568980	0.0032735765
180	0xbd5fbec8	-0.054625303
181	0x3d1f60ce	0.03891068
182	0x3de91737	0.11381381
183	0xbd6ca0a0	-0.05777037
184	0xbdfb312e	-0.1226524
185	0x3c950af5	0.018193701
186	0xbd1a1dc8	-0.037626058
187	0x3ddecfe3	0.10879495
188	0xbdce390d	-0.10069475
189	0xbd0e16a0	-0.034689546
190	0xbd9ee7fe	-0.07759093
191	0x3b842f40	0.004033953
192	0x3dd30442	0.103035465
193	0x3bee66b5	0.007275427
194	0xbdf8722c	-0.121311516
195	0x3ca77295	0.02044038
196	0xbdbb3440	-0.09140825
197	0x3d5bf244	0.05369784
198	0xbdfa87c8	-0.122329295
199	0xbdd793c4	-0.10526231
200	0x3d57bd5d	0.052670825
201	0xbde641d5	-0.11243025
202	0x3c070b61	0.008242459
203	0xbdf6c030	-0.120483756
204	0xbc8abc50	-0.016935498
205	0x3d0e1cc4	0.0346954
206	0xbdc57116	-0.0964071
207	0x3dfcf2ac	0.123509735
208	0x3dd752be	0.10513829
209	0x3d1ba5ef	0.038000043
210	0x3d9466a4	0.0724614
211	0x3e0054e2	0.1253238
212	0xbd9a287a	-0.075272515
213	0xbdc360d5	-0.095399536
214	0xbdbbdf8b	-0.09173497
215	0x3b8d9405	0.004320624
216	0xbdd180de	-0.102296576
217	0xbde3b916	-0.11119287
218	0xbd90de72	-0.07073678
219	0x3d84ab59	0.064779945
220	0x3d79ebb9	0.06101582
221	0x3cf8ff7f	0.030395268
222	0xbdb42cc4	-0.08797601
223	0x3dd220db	0.10260173
224	0xbdf30aec	-0.118673176
225	0xbdfc1145	-0.123079814
226	0xbd577c08	-0.05260852
227	0x3daaead9	0.08345575
228	0xbd4e4709	-0.050360713
229	0x3cb593fc	0.022165291
230	0x3dfe3688	0.12412745
231	0xbd903edf	-0.07043242
232	0x3dde6bba	0.10860391
233	0xbdd4dbca	-0.10393484
234	0x3c0c836b	0.008576254
235	0xbb8e8235	-0.004349018
236	0xbd341014	-0.043960646
237	0x3c4c27f6	0.012460699
238	0x3dfc441d	0.12317679
239	0xbd2dfd24	-0.04247774
240	0x3debcebb	0.1151404
241	0x3de03fab	0.10949644
242	0xbdeb408b	-0.1148692
243	0x3db05908	0.08610731
244	0xbde3499e	-0.11098026
245	0xbda2de16	-0.07952516
246	0x3cc120e8	0.023575261
247	0x3c3f85a9	0.011689582
248	0xbcab0eee	-0.020881142
249	0xbd538a38	-0.051645488
250	0xbdd4100c	-0.10354623
251	0x3d28ccf3	0.04121108
252	0xbdb759d3	-0.089526795
253	0x3db89004	0.09011844
254	0x3d10f4de	0.035389774
255	0xbd6353f4	-0.055499986

bias f4 [64]
0	0x3cdc14f2	0.026865456
1	0x3dcf69a6	0.10127573
2	0xbdde9725	-0.10868672
3	0x3c703f00	0.014663458
4	0x3da259fc	0.079273194
5	0x3ded6e21	0.11593271
6	0xbdb69766	-0.08915596
7	0xbd2ef5e2	-0.04271496
8	0x3b244c86	0.0025070026
9	0xbcbc508a	-0.022987623
10	0x3cd49c12	0.025953326
11	0xbde2836c	-0.11060223
12	0x3cb2b3fb	0.021814337
13	0x3dc60c41	0.09670306
14	0xbd8497fc	-0.06474301
15	0x3d84f458	0.06491917
16	0xbd936d43	-0.071985744
17	0xbb590d1f	-0.0033119393
18	0xbd3ecd47	-0.046582486
19	0xbd2baf04	-0.041914955
20	0x3e01f60b	0.12691514
21	0xbde31901	-0.110887535
22	0x3df5bba6	0.11998682
23	0xbdf295bb	-0.11844965
24	0x3d1e6736	0.03867265
25	0x3d79d154	0.060990646
26	0x3d8db07c	0.06918427
27	0x3ddf6e16	0.10909669
28	0xbd0be8a4	-0.03415741
29	0xbd2d94ec	-0.04237835
30	0xbdbe42d1	-0.09290088
31	0xbd1d6619	-0.038427446
32	0xbdfc1f0b	-0.123106085
33	0xbde50292	-0.11182131
34	0x3d1ac479	0.037785027
35	0x3d4d2918	0.05008802
36	0x3ddd30d9	0.108003326
37	0x3ccb3ca5	0.024809191
38	0x3c42ebe3	0.01189706
39	0x3cc22c02	0.023702625
40	0x3dc7e7d1	0.09761012
41	0xbdd3b5d0	-0.10337412
42	0x3ddaeaec	0.10689339
43	0x3dd9e446	0.10639243
44	0xbd7d64b9	-0.061863635
45	0xbddb7d33	-0.10717239
46	0x3cd23c79	0.025663601
47	0x3cc2185a	0.023693252
48	0x3dd92a32	0.10603751
49	0x3d14fc79	0.03637359
50	0x3de1ea0f	0.11030971
51	0xbd9c0b98	-0.07619399
52	0x3d97fd5b	0.074213706
53	0x3d7a65d3	0.061132263
54	0x3d482249	0.048860822
55	0xbde94f7e	-0.11392115
56	0x3ca9bc4e	0.020719673
57	0x3d80f480	0.06296635
58	0x3d3f2e58	0.046675056
59	0x3d7cf07a	0.061752774
60	0x3daa580c	0.08317575
61	0x3c50ab17	0.0127361035
62	0xbd6034a7	-0.054737713
63	0x3dc7d724	0.09757832
