hetgnn_model.pt (torch, 509849 bytes, 78 tensors)

weight f4 [64, 1]
000000 30 ee 18 bf 12 a6 61 bf b4 e6 8a 3e 80 9a f0 3e
       -0.59738445 -0.8814403 0.27129138 0.46992874
000010 bc b5 62 3f b0 8c 58 3f ac 62 9b be 10 bc 4b 3f
       0.88558555 0.8458967 -0.30348718 0.79583836
000020 16 78 34 3f ce 10 66 3f c8 e0 40 3f 8c b3 1a bf
       0.70495737 0.8986939 0.7534299 -0.60430217
000030 ba e7 0e bf e6 7c 16 bf fa aa 32 3f e6 04 4a 3f
       -0.55822337 -0.5878433 0.6979214 0.78913724
000040 ce 80 3c 3f 2a 1d 49 bf 20 a5 35 3e 58 d9 50 3f
       0.7363404 -0.78560126 0.17738771 0.8158164
000050 16 dc 5a bf 78 c8 af 3e 28 a2 e2 be f8 d3 76 bf
       -0.85492074 0.34332633 -0.4426434 -0.9641719
000060 ae 7e 3b 3f c4 ec d0 be f6 10 13 3f 06 96 12 bf
       0.7324017 -0.40805638 0.57447755 -0.5726017
000070 0a f0 4a bf 38 be 8f be 8c 89 9a be 80 76 3b 3e
       -0.7927252 -0.28074813 -0.30183065 0.18306923
000080 c8 db 52 3f 52 49 3a 3f a0 7b 62 3f 8c 11 08 bf
       0.8236661 0.7276813 0.88469887 -0.53151774
000090 78 8d ce be 24 57 d4 be c4 6b f8 3e d0 53 9c 3d
       -0.40342307 -0.41472733 0.4851972 0.076331735
0000a0 e4 74 15 bf 0e ff 5d bf 80 40 25 3f f8 c3 2a 3e
       -0.58381486 -0.8671731 0.64551544 0.16676319
0000b0 20 36 5c 3d 16 e2 3d 3f a4 72 9a 3e d0 7a 18 3e
       0.053762555 0.74173105 0.3016559 0.14890599
0000c0 a0 a6 25 bd c0 f7 59 3d 00 8b bd bd 88 0c 69 3f
       -0.04044211 0.05321479 -0.09255028 0.91034746
0000d0 66 66 71 bf 00 12 30 3d b4 a5 15 3f 00 44 49 3e
       -0.9429687 0.042985916 0.5845597 0.19654846
0000e0 54 18 d6 3e 20 26 08 be 10 a0 a8 be 7e 15 7d 3f
       0.41815436 -0.13295794 -0.32934618 0.9886092
0000f0 18 26 03 3e 40 66 07 bd 8e 93 63 bf a0 90 d2 bd
       0.128075 -0.033056498 -0.88897026 -0.10281491

bias f4 [64]
000000 b0 57 4c 3f 08 72 8d 3e 00 15 43 3c d0 aa 7f bf
       0.798213 0.2762606 0.011906862 -0.99870014
000010 74 0a 48 3f 20 84 a9 3d dc f7 4f bf 24 c9 e1 3e
       0.7814095 0.08277154 -0.8123758 0.4409877
000020 34 df ff be 80 d6 fd 3e e6 89 4e 3f e8 26 40 3f
       -0.49974978 0.49577713 0.80679166 0.75059366
000030 00 01 62 bc 10 2a ea be 70 4a 0f bf 7e 77 40 3f
       -0.013794184 -0.45735216 -0.5597296 0.7518233
000040 cc 65 a5 be 70 bd 84 bd 12 48 08 3f a8 1a 3f 3e
       -0.32304227 -0.06481445 0.5323497 0.18662512
000050 30 cf f5 be 18 b7 70 3e 64 ef 5f 3f 20 73 cc be
       -0.48009634 0.23507345 0.87474656 -0.39931583
000060 8c 68 2c 3f 40 84 e8 3e 60 42 1c 3e 78 5f d1 be
       0.67347026 0.454134 0.15259695 -0.4089315
000070 58 57 39 bf 80 56 e2 be 24 05 2d bf 16 e9 64 3f
       -0.723989 -0.4420662 -0.6758597 0.8941816
000080 60 3b 7d be 2c b7 f2 3e e0 b2 b9 3d 78 75 79 3e
       -0.24729681 0.47405374 0.09067321 0.24361217
000090 4e ac 5a 3f 52 66 15 3f 80 72 f9 bd 60 e9 5d 3e
       0.85419166 0.58359253 -0.12180042 0.21671057
0000a0 c0 33 5f 3f c0 7f c0 be a0 d4 77 bf dc f1 85 3e
       0.8718834 -0.37597466 -0.96808815 0.26161087
0000b0 d0 44 3e 3e d8 b6 b3 be 40 31 a8 be b0 36 ad bd
       0.18580937 -0.35100436 -0.32850075 -0.084576964
0000c0 a8 cd 26 3f 7e f8 60 3f 76 9b 6e bf 00 60 72 b9
       0.65157557 0.8787917 -0.93205965 -0.00023114681
0000d0 6c 55 7e bf 4c c0 9b be 0c cd 62 bf f8 36 d5 3e
       -0.99349093 -0.30420148 -0.88594127 0.416435
0000e0 28 4d 5a 3e fa de 39 bf 30 9f eb bd 80 4a 82 be
       0.21318495 -0.7260586 -0.11504972 -0.25447464
0000f0 c0 28 f5 bd 4c c7 a1 3e 60 4a 4b 3f 28 c4 33 3e
       -0.11970663 0.31597364 0.7941036 0.17555296

weight f4 [64, 1]
000000 42 03 4a bf 0a d3 15 bf 88 7d 3d 3f b4 67 a9 be
       -0.7891122 -0.58525145 0.7401967 -0.33086932
000010 28 01 43 bf 7e bb 2f 3f e4 1e a5 3e 34 32 76 bf
       -0.7617364 0.68645465 0.3225013 -0.96170354
000020 90 a3 58 bf 18 fa 66 3f 22 ca 45 3f 58 9d 93 3e
       -0.84624577 0.9022536 0.77261555 0.2883098
000030 20 33 25 bd d0 3b b6 3e 3e 67 51 bf d6 39 3c bf
       -0.04033196 0.35592508 -0.8179816 -0.7352575
000040 00 d8 d1 bc 2c 27 7d 3f 88 40 6d 3e dc 30 2e bf
       -0.025615692 0.98887897 0.23169148 -0.68043303
000050 6c 74 7c 3f 20 25 35 3d 20 20 09 be 90 b7 96 3e
       0.98615146 0.04422486 -0.13391161 0.29436922
000060 6e 52 59 3f e2 a5 23 3f 6c 5e eb be 04 c1 09 3f
       0.848914 0.6392499 -0.45970476 0.53810143
000070 84 cc f5 be bc 21 3e bf 92 b5 4f 3f 52 71 42 3f
       -0.48007596 -0.74270225 0.8113643 0.75954163
000080 f4 46 31 3f 6c 4d 31 bf ec 71 fd be e0 86 6e be
       0.6924889 -0.6925876 -0.49500978 -0.23293638
000090 de 0f 42 3f c0 75 7a bf ac 85 51 3f 7e 01 46 bf
       0.7580546 -0.9783592 0.8184459 -0.77346027
0000a0 d8 89 b0 be 40 50 26 bd 1c 0f 31 bf 04 f3 1e 3f
       -0.34480166 -0.040603876 -0.6916368 0.6208956
0000b0 1c b5 51 3f b0 b4 30 3f 50 93 45 3e de 44 54 3f
       0.81916976 0.6902571 0.19294477 0.82917583
0000c0 aa 9a 05 bf 58 24 4d bf 0a 2a 4d 3f f4 5f 81 3e
       -0.52189124 -0.8013358 0.8014227 0.2526852
0000d0 88 74 00 bf e0 e7 93 3d e0 13 00 3d 5c 27 10 bf
       -0.5017781 0.07221961 0.031268954 -0.5631006
0000e0 f0 67 53 3f 20 5e 09 3e 78 f5 af 3e 7e 3d 52 3f
       0.8258047 0.13414812 0.34366965 0.8212508
0000f0 00 26 cd 3b c6 d6 46 3f 70 35 ef bd 98 b2 19 3e
       0.0062606335 0.7767147 -0.11680114 0.15009534

bias f4 [64]
000000 ce d8 7c bf e0 50 0e 3f b8 76 19 3f 12 8b 36 3f
       -0.9876832 0.55592155 0.59946775 0.71305954
000010 30 18 35 bf 80 ed 3d be dc 64 2c 3f 18 1d e1 be
       -0.7074003 -0.1854763 0.673414 -0.4396751
000020 c4 94 9f 3e d0 b6 7e 3e 90 f7 61 3e 18 5a 9a 3e
       0.31168187 0.24874425 0.22067094 0.3014686
000030 dc bf 98 be 32 9b 4d 3f 14 04 58 bf 68 e5 12 3e
       -0.29833877 0.80314934 -0.8438122 0.14345324
000040 04 c4 13 3f fc 9f 6b 3f 80 40 5f be 38 89 a4 3e
       0.5772097 0.9204099 -0.21801949 0.3213594
000050 b4 c1 e4 3e 4c 2e d8 3e 60 38 27 bf 00 fb ca 3b
       0.44679034 0.42222822 -0.65320396 0.0061944723
000060 c0 ab ca 3d 20 10 44 3d c0 b9 b8 3e 42 2e 40 3f
       0.0989604 0.04786694 0.36079216 0.75070584
000070 a0 cd 4a bf 3e bb 5c bf e0 89 4a bf 38 17 4f 3e
       -0.7922001 -0.8622321 -0.7911663 0.20223701
000080 2c a1 04 3f 9c e2 8a 3e b8 e6 89 be 60 d8 a0 3e
       0.5180843 0.27126014 -0.26933837 0.3141508
000090 aa 4a 7c 3f b0 e8 02 be 4a c7 23 3f 60 5c 60 3f
       0.9855143 -0.12784076 0.63975966 0.87640953
0000a0 78 2e 73 3e 3c 5e 0e bf 68 38 55 be 08 fd 67 bf
       0.23748195 -0.5561254 -0.20822299 -0.9062047
0000b0 20 47 e2 be 4c 15 c1 be 72 38 0d 3f 18 bb 71 3f
       -0.4419489 -0.3771156 0.55164254 0.9442611
0000c0 40 ea 71 3e 3e 47 02 3f 40 8c 38 bf 68 8c db be
       0.23624516 0.50889957 -0.72089005 -0.4288056
0000d0 40 28 0c bf b4 05 a7 be 4e 03 3a bf ec 67 7e bf
       -0.54748917 -0.3262154 -0.7266129 -0.9937732
0000e0 a4 25 af 3e e4 77 8d be aa b1 79 3f 38 73 15 3e
       0.34208405 -0.27630532 0.9753672 0.14594734
0000f0 10 98 80 be 1c e9 86 3e 50 27 cf be a8 44 7d be
       -0.25116014 0.26349723 -0.4045968 -0.24733222

weight f4 [64, 2]
000000 28 ae 20 3d 1b d0 2f 3e 58 d4 eb be a2 be fb 3e
       0.03922859 0.1716923 -0.46060443 0.4916888
000010 61 43 50 bf e0 b3 f3 3e 19 07 08 bf 4e fe 55 3f
       -0.8135281 0.4759817 -0.5313583 0.83591163
000020 b7 ea cc be 72 13 65 be 9a 41 3a 3f 32 a4 2a be
       -0.40022823 -0.22370699 0.7275635 -0.16664198
000030 2d 6b b3 3d b1 be 0d 3e be 65 5b 3e 8e 50 d3 be
       0.087606765 0.13842274 0.2142553 -0.41272396
000040 e6 ab 9e 3e 26 12 c2 3e 10 c7 84 be dc 8c b4 3e
       0.30990523 0.3790447 -0.25933123 0.35263717
000050 75 97 6f 3d 39 ff 15 3f be 0d 93 bc f7 66 b1 3e
       0.05849405 0.58592564 -0.017950889 0.34648868
000060 b2 e0 fa be 02 73 47 be 41 a7 d7 be 28 63 05 bd
       -0.48999554 -0.19477466 -0.42119792 -0.032565266
000070 62 8d 02 3f aa 43 f3 be 26 a4 f5 3c e4 fd cd be
       0.50996983 -0.4751256 0.029985499 -0.40232766
000080 47 d3 5f 3f 63 cd 13 be af 4a e2 be 46 7a cf 3e
       0.8743176 -0.14433818 -0.44197604 0.40522975
000090 01 16 cf be 45 e9 a8 3e cd 4d 11 be 30 7b 5c 3f
       -0.40446475 0.3299047 -0.14189835 0.8612547
0000a0 c6 c3 98 3e b6 db ab 3e 84 41 db 3e db 42 17 3f
       0.29836863 0.33566064 0.42823422 0.5908639
0000b0 5e 01 7d be 2c 9f d1 be 81 47 bb be a1 cb 1f bf
       -0.24707553 -0.4094175 -0.3657799 -0.6242009
0000c0 83 32 12 be 49 31 d8 3d ef 1c f4 be 69 e6 19 bf
       -0.14277081 0.105562754 -0.47678325 -0.60117203
0000d0 b8 c1 8e be bb 0c e9 be 20 77 17 bf dc 45 cc 3e
       -0.2788217 -0.45517525 -0.59166145 0.39897048
0000e0 90 cb 61 3f ad 95 31 3f 23 1b 80 be e4 39 ea bd
       0.88201237 0.6936901 -0.25020704 -0.11436823
0000f0 3f 3d 24 bf 7f 1b fd bd 71 25 8c be 3c b7 45 bd
       -0.64155954 -0.1235876 -0.27372316 -0.04827045
000100 4c cb 30 3f 62 16 19 3f 8c dc 05 3e e6 8a 45 3f
       0.69060206 0.5979978 0.13072413 0.7716507
000110 22 9b 3b 3f d7 5c c9 be 0e a8 62 bf ca 8c 00 be
       0.7328359 -0.39328644 -0.8853768 -0.12553707
000120 40 0f fd 3e b6 48 c3 be 91 63 b6 be 61 b7 7b 3e
       0.49425697 -0.38141412 -0.35622838 0.24581672
000130 c8 ee 3f bf 1c b3 9e 3d 49 ab 6c 3d b5 03 ee 3e
       -0.74973726 0.07749006 0.057780538 0.46487203
000140 2f 92 bc 3e 31 af d9 be 07 17 c5 be 76 bd 16 bf
       0.3683028 -0.42516473 -0.3849413 -0.58882844
000150 db 79 f9 3c b8 26 fc be 7e 9e e3 be da f6 a0 be
       0.030453613 -0.4924829 -0.44456857 -0.31438333
000160 92 96 15 be 74 f3 45 3f 88 d0 47 bf 7d 12 8b 3e
       -0.1460822 0.77324605 -0.7805257 0.27162543
000170 33 83 85 3d 94 8c 36 3f bf 19 6d 3e 9d 8f 3c 3f
       0.06519165 0.71308255 0.23154353 0.73656636
000180 cf fa de 3e 14 79 d0 be 99 7a 60 3e 9e c5 42 3f
       0.43550727 -0.40717375 0.21921767 0.7608279
000190 bc 07 9a be fa ac fe be 7d 00 1a 3f 98 d4 30 bf
       -0.30084026 -0.49741346 0.60156995 -0.6907439
0001a0 63 72 32 3c 25 b0 4a 3e dc fa 2e 3f dd 1b d9 be
       0.01089153 0.19793756 0.6835153 -0.4240407
0001b0 ec b8 58 3f 37 9b 68 3c 99 53 ce 3e 4d 52 46 3f
       0.8465717 0.014197162 0.40298155 0.7746933
0001c0 44 dc ac be b6 4f cf 3e d5 40 da 3e aa 3e 68 be
       -0.337618 0.40490502 0.42627588 -0.22680154
0001d0 5c c1 fd 3e 99 bc 33 be f5 b3 a3 3e 84 6a f9 bd
       0.49561584 -0.17552413 0.31973234 -0.12178519
0001e0 24 74 c5 be 41 23 d8 be 00 33 2f 3e ee 1b 35 3f
       -0.3856517 -0.42214397 0.17109299 0.7074574
0001f0 68 c5 1e 3f f3 b0 55 3f 8d 96 97 3e dc a9 fa be
       0.6201997 0.8347313 0.2960705 -0.48957717

bias f4 [64]
000000 e6 28 60 be 05 2f d7 be 55 97 cd bd 3e a0 97 3e
       -0.21890602 -0.4202806 -0.1003863 0.29614443
000010 46 47 3c 3f 25 3f 42 be f2 ef 07 bf 9a a9 27 3f
       0.73546255 -0.189694 -0.531005 0.65493166
000020 e3 f1 21 bf e5 3a 31 3f 2e be e7 3b 1b 44 35 3e
       -0.63259715 0.6923049 0.0070722317 0.17701761
000030 4b 7c c4 3c 9c 23 b4 bc d0 c6 ab be da b3 dc be
       0.023985049 -0.021989636 -0.3355012 -0.43105966
000040 1b c9 f3 be 58 c8 f2 be e9 06 a4 3d 57 cf 32 3e
       -0.4761437 -0.47418475 0.080091305 0.17461906
000050 02 b3 d0 3c 12 31 ab 3d b1 3b ad be 23 3f f9 3e
       0.025475983 0.08358969 -0.33834603 0.48680982
000060 fd 8a bc be af ba bc bd 72 82 e4 be 70 e0 71 be
       -0.3682479 -0.092152946 -0.44630772 -0.23620772
000070 45 e7 db be 10 4e f5 3e c1 be 5b be 46 54 b8 3e
       -0.42949882 0.4791112 -0.21459486 0.36001796
000080 fe 37 08 bf db 6b 0a bd ce 6b 33 3d 5e ac 5a be
       -0.5321044 -0.033794265 0.043803982 -0.21354815
000090 78 d2 d1 3e 1d ad d2 bd 4f 1d a7 3e f9 44 de 3e
       0.40980887 -0.10286925 0.32639548 0.43411997
0000a0 d6 15 08 bd c9 5c 1e 3e 7b 9a fe 3e 8b e3 59 bf
       -0.03322395 0.15465082 0.49727234 -0.8511283
0000b0 e3 14 08 3e 48 e5 8a bd 85 cb ff 3d 6a cf 59 3d
       0.13289218 -0.06782013 0.1248999 0.05317632
0000c0 47 86 7b ba 17 a2 7f bc ca f3 0f be e7 1f 43 3d
       -0.0009594899 -0.01560261 -0.14057842 0.047637846
0000d0 a1 0d a0 be d0 88 07 be 19 0b 31 3f ad 0c a6 bd
       -0.31260398 -0.13235784 0.6915756 -0.081078865
0000e0 6d c5 8b be b1 5e 4d bf 20 1c 10 3f b5 96 11 3f
       -0.2729906 -0.8022261 0.56292915 0.56870586
0000f0 37 d4 11 3e 0c 80 1d be d6 64 e4 3d 04 97 d6 3e
       0.1424111 -0.15380877 0.111520454 0.4191209

weight f4 [64, 128]
000000 5e 3c 78 3d 55 60 b1 bd 80 af d9 3a e0 76 9b bd
       0.060604446 -0.08660952 0.0016608089 -0.07591033
000010 f8 bd c5 3c e2 7c 77 3d 50 16 f5 bc c2 1c 31 bd
       0.024138436 0.060421832 -0.029917866 -0.043240316
000020 c9 1b 0b bd 34 d5 a1 bc 18 7b e9 bc d4 74 a7 bc
       -0.033962045 -0.019754983 -0.028501078 -0.02044145
000030 e1 9b 97 3d 6c 2f ef bc 9f 23 a9 3d f6 62 86 bd
       0.074027784 -0.029197417 0.08258747 -0.06561844
000040 d7 95 a5 bd e8 e4 2a 3c 77 28 a2 bd 30 e3 9c bd
       -0.0808522 0.010430552 -0.07917874 -0.0766052
000050 26 11 8c bd 1c e9 a6 bd 5e 93 af bd 3b fe 41 bd
       -0.06839208 -0.08149931 -0.0857303 -0.047361594
000060 69 fb 02 bd b0 27 97 3c 90 28 27 bc 80 17 68 3c
       -0.031978045 0.018451542 -0.010202542 0.014165759
000070 ca a1 06 3d 23 0e 75 bd 18 a3 16 bd ea 1b 43 3d
       0.032869138 -0.059827935 -0.036776632 0.047634043
000080 36 ee 1e 3d 44 17 66 bd 6a f2 39 3d 52 d5 47 3d
       0.038801394 -0.05617453 0.0453972 0.048787422
000090 d8 21 76 bc 68 73 d0 bc 42 21 8c bd f2 8e 9d bd
       -0.015022717 -0.025445655 -0.06842281 -0.0769328
0000a0 9c 1a 0a bd 81 01 8d 3d f0 bc f3 bb 8a 68 49 3d
       -0.033716783 0.068850525 -0.0074382946 0.04917196
0000b0 78 af 29 bc d6 2e ee bc 00 96 9b bc 3e d8 b0 bd
       -0.010356776 -0.029075067 -0.018992424 -0.08634995
0000c0 13 0a b2 bd d0 8f f8 bb 64 d0 e1 3c 56 6f b3 bd
       -0.08693328 -0.007585503 0.027565189 -0.0876147
0000d0 e9 ef 9a 3d df b2 68 bd 8f 3a af 3d 1b 47 97 bd
       0.075652905 -0.05681121 0.08556091 -0.07386609
0000e0 be 84 2f 3d 50 6a 45 bd 2e bf 77 bd 11 9b a2 bd
       0.042851202 -0.04819709 -0.060485058 -0.07939733
0000f0 15 3e a7 bd 47 b0 68 bd 70 a4 ce 3b 23 a0 97 3d
       -0.08166138 -0.056808736 0.0063062236 0.074035905
000100 5a f1 70 bd a6 3a f7 bc 94 97 86 bd c0 42 f4 3a
       -0.05882392 -0.030179333 -0.0657188 0.0018635616
000110 0a c6 5b 3d b0 4e f9 bb 2f 42 32 bd 59 a2 ab 3d
       0.05365566 -0.0076082572 -0.04352015 0.08380575
000120 78 46 c9 bc 15 b0 af 3d 78 29 9e bd f8 5d 4b bc
       -0.024569735 0.08578507 -0.07722753 -0.012412541
000130 98 06 af bd a2 9b e2 bc b8 94 b7 bc 71 08 85 3d
       -0.085461795 -0.027662102 -0.022409782 0.06495751
000140 72 79 2e 3d 39 c2 8b bd d4 4f 91 3c 26 f8 1d 3d
       0.042596288 -0.068241544 0.01773826 0.03856673
000150 b6 be 42 3d 3a a4 6b bd 4c a5 6c bd a5 dd 83 3d
       0.047545157 -0.057529666 -0.057774827 0.0643876
000160 77 54 93 3d 4f a0 98 3d b6 8e 2d 3d 6a 12 3d 3d
       0.07193845 0.074524514 0.042372428 0.04616014
000170 1e 9c 1a 3d 2f c5 39 bd 77 d4 a9 bd 50 65 db 3c
       0.03774654 -0.045354065 -0.082924776 0.026781708
000180 57 80 97 3d d4 e9 87 bc c0 00 bf ba fc 55 8a bc
       0.07397526 -0.01659099 -0.0014572367 -0.016886704
000190 28 a2 1c bc 5a 6d 4c 3d 44 11 81 bd 6d fe 5f bd
       -0.009560145 0.049908973 -0.06302121 -0.054686
0001a0 60 a5 fd bc 8d 8a 2a bd 9e 95 66 3d 2f 13 8d 3d
       -0.030962646 -0.04163604 0.05629503 0.068884246
0001b0 ac 9c 0d 3d 2f 6a 99 bd 40 b7 3f 3b 8c 13 d9 3c
       0.034573242 -0.07490956 0.0029253513 0.026498578
0001c0 49 9d 83 3d a0 cc a8 3c ad f1 a5 bd 39 a4 ab 3d
       0.06426484 0.020605385 -0.081027366 0.08380932
0001d0 40 ce 42 bb 14 ee 99 bd 62 8d 41 3d cc 58 59 bd
       -0.0029724985 -0.07516113 0.047253974 -0.0530632
0001e0 70 f1 e6 3c ce 96 21 3d 80 d0 1a 3b 72 c1 65 3d
       0.028191298 0.03945046 0.002362281 0.056092687
0001f0 08 cc c3 bc 29 ba 7e bd 0e 76 71 3d e0 85 fa 3c
       -0.023901 -0.062189255 0.058950476 0.030581415
000200 33 a9 80 bd 30 fe 22 3c 3b 4a 36 bd c6 59 53 3d
       -0.06282272 0.009948298 -0.044504385 0.051599286
000210 31 06 ab 3d a0 15 34 bc 58 c7 0b 3c f2 83 3e 3d
       0.0835079 -0.010991484 0.008531414 0.04651255
000220 ec c7 b1 bd d8 d3 0b bd d9 00 a5 3d 4c 1f 2d bd
       -0.0868071 -0.034137577 0.08056802 -0.042266175
000230 3a ae 6b 3d 12 7e 74 3d d4 83 73 bd 21 a1 51 bd
       0.057539202 0.059690543 -0.059451893 -0.051179055
000240 10 6e 2e bc 6c 5e a9 3c 7e 2e 3a 3d 1c 1f b9 3c
       -0.010646358 0.020674907 0.045454495 0.022597842
000250 e6 f8 6f 3d 56 ec 57 3d 6f 6d 57 bd 44 1f 10 3d
       0.058586977 0.052715622 -0.0525946 0.035186067
000260 39 27 82 3d e3 34 14 bd 4d 09 ac 3d 6b ca af bd
       0.063551374 -0.03618325 0.084002115 -0.0858353
000270 e6 16 31 3d 28 26 ad bc 44 1a b1 3c ff d1 42 bd
       0.04323473 -0.021136358 0.02161897 -0.04756355
000280 bb e3 aa bd 45 14 84 3d 38 96 a5 3c c8 3c 0a bd
       -0.083442174 0.064491786 0.020213231 -0.03374937
000290 9c 80 c8 bc 53 a4 92 3d 20 cc b6 3b 74 ca 90 3c
       -0.024475388 0.071602486 0.005578533 0.017674662
0002a0 c0 ab d9 bc 88 83 6f 3c 9c 47 b2 bd dd b3 43 bd
       -0.026571155 0.014618762 -0.08705065 -0.047778953
0002b0 a0 0c 6c bb dd 77 9e 3d ea 80 4b 3d c4 4f 97 3c
       -0.0036018267 0.07737706 0.04968349 0.018470652
0002c0 b0 37 f3 3b 43 11 9a 3d e0 56 3c bc ba dc af bd
       0.00742241 0.07522824 -0.011495322 -0.08587022
0002d0 77 73 98 bd 19 24 2a bd c0 6e 54 bb 83 70 83 3d
       -0.07443898 -0.04153833 -0.0032414645 0.06417944
0002e0 a0 61 92 bd d8 74 88 bd 63 3c a7 3d 02 3e 70 3d
       -0.07147527 -0.06662911 0.08165815 0.058652885
0002f0 e1 d8 81 bd 6a ff af bd b2 54 67 3d ec 2e ea bc
       -0.063401945 -0.08593638 0.056477256 -0.028586827
000300 b4 c1 d7 bc d0 97 7e bd 9e 5f 47 bd ba c1 30 3d
       -0.026337482 -0.0621565 -0.048675172 0.043153502
000310 f3 08 8b bd bb 52 84 3d ec 4e ba 3c f0 66 95 3b
       -0.06788816 0.06461092 0.022742711 0.0045593902
000320 d2 6c 2d 3d 4b 22 94 3d 45 0f b3 bd ae f0 07 3d
       0.042340107 0.07233103 -0.08743147 0.033188514
000330 c1 48 96 3d 7e 3b 64 bd ba 04 37 3d 21 7a 97 bd
       0.073380955 -0.0557208 0.044682242 -0.07396341
000340 30 2d 16 bc 0d fb 8b 3d b6 02 47 bd 76 09 10 3d
       -0.009166047 0.068349935 -0.04858657 0.035165273
000350 f6 52 97 bd dc 1e 48 bd 46 76 87 bd 18 b8 49 3c
       -0.073888704 -0.048857555 -0.06614356 0.012311958
000360 ad 09 a2 3d 54 1d b0 bd e8 e2 7d 3c 98 a7 04 3c
       0.07912002 -0.08599344 0.015495993 0.008096598
000370 e5 eb 92 3d 2e 1b 2b 3d 64 3a 91 bc b8 4a d1 3c
       0.071738996 0.041773967 -0.017728038 0.025548324
000380 9f 3a 86 3d ec 25 ac bd eb 44 83 3d 80 96 70 bc
       0.0655415 -0.084056705 0.064096294 -0.0146843195
000390 a0 0d d7 bb 27 83 ad 3d 5c 42 85 3c 8f 15 19 bd
       -0.0065629035 0.08472281 0.016266994 -0.037374076
0003a0 f8 8d b2 bd 45 c0 98 3d d8 88 57 bd 45 d1 0d bd
       -0.08718485 0.074585475 -0.05262074 -0.034623403
0003b0 2a 69 49 3d 30 75 a9 bd 58 a3 8e bd 40 10 07 3d
       0.049172558 -0.08274305 -0.06964749 0.03297448
0003c0 4e 1b 51 3d 02 42 e6 bc 58 55 ad 3c a0 c1 9a bd
       0.05105143 -0.028107647 0.02115886 -0.07556462
0003d0 e6 a3 62 3d 40 5d 50 bd 6f 5a 3f bd 7f 3d ab 3d
       0.055332087 -0.05087018 -0.046717104 0.08361339
0003e0 80 15 22 3a 22 ef 34 3d 43 e1 84 3d ce 67 59 3d
       0.00061830133 0.044173367 0.06488278 0.05307751
0003f0 58 e2 81 3c 1c 52 ac bd e2 23 87 bd 96 66 32 3d
       0.015855 -0.084140986 -0.06598641 0.043554865

bias f4 [64]
000000 97 17 26 bd c8 81 44 3c f6 76 75 3d 01 58 9b 3d
       -0.04054984 0.011993833 0.059927903 0.07585145
000010 1b 6b b3 3d c8 fc 12 3c 80 9e ab bd fe 2e 60 3d
       0.08760663 0.008971401 -0.08379841 0.054732315
000020 bf bb 86 bd 7c ad 6a bd c0 40 c6 3c 2c eb 9f bd
       -0.065787785 -0.057294354 0.024200797 -0.07808527
000030 b8 ab 72 3c 68 71 1b bc e8 65 f5 bc 3e 71 16 3d
       0.014811449 -0.009487487 -0.02995582 0.03672909
000040 60 f1 53 3c 1e 78 9f bd 60 d1 6b bb 40 d1 a5 bd
       0.012935966 -0.077865824 -0.0035982952 -0.08096552
000050 d0 1c ef bb 7b 70 91 bd 9e 49 74 bd 70 41 69 bc
       -0.007297136 -0.07101532 -0.05964052 -0.014236793
000060 4c d9 84 bc e4 3a b0 3c 8c e3 e1 bc fc ac a3 bc
       -0.016216896 0.021512456 -0.027574323 -0.019979946
000070 b5 db 82 3d 90 3d 43 bc 02 5c 82 bd 5d a2 9d bd
       0.06389562 -0.011916533 -0.06365205 -0.07696984
000080 ec 1a 7d bd 3b 8e b4 3d 13 21 9d 3d 09 49 62 bd
       -0.061793253 0.08816191 0.07672324 -0.055245433
000090 e6 24 81 bd f8 03 02 bc a7 fb 83 3d 12 b5 43 3d
       -0.06305866 -0.007935517 0.06444483 0.047780104
0000a0 fe c1 72 bd e0 a7 b1 3c 0a 50 9d bd 48 29 08 3c
       -0.059267037 0.021686494 -0.07681282 0.0083106235
0000b0 d5 b5 62 bd 03 7d 07 bd 94 eb 2a bd 38 ce 4d 3c
       -0.05534919 -0.033078205 -0.04172857 0.012561373
0000c0 f7 39 aa 3d 88 4e 9d bc 20 3e 3e bb e0 df 60 bb
       0.08311837 -0.019202486 -0.0029028729 -0.0034313127
0000d0 16 27 78 3d a6 f7 2c 3d 49 c1 93 3d 31 fa 16 bd
       0.06058415 0.042228363 0.072146006 -0.036859695
0000e0 58 8b 25 bc 60 5b df bb 90 7c df bc 6d e0 55 bd
       -0.010104023 -0.0068163127 -0.027281076 -0.052215982
0000f0 bd 29 8c 3d 07 ab 96 bd f6 94 73 3d e8 a9 75 3c
       0.068438984 -0.073568396 0.059468232 0.014994122

weight f4 [64, 64]
000000 bc 2d 89 bd 30 75 eb 3d 42 c2 e4 bd 52 1f e9 3d
       -0.06698176 0.11496961 -0.11169864 0.11382927
000010 e2 89 91 bd 2a 37 80 bd 00 80 cc bc f8 1f 29 3d
       -0.07106377 -0.06260522 -0.024963379 0.041290253
000020 ba cd f9 bd 6c 5d d8 3d d4 cb 4f bd fa 99 a0 3d
       -0.12197442 0.10564694 -0.050731495 0.07841869
000030 20 89 05 bd 28 82 b3 bd 88 a1 e2 bc 8c cf 8b bd
       -0.032601476 -0.0876506 -0.027664915 -0.06826696
000040 b0 d8 41 bc b8 a3 90 bd cc 31 13 bd d0 3e 7d bc
       -0.0118314475 -0.07062477 -0.035936162 -0.01545687
000050 de cf c6 bd bc 4a 11 bd 34 2f 46 bd d2 62 ea bd
       -0.09707616 -0.035471663 -0.04838486 -0.1144463
000060 34 a4 df bd a0 4b b7 3d fc 3f 81 3d 88 94 a4 bd
       -0.10919991 0.08949971 0.06311032 -0.080361426
000070 30 ab 96 bc 94 2b 15 bd 50 f1 a6 bc c0 90 cc bc
       -0.018392175 -0.036418512 -0.020378739 -0.024971366
000080 18 6f c4 3d 46 c4 bb bd a8 5e 78 3d 16 2d ac 3d
       0.09591502 -0.091682956 0.060637146 0.08407037
000090 40 dc d0 bd ca 70 e0 bd 80 7e 16 3c d4 81 be bd
       -0.10198259 -0.10959013 0.009185433 -0.093021065
0000a0 38 cf 17 bd 00 14 9d 3c e4 19 9a bd a2 f9 80 3d
       -0.037062854 0.019174576 -0.075244695 0.06297614
0000b0 cc 50 8c 3d 1c 94 7a 3d 80 03 59 bb b0 ab 91 3c
       0.06851348 0.061176404 -0.0033113658 0.017782062
0000c0 2a 4f c6 3d 8e 28 9e bd 90 b3 9b 3d 6e 99 cb 3d
       0.09683068 -0.07722579 0.07602608 0.09941374
0000d0 50 80 ed bd 56 92 b1 bd fc 01 c1 bd c0 1e 0b bb
       -0.11596739 -0.086704895 -0.094242066 -0.0021228045
0000e0 fa 3d bd 3d 00 59 5b 3c d6 54 ed bd bc 9f f6 bd
       0.09240337 0.0133879185 -0.11588447 -0.12042186
0000f0 e0 e9 63 bd c0 c7 1a 3c 4e 8b c6 bd 20 b6 d9 bd
       -0.055642962 0.009447038 -0.09694539 -0.10630441
000100 30 5d 84 bd 1c b5 7c 3d 5a f9 c2 3d 24 e2 8d bd
       -0.064630866 0.061696157 0.09520216 -0.069278985
000110 40 3b 5b bb 14 44 cd 3d 22 f4 ee 3d 40 77 11 3d
       -0.0033452064 0.100227505 0.116676584 0.035514116
000120 00 ce f8 bc a0 93 86 3c dc e5 b0 bd 30 12 19 3d
       -0.030371666 0.016427815 -0.08637592 0.03737086
000130 de f2 c8 3d a4 b6 fa bd c0 a6 e2 bd 32 94 89 3d
       0.09811948 -0.12241867 -0.11066961 0.06717719
000140 80 6e 80 bd f0 6f 9e bd fa 1f e8 3d 0c 11 a3 3d
       -0.06271076 -0.07736194 0.11334224 0.07962236
000150 24 24 72 3d c8 f9 b0 3c 8e 30 e9 bd 20 c2 7c bc
       0.059116498 0.02160348 -0.11386214 -0.015427142
000160 f0 b6 92 3d 2a 50 b1 3d c4 e8 d7 3d c0 e9 08 bb
       0.07163799 0.08657868 0.105424434 -0.002089128
000170 3a a8 df 3d d0 62 4a 3c ac c0 be bd c2 ee b3 3d
       0.109207585 0.01235266 -0.09314093 0.08785774
000180 0c ab 72 bd 0a 05 e8 bd b0 b4 39 bd e0 10 14 3c
       -0.059245154 -0.11329086 -0.045338333 0.009037226
000190 30 0a 54 bd 48 0d 87 3c c8 41 eb bd 80 98 22 bd
       -0.051767528 0.016485825 -0.11487156 -0.039696217
0001a0 ec 92 3f bd c0 ea 00 3d 06 03 8a 3d 50 ad d4 bc
       -0.046770975 0.031473875 0.06738858 -0.025961548
0001b0 40 ee 29 bc f4 30 18 3d 70 db c9 bc 50 ef 6a 3d
       -0.010371745 0.03715606 -0.024640769 0.057357132
0001c0 20 dd d6 3b e2 77 f4 3d 2c d8 a4 bd 60 94 88 3b
       0.006557122 0.11936928 -0.08049044 0.0041680783
0001d0 78 89 26 3d 34 a1 46 3d ea 98 fe 3d 10 2d 8b 3c
       0.040658444 0.04849358 0.1243151 0.01698926
0001e0 90 15 ec 3c 5e b3 d8 bd 40 20 f0 3c 10 90 10 bc
       0.028818876 -0.105810866 0.029312253 -0.00882341
0001f0 3e 94 af 3d 60 ed 9c 3c 9a bf 8b bd 00 65 03 ba
       0.08573197 0.019156158 -0.068236545 -0.00050123036
000200 9c e5 ad bd 6c 78 e9 bd a8 bf 2b 3d 10 1b 0b bc
       -0.0849106 -0.11399922 0.041930825 -0.008490339
000210 40 7e 35 bc 40 93 55 bc 94 e4 49 bd e8 84 76 3d
       -0.011077464 -0.013035595 -0.049290255 0.060185343
000220 36 7d e8 bd f8 6c 09 bd 20 35 48 bc 0a 4b b8 bd
       -0.11352007 -0.033551186 -0.012219697 -0.089986876
000230 f6 f6 d8 3d 52 e8 d5 bd 70 9b 7d 3c e0 a7 5e bc
       0.10593979 -0.10444702 0.015478954 -0.013589829
000240 1a 6f c2 bd 30 c3 5b bc 00 4f 53 bc 6a 7b b5 bd
       -0.09493847 -0.013413236 -0.012897253 -0.0886143
000250 ec 56 5c bd 68 e3 b4 3d 88 cb 85 bc 40 c0 f1 bd
       -0.053793833 0.08832437 -0.016332403 -0.11804247
000260 a4 4d 85 3d f0 32 42 bd ae 5a d1 bd 34 59 dd bd
       0.065089494 -0.04741186 -0.10222374 -0.1080803
000270 20 84 83 bb 40 ea 4e bd ee a6 b5 3d 40 ec c5 bc
       -0.0040135533 -0.050516367 0.0886973 -0.024160504
000280 34 29 a3 3d b0 82 bb 3d 24 d3 38 bd 00 71 ed 3a
       0.07966843 0.09155786 -0.045123234 0.0018115342
000290 52 9b ed bd 08 fb 83 bc bc 9d f5 bd 88 f0 49 bd
       -0.116018906 -0.016110912 -0.11992976 -0.049301654
0002a0 10 e4 ab 3c 24 d0 d0 3d e0 b4 5f 3c b0 03 15 3c
       0.020982772 0.1019595 0.013653964 0.009095117
0002b0 cc d7 21 3d c0 f7 47 3c 50 c5 8c 3c 8a d4 d9 bd
       0.03951244 0.012205064 0.01718393 -0.10636242
0002c0 7a a2 b1 bd 48 c3 d2 bc 38 84 f8 3c 5c 15 24 bd
       -0.08673568 -0.025727883 0.030336484 -0.040059432
0002d0 1c 9b b0 3d 68 6f 9f bd 2c af 28 3d 80 55 0f 3d
       0.08623335 -0.07784921 0.041182682 0.03499365
0002e0 34 29 07 3d 78 a9 22 bd e4 0d 3d bd ee 04 d4 3d
       0.03299828 -0.0397124 -0.046155825 0.10352503
0002f0 10 e1 cb 3c f2 af e4 bd 00 10 7f 38 fa 07 cf 3d
       0.024887592 -0.111663714 6.081164e-05 0.10108943
000300 14 2f ae bd 8c 67 a4 bd 10 3f d1 3d 2e cb e9 3d
       -0.08505073 -0.080275625 0.10217106 0.114157066
000310 2c c8 b6 3d 40 58 5d 3c aa 12 f4 bd bc 37 a8 3d
       0.089248985 0.01350981 -0.119176224 0.082137555
000320 a8 38 c4 3c b0 3b 5e 3d a4 8b e2 bd 72 cf a5 3d
       0.023952797 0.05425614 -0.110617906 0.08096208
000330 1e 4b fb 3d 5c c2 81 bd 68 74 f4 3d 90 15 b4 bc
       0.12270187 -0.06335899 0.11936265 -0.021982938
000340 3e 0f c4 bd 22 27 e1 3d 0c 0c ae 3d 28 32 83 3c
       -0.0957322 0.10993792 0.084983915 0.016015127
000350 7e 48 f6 3d 38 f9 ac 3c 1c 7d 8a 3d 3a 5f aa bd
       0.120255455 0.02111493 0.06762144 -0.08318944
000360 c6 5d 81 3d a8 3f 08 3d 50 85 74 3d 20 89 8d bd
       0.06316714 0.033263832 0.05969745 -0.0691092
000370 e0 ec 81 bc f6 6c da bd 24 c2 05 3d 2c de a0 3d
       -0.015860021 -0.10665314 0.03265585 0.07854876
000380 80 5d a4 ba 86 03 8b 3d 52 08 d4 bd 08 86 a1 bc
       -0.0012540072 0.067877814 -0.103531495 -0.019717231
000390 02 7b f1 bd fc b9 7e bd 8c af 26 3d b8 c1 d0 3d
       -0.1179104 -0.062189087 0.04069476 0.10193199
0003a0 a0 18 e9 3c e0 5a 58 bd ec 3b 05 3d 0e e3 e3 bd
       0.028454125 -0.05282104 0.03252785 -0.111272916
0003b0 6e 12 e8 bd d6 40 c4 bd be 73 ff 3d e8 78 44 bd
       -0.1133164 -0.09582679 0.12473248 -0.047966868
0003c0 b8 8e af bd e0 f4 68 bd b6 b0 b3 3d 18 46 1d 3d
       -0.08572143 -0.056874156 0.08773939 0.038396925
0003d0 c8 89 88 3d 8a a5 99 bd 10 fc 47 3d 84 50 b1 bd
       0.06666905 -0.07502277 0.04882437 -0.08657935
0003e0 60 67 a7 bd 50 17 94 3c 70 d6 c4 3d 4c 00 b0 bd
       -0.08174014 0.018077523 0.09611213 -0.085938066
0003f0 a4 a6 1d bd 28 38 dc 3d 18 45 2c bd 20 96 0d bd
       -0.038489 0.107528985 -0.04205808 -0.034567

bias f4 [64]
000000 5a 73 db 3d 84 7c 75 3d f6 32 d9 bd 80 fc 8d 3a
       0.10715361 0.0599332 -0.10605423 0.0010832697
000010 c0 91 38 3d a8 4b 53 bd 70 d8 1c 3c 58 22 62 3d
       0.045060873 -0.051585823 0.009573087 0.055208534
000020 92 2c 95 bd 08 96 db 3c dc 7b 77 bd 8c df 8f 3d
       -0.07283892 0.026804939 -0.060420856 0.0702506
000030 f4 bc db 3d 4e a8 f1 3d 38 ed 20 bd c0 9c 2a 3c
       0.10729399 0.1179968 -0.03928873 0.010413349
000040 1c 36 80 3d b8 de c9 3d bc a0 e9 bd 54 ea 6c 3d
       0.062603205 0.09856933 -0.11407611 0.05784066
000050 2e 68 cb 3d 0c 5f e1 bd 7e c5 92 bd 70 16 c7 bc
       0.0993198 -0.11004457 -0.07166575 -0.024302691
000060 c8 15 9b 3d f6 e9 c0 bd ac d2 82 bd 74 04 12 3d
       0.07572514 -0.094196245 -0.06387839 0.035648778
000070 c0 62 58 3b a2 99 a4 3d 56 6a dd 3d 94 2f ed 3d
       0.0033017844 0.08037116 0.108112976 0.115813404
000080 50 eb eb bd 2c 4e 33 3d 68 6b 96 bd e6 9f 82 bd
       -0.11519492 0.043775722 -0.07344705 -0.063781545
000090 04 97 2a bd 34 3a 41 bd e0 62 43 bc 28 a4 a9 3c
       -0.041647926 -0.047174647 -0.011925429 0.020708159
0000a0 5a cf b6 3d 1e c9 af bd 00 df a1 bd e0 d1 1b 3c
       0.08926268 -0.08583282 -0.07903862 0.009510487
0000b0 54 48 46 bd 88 42 90 3d 70 00 74 3c 88 6c 68 3d
       -0.04840882 0.0704394 0.014892682 0.05674413
0000c0 76 a1 fe bd 40 23 d7 3c ce bb a2 bd 00 47 14 bc
       -0.1243314 0.026261926 -0.07945977 -0.009050131
0000d0 74 34 ef bd e0 9b 51 3d 74 51 76 bd fc 81 fe bd
       -0.116799265 0.051174045 -0.060136274 -0.12427136
0000e0 c4 b4 34 3d 98 9a c3 bc f8 94 e7 bd 76 27 95 3d
       0.044117704 -0.023877427 -0.113077104 0.07282917
0000f0 e8 1b 06 3d cc 8e 9f 3d 70 61 c6 bc 4c d6 ac 3d
       0.032741457 0.07790908 -0.024216384 0.084393114

weight f4 [64, 64]
000000 56 61 c9 3d 6e aa b1 bd 3e cb e3 bd 14 ab 4c 3d
       0.098330185 -0.08675085 -0.1112275 0.04996784
000010 7a b8 f1 3d a4 86 09 3d 40 00 d4 3d a0 bb e8 3b
       0.11802764 0.03357567 0.1035161 0.007102445
000020 c4 6a 33 bd 14 89 fc bd 68 75 a4 3d f0 60 8f 3d
       -0.04380299 -0.12330833 0.08030206 0.07000911
000030 38 4f e1 bc b8 89 c5 3c 72 fb cd 3d 46 b7 e8 3d
       -0.027503595 0.024113521 0.10057725 0.11363082
000040 6a 18 bc bd a0 59 a8 3d b0 c2 a7 3d c8 63 92 bd
       -0.09184344 0.082202196 0.081914306 -0.07147938
000050 bc 45 55 3d 5c 10 47 3d 1e 0d 97 3d f4 66 45 3d
       0.052068457 0.048599586 0.07375549 0.048193887
000060 40 2c 63 3d 70 43 fa 3d 80 6a 22 3d 78 bb b0 3c
       0.055462122 0.12219894 0.039652348 0.021573767
000070 6a 67 fa bd a8 ee ef bd 4c 88 8e 3d 1c 00 29 3d
       -0.12226756 -0.11715442 0.0695959 0.04125987
000080 c4 4d 11 bd 9e 94 8a bd 1e 92 f9 3d d0 9f b6 3d
       -0.035474554 -0.06766628 0.12186073 0.089172006
000090 38 21 95 3c 40 e5 5e 3d 2e d9 bd bd be 1c b1 3d
       0.018204316 0.05441785 -0.09269939 0.0864806
0000a0 8c 85 dd bd d8 d9 ee 3c be 71 bc 3d 34 66 af bd
       -0.10816488 0.02915661 0.09201382 -0.085644156
0000b0 90 5c 09 3d a0 0c c1 bc 60 64 94 3c 28 15 e7 bc
       0.03353554 -0.02356559 0.018114269 -0.02820833
0000c0 08 30 8d 3c dc 9c 48 3d 2c 4e 79 bd 00 54 1d bb
       0.017234817 0.048977718 -0.060865566 -0.0024006367
0000d0 fc b6 2b 3d 20 53 c4 bb d0 0f 91 bd 6e 76 fe 3d
       0.041922554 -0.0059913546 -0.07083094 0.124249324
0000e0 da e8 fc bd 58 06 7f bd d0 91 f5 3d 48 6f a2 3c
       -0.123491004 -0.06226191 0.11990702 0.019828454
0000f0 d4 00 70 3d 38 0b 90 3c 40 90 77 3c da 9c 8b bd
       0.05859454 0.017583475 0.0151100755 -0.068170264
000100 a2 ab a4 bd 66 2d d5 bd a4 17 8a bd f0 65 60 bd
       -0.08040549 -0.1040905 -0.0674279 -0.054784715
000110 c0 3e 1a 3b 68 47 cb bd 48 5b dc 3d 86 5f fa bd
       0.0023535937 -0.09925729 0.10759598 -0.12225251
000120 40 19 a1 bb 32 d7 94 bd 40 7b 03 3c 30 15 d5 bc
       -0.00491634 -0.07267608 0.008024991 -0.02601108
000130 70 03 9b bd 62 f5 ce 3d ba 39 86 bd a8 5e 69 bd
       -0.07569015 0.10105397 -0.06553979 -0.056975037
000140 28 7b ee bd 20 50 b8 bc f0 03 76 bd 18 82 ab bd
       -0.11644584 -0.022499144 -0.06006235 -0.08374423
000150 1c 6b 9d 3d 7e ac ba 3d 60 51 e1 3d 76 39 94 bd
       0.07686445 0.091149315 0.11001849 -0.07237522
000160 bc c1 1f bd fc d3 35 bd ee 33 88 3d 94 bc 4c 3d
       -0.03900312 -0.044391617 0.0665053 0.04998453
000170 64 3a b1 bd fa 43 fd bd 20 61 60 bd 98 f6 97 3d
       -0.08653715 -0.12366481 -0.054780126 0.07420081
000180 e6 c8 96 bd 22 ad a7 3d ce 94 ff bd ec 2f b3 3d
       -0.07362537 0.08187319 -0.12479554 0.08749375
000190 80 bb f8 3b 90 bd 75 bc f0 5b c2 bd 64 ac 95 3d
       0.007590711 -0.0149988085 -0.09490192 0.073082715
0001a0 88 c6 82 3c 98 fe 2d 3d b6 07 9f bd 2c df b4 3d
       0.015963808 0.042479128 -0.077651426 0.08831629
0001b0 20 6a aa bb 64 b9 13 bd 4c 22 b2 3d 76 9d 97 bd
       -0.0052006394 -0.036065474 0.08697948 -0.0740308
0001c0 c2 0a b0 bd 90 6a ef bd 6e 5b c8 3d 20 6f 6f 3c
       -0.08595802 -0.11690247 0.09783064 0.014613897
0001d0 64 73 b7 bd 3e 44 a6 bd fc ac 48 3d 20 98 e1 bc
       -0.08957556 -0.08118485 0.048993096 -0.02753836
0001e0 70 37 11 3d 88 8c fc 3d 68 7e e5 bd cc d4 bd 3d
       0.03545326 0.12331492 -0.11205751 0.092691034
0001f0 c4 41 fb 3d bc b3 d5 3d 68 85 5d 3d 30 08 47 3d
       0.12268403 0.10434672 0.054082304 0.048591793
000200 80 32 74 bd 8c 0d 8f 3d ac 1e 4d 3d 26 90 90 bd
       -0.059618473 0.06985006 0.05007808 -0.07058744
000210 94 07 da bd 30 d9 6d bc c0 2c 56 bc be a8 d0 3d
       -0.10645977 -0.014517114 -0.013072193 0.10188435
000220 00 e4 5a ba f4 13 32 3d 2e 59 c9 bd 06 f6 a8 bd
       -0.00083500147 0.04347606 -0.09831463 -0.0825005
000230 52 79 df 3d 38 b9 b3 3d 78 db 0c bd 38 9c 97 bd
       0.10911812 0.08775562 -0.03438899 -0.07402843
000240 44 bf 29 3d 6a f1 e8 bd c0 49 89 3c 30 16 3b 3d
       0.04144217 -0.11374171 0.0167588 0.045675457
000250 98 c3 9d 3d e8 f8 54 3d a8 ae af 3d 92 df 8f bd
       0.07703322 0.051995188 0.08578235 -0.070250645
000260 f4 89 07 bd a2 86 82 3d 52 66 d1 bd 58 94 b7 3c
       -0.033090547 0.063733354 -0.10224594 0.022409603
000270 68 7d aa bd fe fb f2 bd 3c ef 14 bd 80 b5 6b 3c
       -0.083247006 -0.1186447 -0.036360964 0.014386535
000280 f2 d5 95 bd 00 f5 c4 bc 40 b3 eb bd 78 24 95 bd
       -0.073161975 -0.024042606 -0.115087986 -0.072823465
000290 0c 19 04 3d 08 e9 32 bd b8 92 81 bd c8 43 91 3c
       0.03225045 -0.043679267 -0.063268125 0.017732516
0002a0 34 18 0a bd e8 76 f7 bd c8 5d f1 bd c0 c4 4f bc
       -0.03371449 -0.120832264 -0.117854655 -0.012681186
0002b0 fe 33 a4 bd 86 e0 d8 3d 70 52 b5 3c 42 2a ce bd
       -0.08017729 0.105896994 0.022134036 -0.10066654
0002c0 b0 b4 f1 bc 10 db 65 3d 00 e4 a1 bb 30 17 c8 3c
       -0.029505104 0.056117117 -0.00494051 0.02442512
0002d0 ac 01 26 3d d4 f4 f1 3d e6 cc d8 3d e8 d3 6a bd
       0.04052894 0.118142754 0.10585956 -0.057330996
0002e0 44 18 c1 bd 98 31 9c bd 36 66 d9 3d c0 5e 50 bb
       -0.094284564 -0.07626647 0.10615198 -0.0031794757
0002f0 2e 70 ba bd 56 dd a5 bd 60 56 2f 3c 7c 9d 39 bd
       -0.09103428 -0.08098857 0.010701746 -0.045316204
000300 3c f9 e0 bd a0 80 f5 3d f4 3d 2f 3d 60 bf 32 bd
       -0.10985038 0.11987424 0.042783692 -0.04363954
000310 8c f8 a7 bd 58 14 72 bd 68 15 bb bc 26 c6 b7 3d
       -0.082017034 -0.059101433 -0.022837356 0.08973341
000320 ac 4f 4d 3d 34 8d f9 bd 30 9e e4 bd cc aa a4 3d
       0.05012481 -0.121851355 -0.11162984 0.080403894
000330 7c 40 75 bd 9e 87 b0 3d cc 75 97 bd 2e 59 b3 3d
       -0.05987595 0.08619617 -0.07395515 0.08757244
000340 78 e2 b4 bc 14 24 98 bd 98 e2 01 3d f8 e6 e7 3c
       -0.022080645 -0.07428756 0.031710237 0.028308377
000350 c4 ab fc bd 8e 57 fb bd b0 bb 11 bd 1e 6b a3 bd
       -0.12337449 -0.12272559 -0.035579383 -0.07979415
000360 0c 34 0e bd 3e ff 8b bd 00 b2 e9 39 d8 dd 4e bd
       -0.034717605 -0.06835793 0.00044573843 -0.050504535
000370 80 73 72 3b d4 4a 97 3d c0 f9 7f bc d8 d3 ab bc
       0.0036995113 0.07387319 -0.01562351 -0.020975038
000380 4c e5 99 bd c8 6b a3 3d 68 c2 ad bd e0 3e e8 3d
       -0.07514438 0.07979542 -0.08484346 0.113401175
000390 6e c6 ab 3d c0 d7 2c bb c4 6d 3f bd a6 ae b0 bd
       0.08387457 -0.0026373714 -0.04673554 -0.086270615
0003a0 b0 a5 08 3c 20 99 f0 bc 82 c2 e3 bd 5c 69 1c 3d
       0.008340284 -0.02936989 -0.11121084 0.038186416
0003b0 4c d7 a1 3d 28 31 d1 bd 40 c1 34 bb b0 32 8e bc
       0.07902393 -0.10214454 -0.0027581006 -0.017358154
0003c0 6c d4 04 3d 40 2f 04 bc 80 04 d0 3c 04 db 30 bd
       0.032429144 -0.008067906 0.02539277 -0.04317762
0003d0 64 c1 f4 3d ac f9 08 3d 54 1e 8f 3d 54 51 1d 3d
       0.11950949 0.03344123 0.069882065 0.03840764
0003e0 c4 97 1e bd 36 d8 94 3d b0 73 e8 bd 26 2e a6 bd
       -0.038718954 0.072678015 -0.11350191 -0.08114271
0003f0 c0 b6 23 3d 1a 26 90 bd e6 bc fe bd 42 b9 96 bd
       0.039969206 -0.07038517 -0.12438373 -0.07359554

bias f4 [64]
000000 44 a6 e3 bd 84 99 27 3d 58 da e2 3c 80 e7 f0 bb
       -0.11115697 0.04091789 0.027692005 -0.0073518157
000010 10 f1 33 3c 32 cc c1 bd e6 3e c8 bd bc c7 3d 3d
       0.010982767 -0.09462775 -0.09777622 0.04633306
000020 d0 58 b4 bc e6 0e f4 bd 30 67 78 3c e0 3b 22 bc
       -0.022015005 -0.11916904 0.015161321 -0.009901971
000030 00 04 9e 3b 08 31 97 3c 0c e4 c5 bd d8 bc 7a 3d
       0.004822254 0.018455997 -0.09662637 0.06121525
000040 00 2b c9 bb 70 d1 0d 3d 60 33 ff bd 6c 6f 33 bd
       -0.006139159 0.034623563 -0.12460971 -0.043807432
000050 52 05 af bd 66 9b f2 bd 74 7c db 3d 70 52 b3 bd
       -0.08545937 -0.11846046 0.10717097 -0.08755958
000060 f8 f4 99 3c 20 ca 05 3c 2c 96 9c 3d 02 f0 8f 3d
       0.018793568 0.008165866 0.076458305 0.070282
000070 28 6b ac 3d 38 a9 0a bd e2 d8 98 3d 96 53 b9 3d
       0.08418876 -0.033852786 0.07463242 0.09049146
000080 e0 77 c6 3b ac b0 7f bd 80 53 95 bc 0c e5 63 bd
       0.0060567707 -0.062424347 -0.018228292 -0.055638358
000090 7c 81 1d 3d aa 83 dd 3d c0 0b 97 3c c0 74 90 3b
       0.038453564 0.108161286 0.01843822 0.004408449
0000a0 cc 3d 8a bd 00 34 d3 bb 02 67 bc bd c6 8c b7 3d
       -0.06750068 -0.006445408 -0.09199335 0.08962397
0000b0 20 8a 5e bc 70 42 aa bc 54 59 f3 3d 30 77 ba 3d
       -0.013582736 -0.020783633 0.11882272 0.091047645
0000c0 d8 1a ca 3c ac f6 2a 3d 68 df 17 3d 50 f9 cf bc
       0.024671003 0.04173915 0.03707829 -0.025387436
0000d0 70 e9 50 3c 9c bb bc bd 24 ca 17 3d 3a 62 e3 bd
       0.012750968 -0.09215471 0.03705801 -0.111027196
0000e0 d0 7b d0 3d 98 69 dd bd 50 2b d4 bc 28 10 cd 3c
       0.10179865 -0.10811156 -0.02589956 0.025032118
0000f0 50 a2 8c 3d fc ca 33 3d 1c ad 9b 3d 40 ed c6 bb
       0.06866896 0.043894753 0.07601377 -0.006070763

weight f4 [64]
000000 00 00 80 3f 00 00 80 3f 00 00 80 3f 00 00 80 3f
       1.0 1.0 1.0 1.0
000010 00 00 80 3f 00 00 80 3f 00 00 80 3f 00 00 80 3f
       1.0 1.0 1.0 1.0
000020 00 00 80 3f 00 00 80 3f 00 00 80 3f 00 00 80 3f
       1.0 1.0 1.0 1.0
000030 00 00 80 3f 00 00 80 3f 00 00 80 3f 00 00 80 3f
       1.0 1.0 1.0 1.0
000040 00 00 80 3f 00 00 80 3f 00 00 80 3f 00 00 80 3f
       1.0 1.0 1.0 1.0
000050 00 00 80 3f 00 00 80 3f 00 00 80 3f 00 00 80 3f
       1.0 1.0 1.0 1.0
000060 00 00 80 3f 00 00 80 3f 00 00 80 3f 00 00 80 3f
       1.0 1.0 1.0 1.0
000070 00 00 80 3f 00 00 80 3f 00 00 80 3f 00 00 80 3f
       1.0 1.0 1.0 1.0
000080 00 00 80 3f 00 00 80 3f 00 00 80 3f 00 00 80 3f
       1.0 1.0 1.0 1.0
000090 00 00 80 3f 00 00 80 3f 00 00 80 3f 00 00 80 3f
       1.0 1.0 1.0 1.0
0000a0 00 00 80 3f 00 00 80 3f 00 00 80 3f 00 00 80 3f
       1.0 1.0 1.0 1.0
0000b0 00 00 80 3f 00 00 80 3f 00 00 80 3f 00 00 80 3f
       1.0 1.0 1.0 1.0
0000c0 00 00 80 3f 00 00 80 3f 00 00 80 3f 00 00 80 3f
       1.0 1.0 1.0 1.0
0000d0 00 00 80 3f 00 00 80 3f 00 00 80 3f 00 00 80 3f
       1.0 1.0 1.0 1.0
0000e0 00 00 80 3f 00 00 80 3f 00 00 80 3f 00 00 80 3f
       1.0 1.0 1.0 1.0
0000f0 00 00 80 3f 00 00 80 3f 00 00 80 3f 00 00 80 3f
       1.0 1.0 1.0 1.0

bias f4 [64]
000000 00 00 00 00 00 00 00 00 00 00 00 00 00 00 00 00
       0.0 0.0 0.0 0.0
000010 00 00 00 00 00 00 00 00 00 00 00 00 00 00 00 00
       0.0 0.0 0.0 0.0
000020 00 00 00 00 00 00 00 00 00 00 00 00 00 00 00 00
       0.0 0.0 0.0 0.0
000030 00 00 00 00 00 00 00 00 00 00 00 00 00 00 00 00
       0.0 0.0 0.0 0.0
000040 00 00 00 00 00 00 00 00 00 00 00 00 00 00 00 00
       0.0 0.0 0.0 0.0
000050 00 00 00 00 00 00 00 00 00 00 00 00 00 00 00 00
       0.0 0.0 0.0 0.0
000060 00 00 00 00 00 00 00 00 00 00 00 00 00 00 00 00
       0.0 0.0 0.0 0.0
000070 00 00 00 00 00 00 00 00 00 00 00 00 00 00 00 00
       0.0 0.0 0.0 0.0
000080 00 00 00 00 00 00 00 00 00 00 00 00 00 00 00 00
       0.0 0.0 0.0 0.0
000090 00 00 00 00 00 00 00 00 00 00 00 00 00 00 00 00
       0.0 0.0 0.0 0.0
0000a0 00 00 00 00 00 00 00 00 00 00 00 00 00 00 00 00
       0.0 0.0 0.0 0.0
0000b0 00 00 00 00 00 00 00 00 00 00 00 00 00 00 00 00
       0.0 0.0 0.0 0.0
0000c0 00 00 00 00 00 00 00 00 00 00 00 00 00 00 00 00
       0.0 0.0 0.0 0.0
0000d0 00 00 00 00 00 00 00 00 00 00 00 00 00 00 00 00
       0.0 0.0 0.0 0.0
0000e0 00 00 00 00 00 00 00 00 00 00 00 00 00 00 00 00
       0.0 0.0 0.0 0.0
0000f0 00 00 00 00 00 00 00 00 00 00 00 00 00 00 00 00
       0.0 0.0 0.0 0.0

running_mean f4 [64]
000000 00 00 00 00 00 00 00 00 00 00 00 00 00 00 00 00
       0.0 0.0 0.0 0.0
000010 00 00 00 00 00 00 00 00 00 00 00 00 00 00 00 00
       0.0 0.0 0.0 0.0
000020 00 00 00 00 00 00 00 00 00 00 00 00 00 00 00 00
       0.0 0.0 0.0 0.0
000030 00 00 00 00 00 00 00 00 00 00 00 00 00 00 00 00
       0.0 0.0 0.0 0.0
000040 00 00 00 00 00 00 00 00 00 00 00 00 00 00 00 00
       0.0 0.0 0.0 0.0
000050 00 00 00 00 00 00 00 00 00 00 00 00 00 00 00 00
       0.0 0.0 0.0 0.0
000060 00 00 00 00 00 00 00 00 00 00 00 00 00 00 00 00
       0.0 0.0 0.0 0.0
000070 00 00 00 00 00 00 00 00 00 00 00 00 00 00 00 00
       0.0 0.0 0.0 0.0
000080 00 00 00 00 00 00 00 00 00 00 00 00 00 00 00 00
       0.0 0.0 0.0 0.0
000090 00 00 00 00 00 00 00 00 00 00 00 00 00 00 00 00
       0.0 0.0 0.0 0.0
0000a0 00 00 00 00 00 00 00 00 00 00 00 00 00 00 00 00
       0.0 0.0 0.0 0.0
0000b0 00 00 00 00 00 00 00 00 00 00 00 00 00 00 00 00
       0.0 0.0 0.0 0.0
0000c0 00 00 00 00 00 00 00 00 00 00 00 00 00 00 00 00
       0.0 0.0 0.0 0.0
0000d0 00 00 00 00 00 00 00 00 00 00 00 00 00 00 00 00
       0.0 0.0 0.0 0.0
0000e0 00 00 00 00 00 00 00 00 00 00 00 00 00 00 00 00
       0.0 0.0 0.0 0.0
0000f0 00 00 00 00 00 00 00 00 00 00 00 00 00 00 00 00
       0.0 0.0 0.0 0.0

running_var f4 [64]
000000 00 00 80 3f 00 00 80 3f 00 00 80 3f 00 00 80 3f
       1.0 1.0 1.0 1.0
000010 00 00 80 3f 00 00 80 3f 00 00 80 3f 00 00 80 3f
       1.0 1.0 1.0 1.0
000020 00 00 80 3f 00 00 80 3f 00 00 80 3f 00 00 80 3f
       1.0 1.0 1.0 1.0
000030 00 00 80 3f 00 00 80 3f 00 00 80 3f 00 00 80 3f
       1.0 1.0 1.0 1.0
000040 00 00 80 3f 00 00 80 3f 00 00 80 3f 00 00 80 3f
       1.0 1.0 1.0 1.0
000050 00 00 80 3f 00 00 80 3f 00 00 80 3f 00 00 80 3f
       1.0 1.0 1.0 1.0
000060 00 00 80 3f 00 00 80 3f 00 00 80 3f 00 00 80 3f
       1.0 1.0 1.0 1.0
000070 00 00 80 3f 00 00 80 3f 00 00 80 3f 00 00 80 3f
       1.0 1.0 1.0 1.0
000080 00 00 80 3f 00 00 80 3f 00 00 80 3f 00 00 80 3f
       1.0 1.0 1.0 1.0
000090 00 00 80 3f 00 00 80 3f 00 00 80 3f 00 00 80 3f
       1.0 1.0 1.0 1.0
0000a0 00 00 80 3f 00 00 80 3f 00 00 80 3f 00 00 80 3f
       1.0 1.0 1.0 1.0
0000b0 00 00 80 3f 00 00 80 3f 00 00 80 3f 00 00 80 3f
       1.0 1.0 1.0 1.0
0000c0 00 00 80 3f 00 00 80 3f 00 00 80 3f 00 00 80 3f
       1.0 1.0 1.0 1.0
0000d0 00 00 80 3f 00 00 80 3f 00 00 80 3f 00 00 80 3f
       1.0 1.0 1.0 1.0
0000e0 00 00 80 3f 00 00 80 3f 00 00 80 3f 00 00 80 3f
       1.0 1.0 1.0 1.0
0000f0 00 00 80 3f 00 00 80 3f 00 00 80 3f 00 00 80 3f
       1.0 1.0 1.0 1.0
